logging/net_epoch41.pth (torch_old, 92173 bytes, 66 tensors)

radarnet.encoder.Wxi.weight f4 [16, 1, 3, 3]
00000000: 5648 4a3e dbbf 3fbe d6b7 b0bd c8eb a8be
00000010: 1fcd a73e 1367 97be b3e2 52be acc0 92bd
00000020: dbb1 6cbe bc54 f5bd b678 413e 2ddd 9b3e
00000030: 44c6 873d 981f 4ebd a0ba f63d f00b f2bc
00000040: ae94 6cbe 8ad8 99be d1c6 9c3e 082a 753d
00000050: f344 833e 661c bbbd 2604 febd e623 51be
00000060: e001 d0bd a20d 94be d00c ba3c 38af 273e
00000070: efc3 9e3e 8471 ee3d b06d 9abd 08a8 25be
00000080: 0c04 c33d 4010 fcbd e011 15bd 30d6 b9bc
00000090: 564d 483e 07e8 a6be 2416 a9be f5db 893e
000000a0: 1062 d8bc 3f6f 983e 83f4 9abe 9c9c ee3d
000000b0: 7ef4 663e 1611 f7bd 7cd1 ebbd 06cd 413e
000000c0: 00ad 35be d00b 89bc 81a0 8d3e 4833 54bd
000000d0: 0680 a0be e0be 193d d8e8 103e cc36 993d
000000e0: 10a9 9a3d 8e19 a2be baf9 4b3e 069b 513e
000000f0: fa92 103e 7805 6fbd 70fd 7abe 612b a43e
00000100: 9460 91be 6953 983e 72bc 623e aa2a 5f3e
00000110: 08a6 703d 8b3b 1ebe 6c03 91be cc55 89be
00000120: 5747 9d3e 2d8b 9f3e 1f58 8ebe 8c0b ddbd
00000130: 6f48 95be 76d5 debd 0d8c 883e 920b 673e
00000140: 90e9 8bbd 6410 a3be 50bd fc3c 2597 a93e
00000150: d047 f4bd 6efc 80be 1209 5e3e c030 1abd
00000160: 2560 a93e 301a 1f3e f053 adbc 39e9 9d3e
00000170: 9468 f23d e011 1c3e c077 e1bc ce78 00be
00000180: c8a8 98be b202 773e 4002 a23b daed 053e
00000190: 70f4 abbc 06a0 d1bd 7334 38be 0040 cfb9
000001a0: c89c 69be 50f3 9f3c 8087 473b a64b 9fbe
000001b0: 30a9 dc3d c85b 91be 311f 973e 7072 54be
000001c0: 10cf bebc fb58 34be 88ad 48be 10fc a4be
000001d0: d423 83be 8e05 6f3e 48da 6dbd e510 983e
000001e0: e8da 63bd d558 813e 0077 deba 40c4 883b
000001f0: f072 58be 7069 eb3c 78d2 69bd 72d5 153e
00000200: 2501 8b3e 360b 68be 4063 9c3d 01ba 823e
00000210: ae8a 07be 84e1 b13d 5ca0 c4bd 2be2 26be
00000220: 6403 aa3d 2027 243d b891 28be f619 95be
00000230: b059 68be c0d8 b7bb 1e6d 40be aa44 213e
0.19754156 -0.18725531 -0.08628814 -0.32992387 0.32773682 -0.29570827 -0.20594291 -0.071656555
-0.23114721 -0.119790524 0.18893704 0.3044218 0.06629613 -0.0503231 0.12047315 -0.029546708
-0.23103592 -0.3004802 0.30620435 0.059854537 0.25638542 -0.09136276 -0.12403135 -0.2042385
-0.10156608 -0.2891665 0.022711188 0.16375434 0.3100886 0.11642745 -0.075404525 -0.1617738
0.09522256 -0.12307787 -0.036394 -0.02268514 0.19560751 -0.32598898 -0.33024704 0.26925626
-0.026413947 0.29772374 -0.30264673 0.116509646 0.22554204 -0.12063806 -0.11514565 0.18925866
-0.17741776 -0.016729265 0.27661517 -0.051806718 -0.31347674 0.03753555 0.14151323 0.07481155
0.07551777 -0.31660122 0.19919482 0.20469293 0.14118567 -0.058354825 -0.24510741 0.32064345
-0.28393996 0.29751137 0.22142199 0.21793619 0.05875209 -0.15452401 -0.28322923 -0.2682327
0.3071849 0.3116087 -0.27801606 -0.10793218 -0.29156825 -0.10880558 0.2666935 0.22563007
-0.06831658 -0.31848443 0.03085199 0.33123127 -0.1192776 -0.2519259 0.21683148 -0.037644148
0.33081165 0.15537333 -0.021158189 0.30841997 0.11836353 0.15241194 -0.027522922 -0.12546083
-0.2981627 0.24122122 0.004944116 0.13079014 -0.02099058 -0.102356 -0.17988758 -0.000395298
-0.22813714 0.0195252 0.0030445755 -0.31112403 0.107744575 -0.28390336 0.29515985 -0.2074678
-0.023292094 -0.17612068 -0.19597447 -0.32223558 -0.25613272 0.23341963 -0.058069497 0.2970039
-0.055628687 0.25263086 -0.0016972721 0.0041737854 -0.21137595 0.0287368 -0.057085484 0.14632204
0.2714931 -0.22660527 0.07636118 0.25532535 -0.13236496 0.08685592 -0.096008986 -0.16297214
0.08301428 0.040076375 -0.16461837 -0.2912137 -0.22690463 -0.0056105554 -0.18791625 0.1574885

radarnet.encoder.Wxi.bias f4 [16]
00000000: 2c60 d7bd a05e e63d 3a45 2e3e 977f a03e
00000010: 76aa 263e 801a eabc 26ef 50be 4223 2b3e
00000020: 68db 293e daee 87be 7090 9cbc b7a1 91be
00000030: da65 143e c036 fcbd 7697 43be 73ba 43be
-0.1051639 0.11248517 0.17018595 0.31347343 0.16275963 -0.02857709 -0.20403728 0.16712669
0.16587603 -0.26549417 -0.019111842 -0.2844369 0.14491978 -0.1231513 -0.19100747 -0.19114093

radarnet.encoder.Whi.weight f4 [16, 16, 3, 3]
00000000: d69e 1abd 62ea 463d 16ae 4a3d 29b2 8e3d
00000010: 3c91 82bc e3c8 77bd 807e d1bc e25d 413d
00000020: 7428 f93c e660 713d c0da 78bd 2816 87bd
00000030: ba0b 373d b48e c83c fa3a 793d d61d cebc
00000040: ec40 c5bc c4fb a93c c0d6 deba a61f 1ebd
00000050: 3ee6 6abd 58e5 1f3c 9ee1 50bd 3e02 58bd
00000060: 90ea e4bb 6c45 fabc 5c1d b7bc e021 12bd
00000070: e04f 7d3c e115 a43d 41b2 9c3d bef1 5fbd
00000080: 24b9 8cbd d070 c7bb 884f 033d 88ed 0a3c
00000090: b0df b63c 7b61 4abd 58d4 60bd 46fc 26bd
000000a0: 8b9f 0cbd ea60 353d 1fef 91bd 1892 16bd
000000b0: 8ed1 a5bd b3a2 97bd 481f 7ebc 4690 20bd
000000c0: 1029 afbc 40f9 ea3b 6f49 a4bd 2000 213c
000000d0: 7807 a2bd 401b 8ebc 7073 133d 380f 38bd
000000e0: e68a d9bc c094 91bb 678b a73d fe38 683d
000000f0: 0312 3dbd e8ea 393c cc11 a0bc 106c b3bb
00000100: 70ec a73c 0804 38bc 46cc d2bc c0d7 753c
00000110: 5ed0 43bd 966d 80bd b24b 113d 762b 4c3d
00000120: 105a 92bb 4cf6 ae3c a031 1cbb 7c42 f93c
00000130: ac8f 94bc 0cc4 fa3c e888 28bd 66c6 e5bc
00000140: 80df 923b 8352 86bd a244 4b3d 348b ee3c
00000150: 7603 b1bc fb94 a6bd 8057 473b a667 ccbc
00000160: a70d 823d 70d2 51bd b6b4 05bd 602a b7bc
00000170: 7cac b6bc 6cba dbbc b25f 4a3d 905b dd3b
00000180: 167d eabc 7269 313d 20f0 503b 84e8 92bc
00000190: 40f1 a1ba 318c 9b3d 80ee 093d 363b 34bd
000001a0: 388e 65bc 4e04 30bd c800 28bc c4f7 d83c
000001b0: 2ee2 2ebd 25f7 963d 00a8 653c e0b6 1c3d
000001c0: 8970 823d c6c4 2f3d 63d4 4dbd eb89 5fbd
000001d0: 6015 2a3d b04c d23b ae13 7cbd 8bcf 8ebd
000001e0: 067c f3bc a1ea 9f3d 56b9 a2bd 239a 22bd
000001f0: fb51 86bd ce9a 763d b7b4 a13d 00bb 21bb
00000200: 7672 3fbd 1bbf 3dbd c890 7cbd 0cec 80bd
00000210: 2435 9a3c 3be0 0abd 46cc 223d 4c2b 95bc
00000220: c34b 8a3d cb76 aa3d 3ef8 5cbd 80fd 75ba
00000230: 88bf 87bd 8a24 023d 3fef 8d3d 029e 6b3d
00000240: a05a 85bd 96b0 203d 3494 91bd e3c7 a23d
00000250: 9ee5 783d 233f 88bd 6b0d 833d e273 373d
00000260: 00fd 6ebd 9ba5 47bd 75d0 a53d d2f0 5c3d
00000270: 307a dbbc 564b aabd cb8f 4cbd aa30 9cbd
00000280: 9ec7 37bd 40da 37bc df76 aa3d 1017 d73c
00000290: 288f 02bc c6ff 1cbd 3cbb d83c 6ce0 cdbc
000002a0: 29e4 943d 04d8 893c 28ca 88bd 8241 5e3d
000002b0: c0be a13a 505d ad3b 0043 37bb f007 8f3c
000002c0: 8a3d 4d3d ee4b 283d cadc 6d3d 280b 32bc
000002d0: f05d 74bd ed08 873d abe0 73bd 1091 023d
000002e0: f008 1a3d 183d 103c 7e22 85bd 00ea 67ba
000002f0: 9fcb 88bd a6c5 9abd 8e53 5dbd db6b a53d
00000300: 0c1e 81bc 50c5 84bb a206 aabd 3b53 a73d
00000310: 9612 cdbc 4234 663d d2fa 0f3d 00a0 5cbd
00000320: 047f 82bc 40f1 be3a 0a5d 573d c67a b7bc
00000330: e42b a4bd c879 22bd 4c7f e7bc e062 243d
00000340: 36df a9bd e028 d7bc b91a a33d 0030 6abb
00000350: 66d9 4cbd 9099 60bd 4e55 013d ea86 083d
00000360: 5682 263d b253 96bd c073 2a3c 9e8d 1ebd
00000370: 9e96 1ebd 54de d73c 4096 8f3a 0004 6a3b
00000380: fefa 0cbd 60ef e23c e0e1 5abb f60e 70bd
00000390: 1411 97bd 8ce9 b83c ed82 a33d 04ea 81bd
000003a0: 4862 133c 00e6 513b a0f6 603c da19 7b3d
000003b0: 8e34 263d 087d 593c d088 edbc 209a 0e3b
000003c0: 8bbb 2cbd 66dc a6bd 9005 8e3c 08b4 4bbd
000003d0: e8bd 0abc f047 fabc a023 a13c c01b abbb
000003e0: 2bf8 3abd 00a0 073a 7284 0c3d 837b 863d
000003f0: c8da 21bd ac5e c8bc a09b 8d3c 5a00 a2bd
-0.037749134 0.04856337 0.049482428 0.06967575 -0.015938394 -0.060494315 -0.025573015 0.047208674
0.030414797 0.0589303 -0.06075549 -0.06596023 0.044688918 0.024482109 0.06084726 -0.025160711
-0.024078809 0.020749934 -0.0017001256 -0.0386044 -0.057348482 0.00975927 -0.050996415 -0.052736513
-0.00698597 -0.030550681 -0.022352867 -0.035676837 0.015460938 0.080119856 0.07651187 -0.054673903
-0.0687125 -0.0060864463 0.03205827 0.008479483 0.02232346 -0.04940937 -0.054890007 -0.04076793
-0.03433184 0.044281878 -0.07125687 -0.03676042 -0.0809661 -0.07404079 -0.015510388 -0.03920009
-0.021381885 0.007170826 -0.08021819 0.00982669 -0.07911581 -0.017346978 0.03599876 -0.04493639
-0.02655549 -0.004442781 0.08180886 0.056694977 -0.046159755 0.01134751 -0.019539736 -0.0054755285
0.020498484 -0.01123143 -0.02573217 0.015005052 -0.047806136 -0.06270902 0.03547258 0.049846135
-0.0044663027 0.021357678 -0.002383329 0.03042721 -0.018134914 0.03061106 -0.04114619 -0.028048705
0.0044822097 -0.065587066 0.049626 0.029119112 -0.021608096 -0.081338845 0.0030417144 -0.024951767
0.0635026 -0.05122608 -0.032643043 -0.022359073 -0.022299044 -0.026822291 0.04940767 0.0067553
-0.028624099 0.04331345 0.0031881407 -0.017933138 -0.0012355223 0.07595099 0.033674717 -0.04400178
-0.014010958 -0.042972855 -0.0102540925 0.026485331 -0.04269617 0.07371358 0.014017105 0.03826034
0.06369121 0.042912267 -0.050251376 -0.05457489 0.04152429 0.0064178333 -0.061542206 -0.069731794
-0.029722225 0.07808424 -0.07945506 -0.039697777 -0.06558605 0.060206227 0.07895797 -0.002467811
-0.046740018 -0.04632483 -0.06166151 -0.06295022 0.018824168 -0.03390525 0.03974559 -0.018209122
0.06752732 0.08323439 -0.05394768 -0.0009383783 -0.066283286 0.031773128 0.06930398 0.057523735
-0.06511426 0.039230905 -0.07108346 0.079482816 0.060765855 -0.066526674 0.06399044 0.04478825
-0.05834675 -0.048741918 0.08096401 0.0539406 -0.026791662 -0.083151504 -0.04994182 -0.076264694
-0.044868104 -0.011221468 0.08323454 0.026256114 -0.007968701 -0.038329862 0.026456468 -0.025131427
0.072700806 0.016826637 -0.06679183 0.054261692 0.0012340173 0.0052906647 -0.002796352 0.01745984
0.050107516 0.041088037 0.05807189 -0.010866918 -0.0596599 0.06593499 -0.059540432 0.031876624
0.03760618 0.008803628 -0.065007195 -0.00088468194 -0.06679463 -0.0755723 -0.054034762 0.080772124
-0.015761398 -0.004051842 -0.08302046 0.08170172 -0.025033277 0.05620218 0.03515131 -0.053863525
-0.015929706 0.0014567748 0.052578963 -0.02239741 -0.08016184 -0.03966692 -0.028258942 0.040133357
-0.08294527 -0.026264608 0.07964081 -0.0035734177 -0.050012015 -0.05483395 0.031575494 0.03333179
0.04065164 -0.07340182 0.0104035735 -0.038709275 -0.03871786 0.026351131 0.0010954812 0.003570795
-0.034419052 0.027702034 -0.0033398792 -0.058608018 -0.07376304 0.022572301 0.079839565 -0.06343463
0.0089956 0.003202796 0.013730675 0.06130395 0.040577464 0.013274439 -0.028995901 0.0021759346
-0.042171042 -0.081475064 0.017336637 -0.049732238 -0.008468129 -0.03055188 0.019670308 -0.005221814
-0.045646828 0.0005173683 0.034305997 0.06566527 -0.039515287 -0.024459206 0.017286122 -0.07910223

radarnet.encoder.Whi.bias f4 [16]
00000000: d0ea 97bb aa5d 513d 7a39 183d bc8c b5bc
00000010: 16e2 7b3d 681b 6abc d05e 0a3d e375 61bd
00000020: 28ab 423c caa2 513d 6b45 66bd 99ac 953d
00000030: 626c 743d baee 483d 1d77 8a3d fb31 99bd
-0.004636146 0.051114716 0.03716419 -0.022161834 0.06149491 -0.014288761 0.033781826 -0.055044066
0.011881627 0.05118064 -0.056218546 0.07308311 0.059673674 0.049055792 0.06761 -0.07480236

radarnet.encoder.Wxf.weight f4 [16, 1, 3, 3]
00000000: 7eef 98be bca0 90bd c3ad 0bbe 68f6 283e
00000010: 0074 d63b 24e2 993d 5e3e a7be e8a1 1fbd
00000020: c8e0 1dbe 4887 65be b2c3 0c3e bbe9 3dbe
00000030: e055 b0bd 332a 36be e087 0bbe ae71 3fbe
00000040: 40e5 ae3d 432f 61be 2460 80be 0075 7b3d
00000050: 9dd9 a83e ba4c 393e 2aad 683e 46ee 5fbe
00000060: dead 6a3e 3283 a4be 5eab 243e 88be 4d3d
00000070: 6a23 91be 9e21 57be 1057 cbbc 80d0 713b
00000080: eabf 96be e4b0 da3d 5f88 aa3e 2e95 4a3e
00000090: e68f 0cbe b8bb 5f3d fec8 6dbe af73 9b3e
000000a0: 56dc 90be bb88 6cbe 2c64 8bbe 23b6 62be
000000b0: 7e1c 2bbe 70ef fc3c 6ea2 3d3e be45 5cbe
000000c0: 0c16 84bd 2282 413e 63ad 973e 7ce6 f33d
000000d0: 0dc8 9b3e 5ff3 8bbe 2b4e 22be 827c 9cbe
000000e0: 5055 6abe 48f2 3dbd ee13 5bbe 0a3d 2c3e
000000f0: a0b1 3cbc 0034 6e3c d2d2 023e 40be 9f3d
00000100: a4d4 c03d 3478 d93d 362e 5b3e 3311 4dbe
00000110: 1006 063e 0025 073d bf26 8c3e 9ce9 8dbd
00000120: be67 043e d13a 943e 0647 e1bd a015 a9be
00000130: 9a81 a8be ee54 56be 8b8f 8fbe 80ac 63bd
00000140: 18cc 223d d05c 8bbc 6647 3f3e 180d 7dbd
00000150: ccf7 c23d fc82 c23d ba90 493e a097 62bc
00000160: ebf4 3fbe f113 9b3e 0ec0 88be 0e0b 7abe
00000170: 90e0 a23d 2c58 f43d 6f51 84be da94 493e
00000180: cdc3 8f3e e46f b03d 80ec 213b 464b 243e
00000190: 15ef 9f3e 8466 be3d d0ac 283e 4a44 453e
000001a0: 3099 f1bc 1251 103e a6ac b3bd 0657 58be
000001b0: a8a7 2cbd 835e 8b3e f658 b6bd f493 86bd
000001c0: 8722 8e3e 4a30 3f3e f099 f2bc eb6d 893e
000001d0: faf5 5d3e a56c aa3e 42af 463e f19c 823e
000001e0: 7491 85bd 8ca9 dfbd 0090 cebd f0f0 a33c
000001f0: 7f9a a23e 6085 37be 3a9e 233e 101d a2be
00000200: f865 10bd 4c5f 8fbd 3475 a3be 464a cebd
00000210: 063f 7d3e 1eb5 7fbe 61ff 8c3e 08a7 1cbe
00000220: 9861 533d 2097 473d c028 c13b f48a 8c3d
00000230: 006b 71bc 106a f8bc a84c 31be 3a16 773e
-0.29870218 -0.07061908 -0.13640504 0.16500247 0.00654459 0.07513836 -0.3266477 -0.038972765
-0.15417778 -0.22414887 0.13746527 -0.18546192 -0.08610129 -0.17789535 -0.13626051 -0.18695709
0.0853982 -0.21990685 -0.2507335 0.061390877 0.32978526 0.18095675 0.22722307 -0.21868238
0.22917888 -0.32131344 0.16080996 0.050230533 -0.2834733 -0.21008918 -0.024821788 0.0036897957
-0.29443294 0.106782705 0.33307168 0.1978347 -0.13726768 0.054622382 -0.23221204 0.30361697
-0.28293103 -0.23099034 -0.27224863 -0.22139792 -0.16710088 0.030875891 0.18518993 -0.2151098
-0.064495176 0.18897298 0.2962447 0.11909196 0.30426064 -0.27334115 -0.15850131 -0.30563742
-0.22884107 -0.046373636 -0.21394321 0.1682016 -0.0115169585 0.014538765 0.12775734 0.07799959
0.09415558 0.1061863 0.21404347 -0.20026092 0.1308825 0.03299427 0.2737331 -0.06929323
0.129302 0.28951123 -0.10999875 -0.3302431 -0.32911378 -0.20930836 -0.28039202 -0.05558443
0.03974542 -0.01701203 0.1867958 -0.061780065 0.0951992 0.094976395 0.19684115 -0.0138300955
-0.18745773 0.30288652 -0.26709026 -0.2441828 0.07952988 0.1193088 -0.2584338 0.19685689
0.28079072 0.086150914 0.0024707615 0.1604434 0.31237093 0.09296897 0.16472173 0.19264331
-0.02949199 0.14093426 -0.087731645 -0.21126947 -0.042152077 0.27220544 -0.08903687 -0.065711886
0.27760717 0.18670765 -0.029614419 0.26841673 0.21675864 0.33286014 0.19402793 0.25510362
-0.065218836 -0.109210104 -0.100860596 0.020012349 0.31758496 -0.17921972 0.15978327 -0.31662798
-0.035253495 -0.07000598 -0.31925356 -0.1007276 0.24731073 -0.24971434 0.2753859 -0.15298092
0.051606745 0.04872811 0.0058947504 0.06862441 -0.014734983 -0.030324012 -0.17314398 0.24129573

radarnet.encoder.Wxf.bias f4 [16]
00000000: adac 8b3e 0808 59bd a002 09bd 32fd 4b3e
00000010: f2b3 1f3e 4e37 01be 3425 94be 94ef 99be
00000020: b8c8 09bd 2ff6 89be 9e2b 90be 7b2e a5be
00000030: 7af1 293e d6e7 023e 329d 623e a3e7 833e
0.2728018 -0.052986175 -0.03344977 0.19920805 0.15595987 -0.12618753 -0.28934634 -0.30065596
-0.033638686 -0.26945636 -0.28158277 -0.32262024 0.16596022 0.12783751 0.22130278 0.25762662

radarnet.encoder.Whf.weight f4 [16, 16, 3, 3]
00000000: 36c4 4d3d e8f3 5dbd 3a1a 7c3d e816 36bc
00000010: 50db aabb c0f5 adba 9c8b eebc 8068 c8bb
00000020: a05e 92bc 721e 423d ee5e 643d c60d 443d
00000030: e83c 01bc f0ee 25bd 7ea0 04bd a347 47bd
00000040: 2072 2a3d 0005 b83a ab94 7abd daa1 4c3d
00000050: 6939 8a3d 56bc 20bd 3a66 443d c2ea 053d
00000060: 1835 1d3c d024 91bb 6e3c 15bd 8f4d a3bd
00000070: 6044 7fbc 9e3b 60bd 0492 85bc c80c 4fbd
00000080: 76c6 b6bc d4ee 9c3c 9431 c03c e2bd 103d
00000090: bf95 a43d 4021 ca3c f8b0 0b3d 00e0 59bd
000000a0: 60a7 5e3c 3650 05bd 5a32 713d 6424 8abc
000000b0: ba2c 653d 2d7d 9a3d ccdd 8dbc 80df b4bc
000000c0: fee1 99bd 94d1 d93c 9359 74bd 38e2 203c
000000d0: 2347 a5bd e21d 473d 1c08 92bd f66a 26bd
000000e0: eaa6 343d e65b 58bd 5933 813d b8b4 0a3d
000000f0: f627 d2bc e878 133c b8d0 673c f45b 913c
00000100: f23a 623d a0fc 40bc d05b 7ebd 3adf 6d3d
00000110: 5952 813d 5f0d a3bd ead6 313d c1d4 a83d
00000120: 8678 a6bd fd3d a63d f36d a33d e07c 5d3c
00000130: 416f a23d 4bc2 0abd 1078 c5bb 5a1b 4d3d
00000140: 5c30 a5bc 89c9 a23d f498 9ebc 5333 05bd
00000150: 7dd9 a33d 1885 41bc 6e57 95bd 1c27 fc3c
00000160: d6ad e4bc e075 84bc 0d01 903d c026 9f3a
00000170: 69a8 8c3d 9102 963d 9841 06bc 4bf2 68bd
00000180: c6ed 57bd b3af 7fbd 8674 27bd 5a40 433d
00000190: 4f9c a5bd d2b4 6f3d 5482 83bc 7694 9bbd
000001a0: bcf5 9dbc e078 4b3b 16f3 383d c0b6 94bc
000001b0: 3029 b83c 1f7b 8f3d 7802 3dbd 90b4 9c3c
000001c0: 5618 ccbc e08e 013b 3ad9 99bd fa93 4b3d
000001d0: 98a8 a5bd 84b0 bb3c 1689 e6bc 9970 a73d
000001e0: d66f 2f3d b8db 0dbc acad dabc 3a82 433d
000001f0: b0ac 2ebd a457 82bc d0f8 abbc 470d 9cbd
00000200: fc9b 953c 03dd 8b3d 601b 54bd 1807 0e3c
00000210: c8ee 55bc ec96 c8bc 81ce a23d a209 6b3d
00000220: 40d8 703c 1e10 93bd d690 4d3d d610 41bd
00000230: f7c7 9e3d a6ad abbc bfd4 a63d 3086 56bd
00000240: 37d1 9abd fe95 53bd 145b 933c 2eef 5c3d
00000250: 701f 8e3c 4085 9f3b 9009 6fbd 1a90 7d3d
00000260: 80e6 fabb 3860 0b3c 7d3b a73d 648e a63c
00000270: 8bfc 2cbd a219 273d 7eab 4dbd 6382 20bd
00000280: a3e7 54bd 7022 f7bb a0ba 04bc 68db 7abc
00000290: d30f 75bd d047 9b3c ae19 88bd a68d 5e3d
000002a0: aa58 3c3d 3e3d 4bbd 5895 17bd 06ec 17bd
000002b0: 9a08 633d 5c41 babc aca5 b1bc 6a6a 2d3d
000002c0: b0cb 18bd 4522 a93d 60dc a1bd 0ef1 3f3d
000002d0: ae8c 88bd 0aca 7a3d 99ca 843d daef 593d
000002e0: 30af c7bb f2e2 373d 5244 82bd 603e 87bc
000002f0: 7692 5dbd 6632 053d 18f9 11bc 2ce2 f23c
00000300: 3eac 673d 0037 afba b800 533c 80c4 48ba
00000310: 4679 073d c674 3fbd 0c19 8bbd 4eb9 7c3d
00000320: d69c fabc e04c 133d f2dd 523d 242d e63c
00000330: 6bb7 9b3d 66ec c8bc 685f 243c e0b0 5cbb
00000340: 44c1 84bc 5c8d d6bc c7cd 9b3d 4488 f93c
00000350: 5187 893d b8af 21bd e340 9abd 4278 a6bd
00000360: 00b1 903a 550f 9d3d c0ec 963a 1671 b4bc
00000370: 454e a43d 72c8 7a3d 9481 80bc 2ca9 e93c
00000380: cf56 933d 58cf 75bc 9027 853b 4e9d 723d
00000390: b496 fa3c 9592 873d eb7c 06bd 0438 8a3c
000003a0: 217a a83d b86e 4abc 63e2 15bd d595 953d
000003b0: 80c9 8abc ee2a 9dbd 8e19 7fbd 1a4b 613d
000003c0: db92 8abd 4027 943a d3bd 963d e879 a7bd
000003d0: d1bf a33d 526e 9fbd ec16 9b3c 400c 02bd
000003e0: 504b d1bc eb99 0fbd d203 a9bd f80c 283c
000003f0: 9c7e f83c a037 223d 408c 98bc d4bc 8a3c
0.05023595 -0.054187685 0.06154845 -0.01111386 -0.0052141324 -0.0013272092 -0.029119305 -0.006115973
-0.017867386 0.047392316 0.055754595 0.047864698 -0.007888056 -0.04051107 -0.03237962 -0.048652302
0.041612744 0.0014039576 -0.061176937 0.04995904 0.06749231 -0.03924211 0.047949053 0.032694586
0.009595178 -0.004429437 -0.036434583 -0.079737775 -0.015580267 -0.054744355 -0.016304977 -0.0505493
-0.02231143 0.01915685 0.02346114 0.035337336 0.08036374 0.024674058 0.034104317 -0.05319214
0.01358971 -0.0325472 0.05888591 -0.016863056 0.055950858 0.07543407 -0.017317675 -0.02207923
-0.07513808 0.026589192 -0.059655737 0.00981956 -0.08070209 0.048612483 -0.07130453 -0.04062935
0.044104494 -0.052822016 0.06308622 0.033863753 -0.02565382 0.009000994 0.0141488835 0.017744042
0.055231996 -0.0117789805 -0.062099278 0.058074214 0.06314535 -0.07961535 0.04341785 0.082437046
-0.08128457 0.08117292 0.079799555 0.013518542 0.07931376 -0.0338767 -0.0060262755 0.050074913
-0.020164661 0.07948596 -0.019360043 -0.03251965 0.08000467 -0.011811517 -0.072920665 0.030780368
-0.027914923 -0.016169488 0.070314504 0.0012142286 0.06868059 0.07324708 -0.00819435 -0.056871694
-0.052716993 -0.06242342 -0.04088261 0.047668792 -0.08086454 0.058522053 -0.016053356 -0.07596676
-0.019282214 0.003104739 0.0451537 -0.018153548 0.022480577 0.07005905 -0.046144933 0.019129068
-0.024913948 0.0019768998 -0.07512136 0.04970167 -0.08088797 0.022911318 -0.02814154 0.08175773
0.042831264 -0.008658342 -0.026694141 0.047731616 -0.042645156 -0.015910931 -0.020992666 -0.0761972
0.018262856 0.06829264 -0.05178392 0.0086686835 -0.013057418 -0.024486028 0.07949544 0.057382233
0.0146999955 -0.071808085 0.050186954 -0.047135197 0.07752984 -0.020956825 0.08146047 -0.052374065
-0.07559436 -0.051656716 0.017987765 0.053939037 0.017348975 0.0048681796 -0.05835873 0.061905004
-0.0076568723 0.008506827 0.08165643 0.020331569 -0.04223303 0.04079593 -0.050212376 -0.039186846
-0.05197872 -0.007541947 -0.0081011355 -0.0153111 -0.059829544 0.018955141 -0.06645523 0.054334305
0.045982994 -0.049618952 -0.03700766 -0.037090324 0.055428125 -0.022736244 -0.021685444 0.042337812
-0.037303627 0.082584895 -0.07903361 0.046860747 -0.066674575 0.061227836 0.06483955 0.053207256
-0.006093882 0.044894166 -0.06360687 -0.016509235 -0.054094754 0.032518767 -0.008909486 0.029648863
0.056560747 -0.0013367832 0.012878589 -0.00076586753 0.03307464 -0.046742223 -0.06791887 0.061700158
-0.030592363 0.035961986 0.051481195 0.028097697 0.076033436 -0.024526786 0.010032512 -0.0033674762
-0.016205437 -0.026190452 0.07607608 0.030460484 0.06715263 -0.03947422 -0.075319074 -0.08128406
0.0011039078 0.0766894 0.0011514649 -0.02202658 0.08022741 0.061226316 -0.015686788 0.02852305
0.07194292 -0.015003048 0.004063554 0.05923205 0.030589439 0.06619755 -0.032833975 0.016872413
0.08226419 -0.012355499 -0.036592852 0.07303969 -0.016941786 -0.07674204 -0.06228023 0.055003263
-0.06766292 0.0011303201 0.07360425 -0.08177549 0.079955705 -0.07784714 0.018931828 -0.031749964
-0.025548607 -0.035058897 -0.08252682 0.010256998 0.03033381 0.03960383 -0.018621564 0.016935743

radarnet.encoder.Whf.bias f4 [16]
00000000: cc1a 9fbd e20c 2b3d f2d2 213d 8003 0dbb
00000010: ee07 89bd ccf1 dd3c 3e1d 1b3d 62ea 333d
00000020: f2ea 423d a32d 84bd 121b 92bd 602c 3cbc
00000030: b0e7 1f3d c074 08bd 20c4 54bb 8d3f a33d
-0.07768783 0.041760333 0.039507814 -0.0021516979 -0.066909656 0.027092837 0.037869684 0.043924697
0.047587343 -0.06454017 -0.071340695 -0.011485189 0.039039314 -0.033314466 -0.0032465532 0.07971106

radarnet.encoder.Wxc.weight f4 [16, 1, 3, 3]
00000000: 4842 1f3e d06a fa3c a8d4 15bd cb7d 71be
00000010: 9a63 263e 8019 4cbe 7621 69be 42b7 533e
00000020: e996 803e 6008 2a3d b09f 943c 4802 6c3d
00000030: 4c51 833d f09f 0abe b455 b73d a06c 513d
00000040: 529f 213e 777e a7be 207b 733d 3601 5f3e
00000050: f028 b53d df74 9d3e d347 79be 9cfa a2be
00000060: 3390 23be 85aa 9a3e c046 053d dbee 9abe
00000070: 1b3e 9fbe d87e 9bbe 0a7a 90be ce74 4ebe
00000080: eed7 72be e0b8 efbd c04f 91be 3f7b 973e
00000090: f0cb 85bc b826 10bd 80ff f9bd a04f 10be
000000a0: 2a95 88be 7e68 0bbe 4447 8ebd d0e0 0e3e
000000b0: 4ba3 a1be f05c 803c 7b54 a93e e26b 023e
000000c0: b0da 1d3e 9219 7e3e 58cb 163e 78be 7a3d
000000d0: 8090 123b 8242 123e 3989 953e 2c99 b7bd
000000e0: adea 8a3e eacb 443e a8df 7f3d 9cf0 853d
000000f0: 7c05 83be 88f5 9cbe 90a6 eabd ac16 b93d
00000100: 5015 fa3c 3dc7 863e 3027 f13d c008 0b3e
00000110: 0cba 92bd a7e9 863e 6427 f33d 3845 7a3d
00000120: 59a6 8b3e 9515 a63e d65e 94be 508b 90bd
00000130: 7028 c03d 0449 80be d601 23be 8250 0f3e
00000140: c09e bbbc 14a3 9fbd e889 143d 8659 9fbe
00000150: 2026 583c d01a 113e 1a42 8cbe b987 aa3e
00000160: 1b0d a8be b27f a4be e0ea ad3d 583f 74bd
00000170: e0b2 713d 6041 103c d8e7 313d 97cd 933e
00000180: fab2 a4be fa63 4b3e 860d d8bd f242 733e
00000190: c0ac ef3c 1cd5 893d fa32 003e d047 d23c
000001a0: 26ed a5be 595c 8c3e 5924 983e 706d ee3c
000001b0: bed5 4b3e f03d 15be 38d3 39bd 2c28 f53d
000001c0: 0056 3bbb c84e 38be a0c8 6c3d 6032 25be
000001d0: 7429 87be d8ec 333d 8fde 8b3e 5363 6dbe
000001e0: 8082 8a3d fda1 a93e 524a 663e 5219 683e
000001f0: dcb8 b2bd c33c 00be d6d5 04be 6d74 983e
00000200: e0da bebd 124c 3b3e 8386 8cbe 7bf9 39be
00000210: 9d8f a03e e058 713c 547a 83bd 274e 803e
00000220: 102d cdbd c8d0 18bd e2a4 5e3e a04a a2bd
00000230: 5a17 393e 708a 82be 1c3e 97bd 0e24 23be
0.15552628 0.03056851 -0.036579758 -0.23583142 0.16248932 -0.19931602 -0.2276667 0.20675376
0.25115135 0.041511893 0.018142551 0.057619363 0.064119905 -0.13537574 0.089518934 0.051128983
0.15783432 -0.32713673 0.059443593 0.21777806 0.08845699 0.30753228 -0.24343805 -0.31831825
-0.15972976 0.3020822 0.032538176 -0.30260357 -0.3110207 -0.30370212 -0.28218108 -0.20161745
-0.23715183 -0.11705184 -0.28381157 0.29586217 -0.016332597 -0.035193175 -0.12206936 -0.14092875
-0.26676303 -0.1361408 -0.069471866 0.13952947 -0.31569895 0.015669316 0.33072266 0.12736467
0.15415454 0.24814442 0.14726007 0.0612168 0.002236396 0.14283183 0.29206255 -0.08964762
0.27132168 0.19218412 0.062469155 0.06540033 -0.25590122 -0.30656075 -0.114575505 0.090375274
0.03052774 0.26323882 0.117750525 0.13577557 -0.07164392 0.26350138 0.118727475 0.06110117
0.2727535 0.3243834 -0.28978604 -0.07057822 0.09382713 -0.25055707 -0.15918669 0.13995555
-0.022902846 -0.077947766 0.03626433 -0.31122988 0.013192683 0.14170384 -0.2739418 0.33306673
-0.328225 -0.32128674 0.084920645 -0.05963072 0.05900848 0.008804649 0.043433994 0.2886779
-0.32167798 0.19862357 -0.105494544 0.23756006 0.029257178 0.067301005 0.12519446 0.025669008
-0.32407492 0.27414206 0.2971523 0.029104918 0.19905755 -0.14574409 -0.04536745 0.11970553
-0.0028585196 -0.17998803 0.05780852 -0.16132498 -0.26398814 0.043927044 0.27318236 -0.2318242
0.06763172 0.331314 0.22489288 0.22665909 -0.087266654 -0.12523179 -0.12972197 0.29776326
-0.09319091 0.18290737 -0.27446374 -0.18161575 0.31359568 0.014730662 -0.064198166 0.25059626
-0.100183606 -0.037308484 0.21742585 -0.0792439 0.18075314 -0.25496244 -0.07384893 -0.15931723

radarnet.encoder.Wxc.bias f4 [16]
00000000: e6cc 0abe 56e8 4dbe b69f f9bd be1d 29be
00000010: b89f 023d a30d a8be dc65 be3d 1a67 2f3e
00000020: 83b1 5ebe 6b7e 96be 2c30 acbd 8033 5e3c
00000030: 7f0c 9bbe 265a f3bd 40a8 27be 713c 923e
-0.13554725 -0.2010816 -0.121886656 -0.16515252 0.0318906 -0.32822904 0.09296772 0.17129174
-0.21747403 -0.29393324 -0.084076256 0.013562083 -0.3028297 -0.11882429 -0.16372776 0.28561738

radarnet.encoder.Whc.weight f4 [16, 16, 3, 3]
00000000: 4a83 153d be0a 483d b032 d3bb 6161 913d
00000010: 12bc 4a3d c3b9 0bbd b066 aa3b 5a44 8ebd
00000020: 80e9 733c 583c 603c bacc 773d 3df2 9f3d
00000030: f30e 69bd e054 b1bc 9948 9a3d 0827 9fbd
00000040: 4aeb 4a3d 182d 0bbd 5514 a73d 098f a13d
00000050: 4858 7dbd e2e6 7f3d f03d 80bc 30e6 fbbc
00000060: 8ebe 253d 80e3 8f3b 76ce f5bc 6e22 8ebd
00000070: 0b6f 9fbd 438a 8e3d deca 80bd 350e 9f3d
00000080: 0c28 d33c 68fe 2cbc 4f3d 87bd 26d8 7ebd
00000090: b016 ee3c 0035 5b3b 5c06 c9bc 4eb6 28bd
000000a0: 78cb 78bc bc28 81bd aa79 3d3d 5636 453d
000000b0: b66f 9cbd 46f5 663d 0079 34bb f0b6 9e3b
000000c0: f01e 4ebd 30f5 89bc 7ad3 393d 29c1 9e3d
000000d0: 88c1 743c 3c39 9abc 5e4a 9bbd 381d 783c
000000e0: 621b 3c3d 4df6 a43d 38db 72bd 8f39 8e3d
000000f0: 409d 31bd 4819 2ebc 3ed9 3abd e0d0 5f3c
00000100: 03d8 9bbd 6ed7 4bbd 888a 12bd 03c9 3abd
00000110: 15b4 953d 9618 c5bc 44b2 90bd 4a47 413d
00000120: 46d1 2a3d 5ab4 92bd 72e0 1d3d 60bd 273b
00000130: e81b 7d3c 742e 873c 9c19 97bd 0003 37bb
00000140: e92b 993d 9839 65bd 3032 53bd 8ab4 573d
00000150: 167e 81bd e87a 32bc e6b2 fdbc 3613 643d
00000160: 1124 883d 845c 8fbc f2a8 7a3d e7f4 883d
00000170: bc5f 82bd 10f6 37bd 8413 c73c 5bb9 03bd
00000180: e34c 7cbd 9a33 643d a077 1bbb 3ae9 683d
00000190: 64f7 d23c beca 733d 6617 95bd 1ca6 c73c
000001a0: 8680 60bd 995a 853d d5a5 853d 1c2f 98bd
000001b0: 00b8 90b9 aa04 a8bd 80bb 57bc 81ef a33d
000001c0: a04e bcbc c0a8 a7bc e871 53bc 80ca 7e3a
000001d0: 50b8 e0bc 16ad 56bd 74f9 f33c fc3a 8dbd
000001e0: 6286 593d f84f 12bd 0705 9a3d 0c61 e8bc
000001f0: 1483 96bc d34b 0abd 8697 edbc 08a8 383c
00000200: c0e6 0dbd 13be 39bd 3b96 49bd 414f 9b3d
00000210: 6d61 843d 1e48 37bd 5052 09bd 6e10 08bd
00000220: 1ee9 22bd 3826 48bd 94e4 da3c c041 fa3b
00000230: a639 5abd 3a00 81bd 6663 d0bc c90e 943d
00000240: 7b11 5bbd aa09 553d 1da2 833d 28bf 6b3c
00000250: 8051 10bd 2898 30bc c800 9bbd 86b3 15bd
00000260: f6ac 1c3d f414 b93c 482d 543c 4014 ff3a
00000270: 408d 303c 8c3c 81bd 4067 7b3c e0db f03c
00000280: e298 a0bd c256 313d 9361 983d 461b 603d
00000290: d1c1 9e3d 565a 25bd a860 a6bd cc2d f83c
000002a0: 6533 953d 6b82 50bd be44 2dbd 10aa 52bd
000002b0: 931d 3dbd 408c 89bb 9ebf 7f3d bbe4 13bd
000002c0: 06cf c0bc 5be5 963d 02b8 3b3d 36cb 123d
000002d0: 720c 5f3d ce8c 3ebd 227a a8bd b140 843d
000002e0: 92be 493d 0030 72bb f056 853b 9b85 69bd
000002f0: 4804 0abd 1621 45bd d617 393d 8ef2 413d
00000300: 82c5 323d 8650 aabd 8c6e a0bd a06f 72bc
00000310: 938b 19bd 3edd 8ebd a417 8bbc 9da8 a13d
00000320: 8ce2 88bd f85f 253c b837 773c c007 ae3c
00000330: 3af5 4d3d 2a0e 683d f2b4 413d 44cc 8dbc
00000340: c732 81bd 5627 76bd d498 f03c 0025 a7ba
00000350: 1ce1 a83c 9ab0 503d b56a 8f3d 0051 3b3b
00000360: 802c ac3c cc3c fabc b01c 96bd 0081 b13c
00000370: 50cd cc3c 52e3 1b3d 2238 6a3d f499 b13c
00000380: 302b e3bc ec86 a3bc 5000 98bd f3e8 84bd
00000390: ce8b 233d c7ca 98bd 906e 8ebb f0d7 d0bc
000003a0: 443e dc3c dd98 803d e034 3ebb 2f17 a53d
000003b0: 7388 3bbd d620 3fbd b790 95bd c040 ecbb
000003c0: c2cd 2e3d 8afc 1f3d e0b0 c3bc 207c 91bc
000003d0: d1cb 873d 40b2 bf3c 62b9 3e3d 08a9 113d
000003e0: 9477 b13c 4421 83bd 4374 50bd 05a3 a83d
000003f0: 5116 8f3d 5808 6cbd cb6a 4cbd 48a4 6dbc
0.03650216 0.04883837 -0.0064452514 0.07098652 0.049495764 -0.034112703 0.0052002296 -0.06946631
0.014887214 0.013686262 0.060497977 0.07809875 -0.056899022 -0.021646917 0.07533378 -0.077711165
0.049540795 -0.03397855 0.08158175 0.0788861 -0.06185177 0.062476046 -0.015654534 -0.03074941
0.04046493 0.004391134 -0.030005675 -0.06940161 -0.07784852 0.06959965 -0.06288694 0.07766382
0.025775932 -0.010558702 -0.066034906 -0.062217854 0.029063553 0.0033448339 -0.024539165 -0.041189484
-0.0151852295 -0.063065976 0.046258606 0.048147522 -0.07638495 0.056386255 -0.0027537942 0.004843585
-0.050322473 -0.016840547 0.045367695 0.07751686 0.01493872 -0.01882612 -0.07582544 0.015143685
0.04592455 0.08054791 -0.059291095 0.06944572 -0.043362856 -0.010626145 -0.045617335 0.0136606395
-0.0760956 -0.049765997 -0.035776645 -0.045601856 0.073097385 -0.024059575 -0.070652515 0.047187127
0.041703485 -0.071633056 0.038544126 0.0025595054 0.015448548 0.016501643 -0.073779315 -0.0027925372
0.07479078 -0.05596313 -0.051561534 0.05266241 -0.06322877 -0.010893561 -0.030969094 0.055682383
0.06647504 -0.01750017 0.061196275 0.066873364 -0.06365916 -0.044912398 0.024301298 -0.03215919
-0.061596762 0.055713274 -0.0023722425 0.056863047 0.02575273 0.059519522 -0.072798535 0.0243712
-0.05481007 0.06511421 0.065257706 -0.074308604 -0.0002760291 -0.082040146 -0.013167262 0.08004666
-0.02298671 -0.020466208 -0.012905575 0.0009719506 -0.027431637 -0.05241116 0.029782034 -0.06896016
0.053106673 -0.035720795 0.0752049 -0.028366588 -0.01837305 -0.033763718 -0.029002916 0.0112705305
-0.03464389 -0.045347285 -0.049215537 0.07583476 0.06463895 -0.04474651 -0.033525765 -0.033218794
-0.0397731 -0.048864573 0.026720323 0.0076372325 -0.053277634 -0.06298871 -0.025438022 0.072293825
-0.053483468 0.05201117 0.06427405 0.014388837 -0.035233974 -0.010778464 -0.075685084 -0.03654816
0.038250886 0.022592999 0.012950249 0.0019460991 0.010775864 -0.063103765 0.015344441 0.02940172
-0.0784166 0.04329563 0.07440486 0.05471351 0.07751811 -0.040369354 -0.081239045 0.030295275
0.07285193 -0.050905626 -0.042301886 -0.051431715 -0.046170782 -0.0041976273 0.0624386 -0.036106806
-0.023536216 0.07367965 0.04582978 0.03583833 0.05445523 -0.046521 -0.0822642 0.064576514
0.049254008 -0.003695488 0.0040692016 -0.05701218 -0.03369549 -0.048127256 0.045188747 0.04735046
0.04364539 -0.0831614 -0.07833585 -0.014797121 -0.037486624 -0.06975792 -0.016979046 0.078934886
-0.066838354 0.0100936815 0.015088968 0.02124393 0.050282694 0.056654133 0.047291704 -0.017309316
-0.06308513 -0.060096107 0.02936975 -0.0012752116 0.020615153 0.05094967 0.070027746 0.0028582215
0.021017313 -0.030546568 -0.073296905 0.021667957 0.025000244 0.038058586 0.05718244 0.021679856
-0.027730554 -0.019961797 -0.074219346 -0.06489744 0.03992825 -0.07460552 -0.004346676 -0.025493592
0.02688516 0.06279156 -0.0029023215 0.080610625 -0.045784425 -0.046662174 -0.07302993 -0.0072098672
0.042676695 0.0390592 -0.023888052 -0.017759383 0.06630672 0.023400426 0.046563514 0.03556159
0.021663465 -0.06402829 -0.050892126 0.082342185 0.069866784 -0.057625145 -0.049906533 -0.0145045

radarnet.encoder.Whc.bias f4 [16]
00000000: b010 1f3d 0eed 383d e7a8 833d 3b8d 25bd
00000010: a0d8 a4bd d0dd 2bbd 9a78 4c3d 63d5 a8bd
00000020: aeb4 9abd 2066 50bc 1816 66bd 6624 8ebd
00000030: c307 43bd ec7a 8e3c 00ec f9bc 70f6 c1bc
0.038834274 0.045147948 0.064287 -0.04041789 -0.080491304 -0.041959584 0.049919702 -0.08243825
-0.07553993 -0.012719661 -0.056173414 -0.06940536 -0.047614824 0.017392598 -0.030508041 -0.02367708

radarnet.encoder.Wxo.weight f4 [16, 1, 3, 3]
00000000: fa1e 623e acd6 f0bd 8c5a bd3d 46c7 18be
00000010: c403 9a3d 2897 0fbe 0024 ddbc 941d dc3d
00000020: 5e4e a6be 6e58 a0be 148f 95be 08de 1fbe
00000030: c024 dfbb 1b1a 98be 8bac 92be fa8a 453e
00000040: 8002 65be 2aba 403e 37fb a73e 5cb3 9cbd
00000050: 56bc aabd 80e6 a2be c0f5 513d 6282 91be
00000060: 0027 1b3e 8c67 c9bd 408e 76bd 3266 a8be
00000070: e8a9 88be 44d4 da3d fbf6 76be dfed 873e
00000080: f626 e6bd c83c 723d 1765 943e f29b 363e
00000090: 4e2c 06be b0cd ed3c ac88 bc3d c84b 4abd
000000a0: 18e6 58bd b03a 283e d06b c6bc a02b 7abc
000000b0: 234e 9abe e0d4 de3d dc3e a8bd abdb a53e
000000c0: e540 803e 629a 333e a02d 60be 6717 a8be
000000d0: f3c7 7fbe a6d8 4f3e 735c 24be b2f0 613e
000000e0: e294 7d3e bad5 2c3e c8d3 01bd 507b f6bd
000000f0: bfb4 8bbe 66ae 1f3e 169a 0dbe deb8 6e3e
00000100: 1a05 5f3e e0be 6c3d 800d 3fbb 068c 78be
00000110: 985b 603d a6c6 6e3e 00d8 0f3d b040 8c3c
00000120: 4e99 95be 4310 19be dd65 933e 4e18 133e
00000130: 68d9 97be a8cd 293e 3c6c d03d c0cd 043e
00000140: 6027 87bd e0f9 cd3d 8099 ddbd 26a9 b4bd
00000150: a6aa d7bd 1052 e8bc 9f80 a93e 9c26 9abe
00000160: 685b 81be 40b0 4fbd ff8c 91be 0e87 04be
00000170: 4b08 3abe a0e0 613d 1003 293e 0083 143d
00000180: 66ef 523e f03e c73c f00b 4dbe 3cbb ad3d
00000190: 8394 63be 80d4 6ebe 6698 8dbe bec4 4cbe
000001a0: 202a d2bd ac03 ddbd d81b 733d a970 803e
000001b0: e04b 6abc 3493 c93d 205b a2be 5b69 46be
000001c0: 0003 edbb ab73 893e 50d0 86be ac15 cd3d
000001d0: 34e1 b03d 02dd 513e e887 98be 8021 06be
000001e0: 98f9 3fbd cb04 8fbe 6cfc b43d 0005 65bc
000001f0: cc36 a63d a01f 4fbc f690 473e aa3f 593e
00000200: e084 5c3c 7e4e 373e 804b ad3d ca45 413e
00000210: 5415 ad3d b3d4 9c3e 3059 81bd 609a 7bbd
00000220: b6a4 8cbe 101d 1c3e 040a 90be 39bb 9c3e
00000230: 8aad 433e b0d8 b93d 33ee 29be 1800 5fbd
0.22082129 -0.117596954 0.09245786 -0.14919767 0.075202495 -0.14022505 -0.026994705 0.10747829
-0.32481664 -0.31317466 -0.29210722 -0.15612042 -0.006809801 -0.29707417 -0.28647265 0.19291297
-0.22364235 0.18821016 0.3280885 -0.076513976 -0.083367035 -0.31816483 0.051259756 -0.28419787
0.15151596 -0.09834203 -0.060194254 -0.3289047 -0.26692128 0.10685018 -0.24117653 0.2654867
-0.112379 0.059139997 0.28983375 0.17832926 -0.13102838 0.029028744 0.092057556 -0.049388677
-0.05295381 0.16428638 -0.02422133 -0.01526919 -0.3013774 0.108804464 -0.082151145 0.32394156
0.2504951 0.17539361 -0.21892405 -0.32830355 -0.24978618 0.20297489 -0.16050892 0.22064474
0.24763826 0.16878405 -0.03169611 -0.12035239 -0.27286336 0.15593871 -0.1382831 0.23312709
0.2177929 0.05779922 -0.0029152334 -0.24272165 0.05477485 0.23317966 0.035118103 0.01712069
-0.29218525 -0.1494761 0.28788653 0.1436474 -0.29658055 0.16582358 0.10176894 0.12969112
-0.06599307 0.100574255 -0.108202934 -0.08821325 -0.105305955 -0.028359443 0.33105943 -0.30107582
-0.2526505 -0.050705194 -0.28427884 -0.12942144 -0.18167226 0.05514586 0.16505075 0.036257744
0.20599136 0.024322003 -0.20024085 0.08482978 -0.22224621 -0.2332325 -0.27655333 -0.19996926
-0.10261941 -0.10791716 0.059352726 0.25085953 -0.014300317 0.0984253 -0.31710148 -0.19376127
-0.0072330236 0.2684606 -0.26330805 0.10013899 0.08636704 0.20494464 -0.29791188 -0.13098717
-0.04686889 -0.27933344 0.08837208 -0.013978243 0.081159204 -0.012641817 0.19488892 0.21215692
0.013459414 0.17901036 0.08461666 0.18874279 0.08451334 0.30631027 -0.06315839 -0.06142652
-0.27469414 0.15245461 -0.2813264 0.3061159 0.19109169 0.09074533 -0.16594772 -0.05444345

radarnet.encoder.Wxo.bias f4 [16]
00000000: 3aa5 7c3e 293a 973e 5364 41be 66d9 51be
00000010: 6834 5abe 2aae 683e 80ba 65be 2236 323e
00000020: 313f 873e 10a3 06be cc2a d9bd aaa2 1d3e
00000030: 8062 a2bc 006c abba 487b 26be c001 f43d
0.24672404 0.2953656 -0.18885927 -0.20493087 -0.21309054 0.22722688 -0.22434425 0.17403463
0.264154 -0.13148141 -0.10603866 0.15394083 -0.01982236 -0.0013078451 -0.16257966 0.11914396

radarnet.encoder.Who.weight f4 [16, 16, 3, 3]
00000000: 008a 9e3a d698 423d d64d 1f3d e6ef 26bd
00000010: ec3e edbc a0e3 7c3c 36d7 49bd 703f 61bd
00000020: 5a68 753d 8016 efbc 5093 fc3b b6b5 253d
00000030: bb3d 8abd 2a53 673d a471 d33c 1707 82bd
00000040: e08a 853c e41c aabc 5e40 4abd c635 193d
00000050: e65c 0b3d 0039 173d 503e cfbb bcbc dcbc
00000060: 80bd bfbc 7e76 08bd 802f 96bc 60b4 9e3c
00000070: 5107 a53d 40b4 8abb b6aa ebbc 4cfd 8fbd
00000080: 0047 1fbc 8cd3 cbbc 1c8d d63c 48eb 7cbc
00000090: 689e 90bd 0a9e 493d 68fe 5fbc f0fb e13c
000000a0: 997b 963d 6879 703c 3eb3 523d daf1 343d
000000b0: b6b8 70bd f016 123d 6073 4dbc dcd6 c93c
000000c0: d100 9e3d f878 413c 760c 75bd a674 05bd
000000d0: 7274 443d d8ed 6ebc 524b 3e3d d1f7 833d
000000e0: 8e8c 9abd b610 643d a6fc 253d 766d bfbc
000000f0: 0abf 4b3d 6ed5 773d 93fa 8c3d 6c75 b1bc
00000100: 4656 f1bc b637 503d 90c5 cb3c 96fa 593d
00000110: 0803 32bd 00cd f33b 6e72 5d3d c0a5 3a3c
00000120: e0f5 df3c 838b a5bd 0a7a 363d f079 fb3c
00000130: 02da 613d a06e 263d 84c1 a1bc 883c 0cbd
00000140: 56fa c7bc 61c1 8a3d cd66 a23d 0851 7cbd
00000150: 500b 873b ec39 f23c 0045 d33b e864 02bc
00000160: a41d a5bd f03f d0bb 805c 9b3b 13f5 7cbd
00000170: 3756 913d 2027 6a3c 1412 8cbd 9b66 0bbd
00000180: 83e8 63bd 5e46 353d 42f8 85bd 701e debb
00000190: 001a 183d f884 00bd f648 773d 5b7f 6bbd
000001a0: ff71 9b3d 341a 813c f21c 2d3d 9206 1f3d
000001b0: 096b 923d 70d1 cbbc c0bb 84bc a642 c0bc
000001c0: b002 efbb be5f 2d3d b20d 453d 0143 9d3d
000001d0: eaeb 493d 0000 83b9 8675 ebbc c640 173d
000001e0: 5d5e 983d 54bc c13c ab36 1bbd 83b7 9ebd
000001f0: 780f 51bd d1a5 853d b4c4 89bd dd4f 943d
00000200: 23ae 79bd 0a8f 5d3d 0262 663d 598d a93d
00000210: d9e4 8b3d 336d a83d 3c15 99bd ba4c 7d3d
00000220: 74a8 c13c e653 b4bc 9871 48bd 7de3 903d
00000230: fbea 1dbd 0830 a2bd f60f 713d 8619 1ebd
00000240: 1a74 5c3d 70e7 6ebd b0d9 83bc a82d 4ebd
00000250: 9033 813b 307a d5bc 3642 81bd 2bd7 1abd
00000260: 505d 193d 84da a6bc b896 1abd d94e 923d
00000270: cc4f 96bd 6895 3fbc eede 21bd 504d 5cbd
00000280: 501e 4dbd 4639 0b3d 4638 773d e07b e73c
00000290: 50b7 04bd 7c0b f7bc 3e47 053d 00a6 3abc
000002a0: b225 043d 1ac7 a3bd 9eb6 44bd c0ea 30bc
000002b0: 6025 76bc 1e5a 65bd 781e 28bd 9777 a1bd
000002c0: d083 8e3c 2139 9c3d 60bb 34bd c276 5e3d
000002d0: 5684 77bd 9780 833d 001c fe3c 5eb7 a4bd
000002e0: 2e28 103d 0577 943d 9542 953d 9297 103d
000002f0: c15a a13d 8616 15bd 60c7 3cbb 3bdb 2abd
00000300: 4dd7 833d f034 a6bd c450 92bd d05b eabb
00000310: 0f73 853d 3235 343d 588a 5abc a6f7 c0bc
00000320: 9a3f 7d3d 0a82 1c3d 169a eabc f836 74bd
00000330: f8e8 02bd 9f61 9a3d 1251 633d 6036 f23c
00000340: 08b0 7cbc 706f d7bb d98c 803d 203c 33bc
00000350: 93dd 77bd 4025 38bc 06d7 35bd fc5d 9ebd
00000360: 80b3 e33b fae3 3e3d dc07 a73c 5c3d 9c3c
00000370: 4c68 e4bc 40f3 a8bc 9ed5 0c3d 1616 52bd
00000380: fecb 5dbd 504a fa3c 0011 a63c 48f6 063c
00000390: 7b20 0cbd 9690 143d 459b 823d 00a8 cfbc
000003a0: 2bbe 57bd d0e1 fc3b 604c 373b 5905 a13d
000003b0: dc20 b93c 1032 debc 9062 b3bc 2dbf 8a3d
000003c0: 78fb 57bc 591a 923d 2c71 98bc c662 22bd
000003d0: f655 3bbd f528 853d 00d5 9f3a f652 42bd
000003e0: c878 42bc 14f2 c73c 8e36 29bd de28 7f3d
000003f0: 9dee 973d 506b 70bd 9669 acbc 20ab 3ebd
0.001209557 0.047509037 0.03889259 -0.04075613 -0.028960668 0.015435129 -0.049277507 -0.05499214
0.05991397 -0.029185534 0.0077079907 0.040456496 -0.067500554 0.056475796 0.025811024 -0.063490085
0.016301572 -0.02076573 -0.04937779 0.037404798 0.03402414 0.036919594 -0.006324567 -0.026945464
-0.02340579 -0.033316128 -0.018333197 0.019373119 0.08058036 -0.0042329133 -0.028767925 -0.070307344
-0.009721518 -0.024881147 0.026190333 -0.015436955 -0.070614636 0.049222983 -0.013671495 0.027585953
0.07347793 0.014677383 0.05144047 0.04417596 -0.058769904 0.035666406 -0.012539715 0.024638586
0.077149995 0.011808626 -0.059826337 -0.032581948 0.047962613 -0.014583074 0.04645855 0.064437516
-0.0754634 0.05568 0.040524147 -0.023367625 0.049742736 0.060506277 0.06883731 -0.021662436
-0.029460084 0.05083438 0.024874479 0.053217493 -0.043459922 0.0074402094 0.054064207 0.011392057
0.027338922 -0.080832504 0.04454998 0.030697793 0.05513955 0.040632844 -0.019745596 -0.034237415
-0.024411362 0.06775165 0.07929764 -0.061600715 0.0041212216 0.029568635 0.0064474344 -0.007958628
-0.08062294 -0.006355278 0.0047412515 -0.06175716 0.07096522 0.014291555 -0.06839386 -0.0340334
-0.055641662 0.04425656 -0.06541492 -0.006778531 0.03713417 -0.03137681 0.060372315 -0.057494503
0.075901024 0.015759565 0.042263933 0.038824625 0.071493216 -0.024880141 -0.016202807 -0.02346928
-0.0072940215 0.042327635 0.048108764 0.076787956 0.04929725 -0.00024986267 -0.028742563 0.036927007
0.07439873 0.023649372 -0.037893932 -0.07749846 -0.051040143 0.065257676 -0.06726971 0.07241795
-0.060957085 0.05409149 0.05624581 0.08278913 0.068307586 0.08223953 -0.07474753 0.06184075
0.023639895 -0.022012662 -0.048936456 0.0707464 -0.038554173 -0.079193175 0.058853112 -0.03859856
0.05382166 -0.058326185 -0.016095012 -0.05033651 0.0039429143 -0.02605924 -0.06311457 -0.037802856
0.037442505 -0.020367868 -0.037741393 0.07143945 -0.07339439 -0.011693336 -0.039519243 -0.05378467
-0.050077736 0.033990167 0.0603564 0.02825731 -0.032401383 -0.030156843 0.032538645 -0.011392117
0.03226251 -0.0799696 -0.04802572 -0.010798156 -0.015023559 -0.055994146 -0.041044682 -0.07884138
0.017396837 0.07628084 -0.044124007 0.054312475 -0.06042894 0.06421011 0.03101921 -0.08042787
0.03519457 0.07249264 0.0728809 0.0353008 0.07878638 -0.036398433 -0.002880536 -0.04171298
0.0643755 -0.08115566 -0.07144311 -0.007152058 0.06516086 0.043996044 -0.013338648 -0.023555588
0.061828233 0.038209952 -0.028637927 -0.059622735 -0.031960458 0.07538151 0.055497237 0.029566944
-0.0154228285 -0.0065745637 0.062768646 -0.010939628 -0.060514044 -0.01123935 -0.044394515 -0.0773277
0.0069488883 0.046604134 0.02038949 0.019072227 -0.027881764 -0.020623803 0.03438341 -0.051290594
-0.05414962 0.030553013 0.020271778 0.008237429 -0.034210663 0.0362707 0.063772716 -0.025348663
-0.052671593 0.0077173486 0.0027969107 0.07862348 0.022598676 -0.027123481 -0.021897584 0.06774745
-0.013182513 0.07133932 -0.018608652 -0.03964498 -0.045736276 0.065019526 0.0012194216 -0.0474424
-0.011869617 0.024407424 -0.041311793 0.062294833 0.07418559 -0.05869609 -0.021046441 -0.046549916

radarnet.encoder.Who.bias f4 [16]
00000000: 500c b7bc c45a a5bd e963 8e3d eda1 933d
00000010: ae2f a9bd 22cc 413d 18b8 0d3d 4075 a93b
00000020: 4cf5 d03c 12a3 263d 5cf0 ab3c b0ce 9c3c
00000030: 40da d13a 7bdb 7fbd d52c a63d c92d a63d
-0.022344738 -0.08073953 0.0695265 0.07208619 -0.08261047 0.047313817 0.034599394 0.005171448
0.025507592 0.04068286 0.020988636 0.019141525 0.0016010478 -0.062465172 0.0811402 0.081142016

radarnet.predictor.Wxi.weight f4 [16, 1, 3, 3]
00000000: 0c63 f83d 4ca6 e33d 0291 473e 5f65 8ebe
00000010: bc47 b13d c09c 25be 7011 c73c 6b04 a93e
00000020: 30c9 d5bd ac75 aabd 8747 8a3e e606 743e
00000030: 40e0 a6be 28b2 60be 5493 9abe b626 9fbe
00000040: dc22 823d 80dc 703b 50a3 123e b087 acbd
00000050: 564e 39be 6c55 d5bd e3db 42be 58d5 a1be
00000060: 1974 873e caf2 88be 9af9 503e dcc2 9bbd
00000070: d0aa e63c c254 563e 533e 3bbe ad4b 913e
00000080: 489f 0abe 3c38 a63d 9ef7 59be 34a9 c33d
00000090: 2f99 9c3e 5e1b 3a3e 2026 babd 6bc1 66be
000000a0: 4a7a 073e 6c2c d13d c8c6 70bd f829 6dbe
000000b0: 92a3 683e 5efb 87be 1877 523d b011 dfbd
000000c0: e444 a5be 0675 263e 6941 a13e a96c 833e
000000d0: 0007 723d 98b8 50be b3d0 38be 7ce7 efbd
000000e0: 22ab 643e 3429 96bd d8cb 7abe 4474 ba3d
000000f0: c88b 61be a0af 2f3c 2213 9dbe d6b6 ffbd
00000100: 9ee7 8ebe cae0 303e 6406 ba3d c079 b63b
00000110: 1bd9 5dbe 80a9 f13c ccfc 9fbe 4081 753d
00000120: 16e9 4c3e 2899 033d 2f7e a0be 308f b9bc
00000130: 38e1 133e eaf1 633e a0cf f83d 6a0f 5a3e
00000140: f3ad 45be cc49 da3d d07d 9ebe 313c 983e
00000150: 671e 82be d919 923e a8e8 48be a5e6 a33e
00000160: fa37 673e 40a7 ffbd 709b a93c a6ae 94be
00000170: fe5d 90be d09a f9bd ca0e 673e 00a9 eabd
00000180: 9dc5 893e 88de 003e d8aa 023e daf2 3c3e
00000190: 5080 98be 966b fbbd a4e5 9fbe 7c76 943d
000001a0: 2869 283d fae5 a3be 28ae 68bd 4eee 44be
000001b0: 9819 2cbd f098 c2bc eb12 3abe fd1f a23e
000001c0: 387b 56bd f08d cf3c 9cfc 9dbe 00c3 9a3b
000001d0: 4032 58be 545c 8c3d 806f 6bbc d821 1abe
000001e0: fc35 91bd fb39 16be ca95 86be 9897 66be
000001f0: 005f 8cba efb0 883e e8f2 64be dc61 bc3d
00000200: 008b cbba d011 afbd e6e3 493e 5817 653d
00000210: 23b2 2abe 00bc 9d3c fcc4 9bbe 7ce3 82be
00000220: b75c a33e 68fd 023e a01b 6dbc 03d8 57be
00000230: b809 92be 14f0 bf3d 63f3 0cbe 8c38 84be
0.12128267 0.11115703 0.1948891 -0.27811715 0.0865626 -0.16173077 0.024300307 0.33011183
-0.10438764 -0.083232254 0.27007696 0.23830757 -0.32592964 -0.21942961 -0.30190527 -0.31084222
0.06354305 0.0036752522 0.14320111 -0.08424318 -0.18096289 -0.104166836 -0.19029193 -0.3160808
0.26455763 -0.26747733 0.20407715 -0.07605526 0.028157622 0.2093077 -0.18285494 0.2837805
-0.13537323 0.081161946 -0.21285865 0.09553757 0.3058562 0.18174502 -0.09089303 -0.2253472
0.13230243 0.10213551 -0.058783323 -0.23160541 0.22718647 -0.26558965 0.051383108 -0.108920455
-0.32279122 0.16255578 0.31495216 0.2566884 0.059088707 -0.20382917 -0.18048362 -0.11714074
0.22330907 -0.073320776 -0.24491823 0.09104207 -0.22025979 0.010723025 -0.3067866 -0.12486045
-0.27911085 0.1727325 0.0908325 0.005568713 -0.2166485 0.02949977 -0.31247556 0.059937716
0.2001079 0.032128483 -0.3134627 -0.022651285 0.14441383 0.22260252 0.12148976 0.21294942
-0.19304638 0.10658607 -0.30955362 0.29733422 -0.2541382 0.28535345 -0.19620001 0.32011905
0.22579947 -0.12483072 0.020704001 -0.29039496 -0.2819671 -0.12187731 0.22564235 -0.114580154
0.2690858 0.12584889 0.12760484 0.18452016 -0.29785395 -0.1227638 -0.3122989 0.072491616
0.04111591 -0.32011396 -0.056806713 -0.19231531 -0.042016596 -0.023754567 -0.18171279 0.3166503
-0.052363604 0.025336236 -0.30856788 0.004722953 -0.21112919 0.06853548 -0.014369845 -0.15051973
-0.07090375 -0.14670555 -0.26286155 -0.22518766 -0.0010709465 0.2669749 -0.22358286 0.09198353
-0.0015529096 -0.08548319 0.19715843 0.055930465 -0.16669516 0.019254684 -0.30423725 -0.25564182
0.31906673 0.1279198 -0.014471918 -0.21078496 -0.2852304 0.09371963 -0.1376472 -0.25824392

radarnet.predictor.Wxi.bias f4 [16]
00000000: 16f4 1bbe 9b95 a53e f6ee 22be 1e2a 5e3e
00000010: 9312 a4be 1cf5 dd3d 7613 0a3e c092 8dbb
00000020: 5613 53be 1c7d a4be c857 02be d8e2 19bd
00000030: 48b7 263d fa75 743e 248e 97bd 804c 71be
-0.1522983 0.32340702 -0.15911469 0.21695754 -0.3204542 0.108377665 0.13483986 -0.0043204725
-0.20612845 -0.321267 -0.12728798 -0.03756985 0.040702134 0.2387313 -0.07400158 -0.23564339
