logging/net_epoch11.pth (torch_old, 92173 bytes, 66 tensors)

radarnet.encoder.Wxi.weight f4 [16, 1, 3, 3]
0.18552215 0.3025083 0.2533122 0.3488328 0.015785778 0.021420503 0.1035309 0.36860263
0.25648174 -0.14864089 0.41379315 -0.08272069 0.0964243 0.1316703 0.03227154 0.060008537
0.47144777 0.42485452 0.14343727 -0.2939104 0.21329679 -0.14798993 -0.04425023 -0.28850776
0.095154405 -0.23871289 -0.12267789 -0.07213361 0.06252484 0.2996236 0.33120304 0.2536586
0.103826284 0.27520165 -0.07659246 0.16928965 -0.09036025 -0.06307353 0.18289609 0.46431273
0.1071936 -0.034571256 -0.13267256 0.2436067 0.31459484 0.1423855 -0.23250884 -0.3188724
-0.06252559 0.18306175 0.13691242 0.12012248 0.02014534 0.16208333 0.11401801 -0.09573019
0.2517185 0.46596113 0.17393202 0.4079055 -0.16426533 0.2163817 0.22020432 0.27882493
0.067878924 -0.044274256 0.24575156 0.09522058 0.21766123 0.40630534 0.37767172 0.10174411
0.3667119 -0.16434202 -0.007258732 0.3040818 0.29407796 0.30092585 -0.06595906 0.08663782
-0.16908012 0.43268037 0.21352369 0.2686019 0.026321381 0.5478719 0.44647312 0.3011748
0.40433115 0.59034175 0.27405027 -0.1274301 -0.0989891 -0.17553635 0.06480985 0.23218448
0.1422116 -0.18752676 0.012314497 0.33992746 0.12504603 -0.07699063 0.1391258 0.30955827
0.21587467 0.12572989 0.04743951 0.23345007 -0.22118749 -0.19440518 -0.21633077 -0.038301982
0.07287827 -0.20317464 -0.14229493 -0.09565819 0.10534159 0.25468445 0.08508474 0.25117826
-0.02818348 0.259082 0.38063458 -0.2260834 -0.030028155 0.216137 0.34964257 0.13629259
-0.158882 -0.031917907 0.15782839 0.20425506 0.10328481 0.33687288 0.09819999 -0.13207027
0.05312216 0.30251577 0.11462526 0.35687053 0.14010577 -0.24186197 0.13311568 -0.22270247
00000000: 85f9 3d3e 5ee2 9a3e 23b2 813e 369a b23e
00000010: 2d51 813c 0d7a af3c 0208 d43d 7cb9 bc3e
00000020: 9351 833e 5135 18be b2dc d33e 7769 a9bd
00000030: 1a7a c53d 94d4 063e 2a2f 043d 83cb 753d
00000040: 9a61 f13e 8886 d93e 38e1 123e 6d7b 96be
00000050: 796a 5a3e ac8a 17be bb3f 35bd 4ab7 93be
00000060: 50e0 c23d 2771 74be 8c3e fbbd c9ba 93bd
00000070: 060d 803d 4468 993e 7293 a93e 8adf 813e
00000080: e0a2 d43d 3be7 8c3e 82dc 9cbd 445a 2d3e
00000090: cb0e b9bd b22c 81bd 1d49 3b3e 66ba ed3e
000000a0: 5188 db3d 979a 0dbd 51db 07be 0974 793e
000000b0: 9312 a13e 81cd 113e cc16 6ebe 3e43 a3be
000000c0: 6b0d 80bd 8a74 3b3e c532 0c3e c602 f63d
000000d0: d707 a53c 2cf9 253e 4682 e93d 310e c4bd
000000e0: 3fe1 803e 7592 ee3e 3c1b 323e fdd8 d03e
000000f0: 2c35 28be 2a93 5d3e 3e7d 613e 24c2 8e3e
00000100: 1b04 8b3d ec58 35bd 4ca6 7b3e 0203 c33d
00000110: 96e2 5e3e 4107 d03e 305e c13e 375f d03d
00000120: aac1 bb3e 4649 28be a8da edbb 9cb0 9b3e
00000130: 6391 963e f412 9a3e 8b15 87bd 2b6f b13d
00000140: 5723 2dbe 4888 dd3e f4a5 5a3e 3086 893e
00000150: f09f d73c 5541 0c3f 2098 e43e 9533 9a3e
00000160: 7e04 cf3e a320 173f 5150 8c3e 097d 02be
00000170: ccba cabd cdbf 33be 07bb 843d c5c1 6d3e
00000180: eb9f 113e 0407 40be bec2 493c f90a ae3e
00000190: 110c 003e 43ad 9dbd fe76 0e3e 6c7e 9e3e
000001a0: 400e 5d3e 56bf 003e ee4f 423d 890d 6f3e
000001b0: f97e 62be 2712 47be d085 5dbe 8ae2 1cbd
000001c0: 3441 953d 030d 50be c3b5 11be 71e8 c3bd
000001d0: 55bd d73d 0066 823e e840 ae3d 709a 803e
000001e0: 0be1 e6bc 65a6 843e 89e2 c23e 6882 67be
000001f0: 9bfd f5bc 0553 5d3e 5a04 b33e 4990 0b3e
00000200: f7b1 22be 5abc 02bd c49d 213e 3d28 513e
00000210: fd86 d33d 9a7a ac3e 141d c93d 6e3d 07be
00000220: 9f96 593d 59e3 9a3e a6c0 ea3d bcb7 b63e
00000230: e377 0f3e aaaa 77be 7a4f 083e 1e0c 64be

radarnet.encoder.Wxi.bias f4 [16]
0.19814683 0.24292223 0.22990662 -0.14542867 0.26677227 -0.24943063 -0.3396324 0.27878192
0.34096116 0.104984395 -0.10785186 -0.07960786 0.25445345 -0.024664791 -0.10452485 0.26179892
00000000: 01e7 4a3e 9bc0 783e a46c 6b3e 41eb 14be
00000010: 6096 883e be6a 7fbe 4ce4 adbe 81bc 8e3e
00000020: 7692 ae3e 0f02 d73d 70e1 dcbd 7209 a3bd
00000030: b947 823e d10d cabc 2011 d6bd 820a 863e

radarnet.encoder.Whi.weight f4 [16, 16, 3, 3]
-0.09145953 -0.07241028 0.05888428 0.067449965 -0.0075924 0.04227722 -0.015369212 0.057252966
0.02086553 0.09462657 0.02150396 0.043121025 0.053139847 0.058248647 0.059861798 0.08142465
0.0062421835 0.07809453 0.041232016 0.10102799 0.036027055 0.08812818 0.034282256 0.049341373
0.093687885 0.05298794 0.047042467 0.002130479 -0.06660148 -0.07588793 0.06497728 0.032275185
-0.042943317 -0.023397462 0.031999957 0.021258581 -0.025530519 0.008522055 0.033994533 -0.10252287
-0.037050612 0.07091692 -0.059626132 -0.10016961 -0.07633697 0.06832454 -0.0040816646 0.03351579
-0.07308994 0.07120519 0.053612567 -0.025936829 -0.07056154 -0.029452855 -0.038751494 0.06116045
0.06515037 -0.07805106 0.049843237 -0.004296433 0.0501402 -0.06020329 0.02210318 0.037732735
0.004924837 -0.0386591 -0.0622384 0.089039005 0.045525994 -0.07901194 -0.072132565 0.07674134
0.07084301 0.060988694 0.06221376 0.013237345 0.029465375 0.03358722 0.012433187 -0.07493795
-0.023817135 0.08386721 -0.04682616 0.025693398 0.06572206 0.021170469 -0.066267096 0.08883764
-0.047675695 0.032625582 0.020092893 0.015063786 -0.028727422 0.048031095 -0.07321757 -0.036387112
-0.05163131 0.035877336 0.038325757 0.089550205 0.045355942 -0.010693991 0.07304734 0.08581599
-0.010395934 0.02483644 0.024780517 -0.044458203 -0.035963822 0.008152691 -0.066327825 -0.053070225
0.053922825 -0.044175353 -0.09786187 -0.07126118 -0.0055189524 0.085182875 0.03765793 -0.007511772
-0.044229936 0.08599904 -0.045001548 0.021514414 -0.076186314 -0.075682916 0.054596733 0.05596778
0.05554493 -0.01483773 -0.05493295 -0.02519105 0.020784955 -0.07565631 0.048259065 -0.04826336
0.048016235 0.05761721 0.008781488 -0.013526102 0.07991576 0.040429614 0.034703065 -0.07757208
0.054277737 0.08400481 -0.07811875 0.029886693 0.010919566 0.04820869 0.056767512 -0.01841457
0.03539185 0.023461893 0.08435556 0.10355811 -0.04544403 0.069176875 0.02612872 -0.02673332
0.06736723 -0.044315215 -0.055240076 0.015710238 -0.013195039 0.012242304 0.094217196 0.046277512
0.063325316 0.028226836 -0.042016093 -0.034885734 0.040413868 -0.06630042 -0.03787172 0.023373805
0.067847 -0.040402774 0.07719875 0.018872049 -0.031210959 -0.023170596 -0.07580056 -0.018272294
-0.11068294 -0.12534675 -0.12919062 -0.08782556 0.020972177 -0.026735209 0.04424773 0.028685253
-0.061857317 0.019764327 -0.07740075 -0.13163008 -0.02951505 -0.032366082 0.024570087 -0.0701848
0.058475338 0.034220036 0.020737685 0.014397748 0.0032793742 -0.032794397 -0.034998167 -0.023206614
0.02807101 -0.10854824 -0.01582643 0.008494208 -0.009347549 -0.09795121 0.030624224 -0.10235474
0.064151846 -0.044339415 0.007973484 0.0033988282 -0.0074571706 0.084100276 0.028056396 0.10972462
-0.0032073534 0.09085663 0.05698315 0.020838637 -0.010622642 -0.020249674 -0.028656008 0.08806537
-0.045644794 0.040802594 0.001918648 0.019719707 -0.07509495 0.043194186 0.030747492 -0.08757853
-0.008072358 -0.06954927 0.052562498 0.031837054 0.09660362 0.056443367 0.042054914 0.063190766
0.00914951 0.09002279 0.096295014 0.05778368 -0.074020825 -0.10806331 -0.013906897 -0.013643861
00000000: 224f bbbd d74b 94bd a530 713d 3523 8a3d
00000010: abc9 f8bb e12a 2d3d 26cf 7bbc 1682 6a3d
00000020: 30ee aa3c 93cb c13d 1329 b03c ac9f 303d
00000030: 2ba9 593d 2296 6e3d a531 753d f8c1 a63d
00000040: 3b8b cc3b 06f0 9f3d e7e2 283d c3e7 ce3d
00000050: 1b91 133d 8c7c b43d 8d6b 0c3d 2e1a 4a3d
00000060: 6fdf bf3d e209 593d 9aaf 403d 829f 0b3b
00000070: 5b66 88bd 226b 9bbd cf12 853d fc32 043d
00000080: 55e5 2fbd 09ac bfbc 6312 033d 7a26 ae3c
00000090: 6125 d1bc 17a0 0b3c da3d 0b3d 83f7 d1bd
000000a0: 62c2 17bd e43c 913d 883a 74bd b925 cdbd
000000b0: 8f56 9cbd bded 8b3d 7cbf 85bb da47 093d
000000c0: 2eb0 95bd 07d4 913d da98 5b3d 7979 d4bc
000000d0: 9282 90bd 1d47 f1bc e3b9 1ebd 6183 7a3d
000000e0: 8f6d 853d 3cd9 9fbd 6c28 4c3d 18c9 8cbb
000000f0: cf5f 4d3d ba97 76bd ba11 b53c a48d 1a3d
00000100: 8760 a13b 0159 1ebd b1ed 7ebd 155a b63d
00000110: 7779 3a3d 03d1 a1bd 3dba 93bd 902a 9d3d
00000120: 2416 913d 48cf 793d dbd3 7e3d 73e1 583c
00000130: 5f61 f13c c192 093d 91b4 4b3c 1179 99bd
00000140: 271c c3bc 92c2 ab3d cacc 3fbd f67a d23c
00000150: 4a99 863d b16d ad3c 0bb7 87bd 82f0 b53d
00000160: 9747 43bd 67a2 053d da99 a43c 19ce 763c
00000170: c555 ebbc 41bc 443d 18f3 95bd a70a 15bd
00000180: 5a7b 53bd 1df4 123d 78fb 1c3d 1966 b73d
00000190: 27c7 393d d935 2fbc d899 953d 4bc0 af3d
000001a0: b553 2abc ca75 cb3c 8300 cb3c ce19 36bd
000001b0: cd4e 13bd dd92 053c e2d6 87bd 2a60 59bd
000001c0: 2ede 5c3d 37f1 34bd ce6b c8bd 62f1 91bd
000001d0: 54d8 b4bb 5c74 ae3d 343f 1a3d 5025 f6bb
000001e0: 732a 35bd 4420 b03d 8b53 38bd ff3e b03c
000001f0: 9207 9cbd a5ff 9abd d3a0 5f3d 793e 653d
00000200: 1583 633d f319 73bc 5f01 61bd 765d cebc
00000210: 3645 aa3c b2f1 9abd 4cab 453d cdaf 45bd
00000220: acac 443d 0600 6c3d 3be0 0f3c 959c 5dbc
00000230: e0aa a33d 8699 253d cd24 0e3d 1cde 9ebd
00000240: 5552 5e3d b70a ac3d b9fc 9fbd f0d4 f43c
00000250: fbe7 323c 7a76 453d 0d85 683d 27da 96bc
00000260: 0bf7 103d 2833 c03c 9cc2 ac3d 4616 d43d
00000270: 8523 3abd 9bac 8d3d e60b d63c d6ff dabc
00000280: d5f7 893d df83 35bd 6b43 62bd c2b2 803c
00000290: 0130 58bc f293 483c f2f4 c03d 7d8d 3d3d
000002a0: b4b0 813d f73b e73c 1119 2cbd 58e4 0ebd
000002b0: 0389 253d 84c8 87bd 601f 1bbd 6c7a bf3c
000002c0: 5ef3 8a3d 617d 25bd 611a 9e3d 8e99 9a3c
000002d0: 20ae ffbc 43d0 bdbc 533d 9bbd c7af 95bc
000002e0: bdad e2bd e65a 00be 8c4a 04be e3dd b3bd
000002f0: d8cd ab3c cc03 dbbc 1c3d 353d 56fd ea3c
00000300: 195e 7dbd cce8 a13c 4984 9ebd 09ca 06be
00000310: 8cc9 f1bc 4c92 04bd 3547 c93c 0cbd 8fbd
00000320: d683 6f3d 4f2a 0c3d 14e2 a93c 88e4 6b3c
00000330: c5ea 563b 6b53 06bd 3d5a 0fbd cc1b bebc
00000340: 2df5 e53c 8a4e debd 6ea6 81bc 4a2b 0b3c
00000350: 7626 19bc a59a c8bd a7df fa3c 5d9f d1bd
00000360: 0b62 833d 3f9d 35bd 37a3 023c e0be 5e3b
00000370: 485b f4bb c43c ac3d 87d6 e53c 4db7 e03d
00000380: 7632 52bb 0a13 ba3d 2a67 693d cab5 aa3c
00000390: 970a 2ebc a5e2 a5bc 01c0 eabc 9e5b b43d
000003a0: 09f6 3abd 9f20 273d 257b fb3a 398b a13c
000003b0: 62cb 99bd 63ec 303d 2ae2 fb3c 5f5c b3bd
000003c0: ec41 04bc d96f 8ebd c64b 573d 9267 023d
000003d0: 1ed8 c53d 2931 673d c641 2c3d 296a 813d
000003e0: d4e7 153c de5d b83d 5236 c53d 94ae 6c3d
000003f0: 3b98 97bd 4c50 ddbd c1d9 63bc 808a 5fbc

radarnet.encoder.Whi.bias f4 [16]
0.070761524 -0.1068985 -0.01381572 -0.016834516 0.03030844 -0.049287315 0.027961701 0.09925764
0.1754141 0.06253786 -0.07360902 0.06792554 0.017335013 -0.07586028 0.10600754 0.110828005
00000000: 6beb 903d 9aed dabd 545b 62bc 8ae8 89bc
00000010: 6849 f83c 7fe1 49bd f00f e53c 9747 cb3d
00000020: c19f 333e d913 803d 53c0 96bd 8c1c 8b3d
00000030: 2802 8e3c a25c 9bbd 7b1a d93d cbf9 e23d

radarnet.encoder.Wxf.weight f4 [16, 1, 3, 3]
-0.041704744 0.038627762 0.2675891 0.4286022 0.50330186 0.19409491 0.07900643 0.09490542
0.096428886 0.38486612 0.31237602 0.3083779 0.44567317 -0.17142637 0.20855533 0.29825708
0.2647405 0.17507498 -0.13250642 -0.23174044 -0.23697023 -0.20892812 -0.34809592 0.15985198
0.11463025 -0.30402312 0.23147242 0.2787008 0.07444781 -0.116276674 0.50684947 0.29959166
-0.16165589 0.25490198 0.49305484 -0.16634187 0.37410933 0.3553189 -0.120502084 0.22145458
0.24803078 0.22832166 -0.016944475 0.12886378 -0.10860414 0.21709701 0.0077617946 -0.07134078
-0.3114846 -0.29361293 -0.049060524 -0.096031345 -0.0538835 0.15536758 0.025237577 0.31163317
0.18103829 -0.07838795 0.42517954 0.12779973 0.1976969 0.1793061 -0.14064972 0.07132278
0.12192023 0.3578188 0.4127726 0.3596329 0.10881301 0.08557457 0.27742812 0.28388792
0.34958178 0.031222926 0.0526561 0.14239481 -0.17792003 0.32628575 -0.10939509 0.1844521
0.09274946 -0.054498266 -0.13191406 -0.086103044 0.2595234 0.13825221 -0.15157315 0.23676206
-0.020090746 0.41201368 0.27454916 0.09622815 -0.28046232 0.06124628 0.067317784 0.036782738
0.12505057 -0.12844354 -0.2508443 0.19656098 0.117937125 0.4485975 -0.078845344 0.08699233
0.09792224 0.4235805 0.47737166 0.45345756 0.27207148 0.105538584 -0.19398336 0.14129896
-0.36265194 0.024486203 -0.057980113 -0.2328535 -0.35063282 0.19913417 -0.18325895 -0.07847811
0.28592718 -0.0069675967 0.29189807 0.026565917 0.047320563 -0.10967402 0.30945262 0.17745496
-0.16808885 -0.21048835 0.27375373 -0.2519078 0.12419733 0.29108515 0.14981773 0.38062438
0.34574422 -0.08015843 -0.099015 -0.17259876 -0.12502469 -0.1827867 0.33884725 0.39090994
00000000: 98d2 2abd 2538 1e3d 7001 893e bf71 db3e
00000010: 64d8 003f d1c0 463e 20ce a13d c65d c23d
00000020: 827c c53d 2c0d c53e c0ef 9f3e b5e3 9d3e
00000030: 462f e43e 658a 2fbe 878f 553e 27b5 983e
00000040: 118c 873e db46 333e c3af 07be 5e4d 6dbe
00000050: 53a8 72be 41f1 55be a139 b2be 3db0 233e
00000060: 44c3 ea3d eba8 9bbe 1b07 6d3e dfb1 8e3e
00000070: 1878 983d 7722 eebd e3c0 013f 1464 993e
00000080: 1f89 25be 8382 823e af71 fc3e 8655 2abe
00000090: 428b bf3e 5cec b53e ccc9 f6bd fdc4 623e
000000a0: c8fb 7d3e 27cd 693e 24cf 8abc def4 033e
000000b0: d96b debd ae4e 5e3e a756 fe3b 1d1b 92bd
000000c0: e97a 9fbe 6f54 96be b0f3 48bd 15ac c4bd
000000d0: f2b4 5cbd ae18 1f3e 09bf ce3c 628e 9f3e
000000e0: 1a62 393e dd89 a0bd 22b1 d93e efdd 023e
000000f0: 0e71 4a3e 059c 373e 7b06 10be ad11 923d
00000100: 50b1 f93d 0734 b73e ee56 d33e ce21 b83e
00000110: 5bd9 de3d b841 af3d 0f0b 8e3e c259 913e
00000120: 62fc b23e 39c7 ff3c ecad 573d f2cf 113e
00000130: ab30 36be ed0e a73e 880a e0bd 03e1 3c3e
00000140: 6ef3 bd3d 9339 5fbd 7b14 07be cb56 b0bd
00000150: 40e0 843e fd91 0d3e fe35 1bbe c171 723e
00000160: 5995 a4bc 75f3 d23e b591 8c3e 4413 c53d
00000170: c298 8fbe 61dd 7a3d e8dd 893d 7fa9 163d
00000180: 420d 003e b486 03be aa6e 80be 4847 493e
00000190: 0589 f13d 92ae e53e ab79 a1bd 0929 b23d
000001a0: 758b c83d 8bdf d83e 0f6a f43e 972b e83e
000001b0: f44c 8b3e 9d24 d83d 93a3 46be adb0 103e
000001c0: 84ad b9be 4a97 c83c 8e7c 6dbd 2671 6ebe
000001d0: 2586 b3be d4e9 4b3e 3ca8 3bbe 22b9 a0bd
000001e0: 0c65 923e 7050 e4bb aa73 953e c4a0 d93c
000001f0: 35d3 413d c69c e0bd 9370 9e3e c1b6 353e
00000200: 7c1f 2cbe 428a 57be 7329 8c3e 0ffa 80be
00000210: 2b5b fe3d 1d09 953e d269 193e 33e1 c23e
00000220: 6305 b13e 1a2a a4bd 60c8 cabd bbbd 30be
00000230: 7906 00be 702c 3bbe 637d ad3e 5925 c83e

radarnet.encoder.Wxf.bias f4 [16]
-0.11844719 -0.08563561 -0.023916125 -0.14047045 -0.13906975 0.008083491 -0.2983617 -0.23398802
-0.12495237 -0.13966417 0.28566745 -0.10698223 -0.3252765 -0.18463704 -0.24494895 0.27541202
00000000: 7194 f2bd b961 afbd c0eb c3bc 7cd7 0fbe
00000010: 4d68 0ebe 9e70 043c ddc2 98be 8e9a 6fbe
00000020: 07e7 ffbd 2004 0fbe 0143 923e 8019 dbbd
00000030: a48a a6be 7e11 3dbe e6d3 7abe ce02 8d3e

radarnet.encoder.Whf.weight f4 [16, 16, 3, 3]
0.026649896 -0.086184286 0.038482867 -0.0040276307 0.053890184 0.060423028 0.00076231733 -0.09181998
-0.06260268 0.055937156 0.005342708 -0.04244426 0.07012475 0.07094452 -0.05354447 0.02257312
0.0520167 0.03240089 0.054173257 -0.011229329 0.1107424 0.010741751 0.037168145 0.009574284
0.034965586 0.12227514 0.12741049 -0.074502535 0.017531477 0.012812857 -0.06517073 -0.06923129
-0.043043345 -0.050784163 -0.05279924 -0.03367804 -0.0036984205 0.009173619 0.039985318 0.0113514885
-0.08427249 -0.08224745 -0.0878204 0.0013798786 -0.055024896 0.0040276544 -0.0899294 0.035639837
-0.054859433 -0.08967073 0.06276501 -0.0021480822 -0.009746983 -0.06359136 0.036281254 -0.03542843
0.019398414 -0.038531482 -0.09348172 0.014235602 0.014422223 -0.0097275935 -0.0006142413 0.00821539
-0.061453782 0.06969521 0.020543294 -0.015619317 -0.011685022 -0.043329176 0.026811378 -0.04300932
0.05082787 0.107762635 0.020416256 -0.0032171928 0.056651264 -0.034573995 0.007184413 0.042069767
0.01690872 0.07261308 0.08474964 0.04909037 0.08745067 -0.03831194 -0.04652126 0.009502617
-0.011035825 0.040766526 -0.046173323 0.005744416 -0.031706356 0.051906608 -0.041584563 -0.048297115
-0.08273597 0.041037828 -0.02540726 0.025299517 0.034075353 -0.021009326 0.11357548 0.009323197
0.030869484 0.064184405 -0.0056952713 0.08631832 -0.04843999 -0.09614875 -0.09466932 -0.11498223
-0.038417056 -0.052240018 0.032504942 -0.05046656 -0.089008994 0.108407825 0.066590995 0.008556316
-0.05247808 0.090230435 0.030052345 0.060051586 0.05032892 -0.06281378 -0.018019889 -0.058769293
-0.04271732 0.027463438 0.025693152 0.07610034 0.00035483285 0.049675006 -0.017674388 0.028440401
-0.07891714 0.064900115 -0.032708857 0.013841569 0.052652363 -0.07267279 0.079411305 0.07125087
-0.041961886 0.045748446 0.0514031 -0.031773098 0.08023548 0.032602772 -0.051301893 -0.0340045
-0.0023336196 -0.03339661 0.0029626708 -0.04635478 0.008403201 0.025294457 -0.037958857 -0.041143395
0.031258903 -0.00028376724 0.012784788 0.09053228 -0.03942414 0.027926033 0.04574562 0.07959506
0.046610326 0.03455275 0.10267818 -0.042322587 -0.043166358 0.06765598 0.063042305 0.10498159
-0.024126004 -0.014637066 0.049159165 0.042928413 -0.09162191 -0.014758286 0.035743266 -0.03796545
-0.12521136 0.041266926 -0.028436784 -0.09855891 -0.022359634 -0.15326847 -0.026088458 -0.11004455
-0.110836454 -0.04987933 -0.0881048 -0.0789541 -0.15559527 -0.04038768 0.07688593 0.017990945
0.0020572285 0.08192936 -0.07006676 -0.058920115 0.0661575 0.01948349 0.09435604 -0.112677
0.00314349 -0.02438068 -0.07500869 -0.09823895 0.0461718 0.022624087 -0.11257238 -0.040943347
-0.016289664 0.082208715 0.03586684 0.010062093 -0.027452622 -0.013620975 0.054397818 0.014180263
0.026314173 0.08329867 -0.060006656 0.016250832 -0.06412949 -0.06636201 -0.06658697 0.036883295
-0.07815701 0.05916647 0.03758433 0.049115926 -0.032811876 0.037330974 -0.07959958 -0.007267182
-0.016497532 0.012330677 0.045517422 -0.05439622 -0.038643096 0.017347982 0.02810141 -0.076926686
-0.047894657 0.08202404 0.02012554 0.06954525 -0.004281594 -0.031037323 -0.082884006 -0.019477362
00000000: e250 da3c 6381 b0bd 36a0 1d3d 37fa 83bb
00000010: f4bb 5c3d 237e 773d 40d6 473a 1d0c bcbd
00000020: d535 80bd 5c1e 653d e211 af3b 08da 2dbd
00000030: 919d 8f3d 5c4b 913d 7251 5bbd 44eb b83c
00000040: 770f 553d ccb6 043d c7e4 5d3d 38fb 37bc
00000050: e9cc e23d 2bfe 2f3c a03d 183d 75dd 1c3c
00000060: 1338 0f3d 636b fa3d e577 023e c994 98bd
00000070: 2c9e 8f3c 04ed 513c 3b78 85bd 22c9 8dbd
00000080: 384e 30bd 0e03 50bd 0444 58bd fcf1 09bd
00000090: 3361 72bb f24c 163c a5c7 233d 98fb 393c
000000a0: 0e97 acbd 5a71 a8bd 2fdb b3bd 0bdd b43a
000000b0: c961 61bd 6afa 833b e82c b8bd 14fb 113d
000000c0: 49b4 60bd 4aa5 b7bd f18a 803d d7c6 0cbb
000000d0: cfb1 1fbc 303c 82bd a79b 143d 671d 11bd
000000e0: 6ce9 9e3c 30d3 1dbd 5873 bfbd 713c 693c
000000f0: 304b 6c3c 7c60 1fbc 0905 21ba d899 063c
00000100: f6b6 7bbd 5dbc 8e3d 694a a83c 2ae8 7fbc
00000110: 8972 3fbc ef79 31bd 89a3 db3c 8a2a 30bd
00000120: e230 503d a8b2 dc3d fe3f a73c 8ad7 52bb
00000130: 280b 683d 769d 0dbd 396b eb3b 5951 2c3d
00000140: 2884 8a3c 2bb6 943d 3891 ad3d fc12 493d
00000150: 5619 b33d fbec 1cbd 148d 3ebd ddb0 1b3c
00000160: 9bcf 34bc cdfa 263d 3d20 3dbd a73b bc3b
00000170: 86de 01bd 069c 543d 9354 2abd 32d3 45bd
00000180: 7a71 a9bd 4817 283d e322 d0bc ef40 cf3c
00000190: 9992 0b3d c01b acbc 439a e83d 53c0 183c
000001a0: 00e2 fc3c 1d73 833d 669f babb a9c7 b03d
000001b0: 0369 46bd a3e9 c4bd fde1 c1bd ce7b ebbd
000001c0: 345b 1dbd a1f9 55bd e723 053d 06b6 4ebd
000001d0: 594a b6bd ec04 de3d dc60 883d ca2f 0c3c
000001e0: 41f3 56bd bcca b83d 5630 f63c a7f8 753d
000001f0: b325 4e3d 83a4 80bd 729e 93bc 12b8 70bd
00000200: 5bf8 2ebd 01fb e03c 727a d23c 7fda 9b3d
00000210: dc08 ba39 0578 4b3d e1c9 90bc d8fb e83c
00000220: 4f9f a1bd 5aea 843d b9f9 05bd c0c7 623c
00000230: 01aa 573d 79d5 94bd 65a2 a23d faeb 913d
00000240: 3ae0 2bbd b962 3b3d 0f8c 523d 8224 02bd
00000250: 8052 a43d 7c8a 053d ef21 52bd 4d48 0bbd
00000260: a4ef 18bb e2ca 08bd 5e29 423b 83de 3dbd
00000270: 94ad 093c 5236 cf3c bf7a 1bbd fa85 28bd
00000280: 5609 003d 98c6 94b9 4a77 513c fd68 b93d
00000290: 357b 21bd 23c5 e43c c25f 3b3d bc02 a33d
000002a0: 78ea 3e3d 2f87 0d3d f048 d23d 735a 2dbd
000002b0: 35cf 30bd 388f 8a3d 531c 813d 9600 d73d
000002c0: e6a3 c5bc 4ed0 6fbc 1f5b 493d b4d5 2f3d
000002d0: 45a4 bbbd bdcc 71bc 8867 123d a981 1bbd
000002e0: 6837 00be 8207 293d 42f4 e8bc 41d9 c9bd
000002f0: 8d2b b7bc 69f2 1cbe 76b7 d5bc 095f e1bd
00000300: 39fe e2bd 454e 4cbd 4a70 b4bd b0b2 a1bd
00000310: 5e54 1fbe 8d6d 25bd 5f76 9d3d bf61 933c
00000320: 91d2 063b 95ca a73d 297f 8fbd 3856 71bd
00000330: 957d 873d d79b 9f3c bd3d c13d 33c3 e6bd
00000340: 0303 4e3b feb9 c7bc 289e 99bd 8131 c9bd
00000350: a41e 3d3d 2656 b93c 598c e6bd 36b4 27bd
00000360: e771 85bc 0b5d a83d 1ce9 123d 7adb 243c
00000370: 52e4 e0bc 832a 5fbc 3fd0 5e3d 5554 683c
00000380: d290 d73c 7e98 aa3d 8ac9 75bd 7720 853c
00000390: 5256 83bd cee8 87bd c05e 88bd f012 173d
000003a0: c810 a0bd 8a58 723d 07f2 193d c82d 493d
000003b0: bf65 06bd 5de8 183d 1b05 a3bd 8b21 eebb
000003c0: d525 87bc 9c06 4a3c 7a70 3a3d 92ce 5ebd
000003d0: 3948 1ebd 5b1d 8e3c ee34 e63c bd8b 9dbd
000003e0: 302d 44bd 38fc a73d 51de a43c bd6d 8e3d
000003f0: 9d4c 8cbb fc41 febc 17bf a9bd fd8e 9fbc

radarnet.encoder.Whf.bias f4 [16]
-0.057291243 -0.11310174 0.042953137 0.0073379544 -0.019780822 -0.110994846 -0.009258159 -0.1297316
-0.106938995 -0.045398276 0.024037879 -0.10866312 -0.095039755 0.053465236 0.082066126 0.14492296
00000000: 39aa 6abd e3a1 e7bd a1ef 2f3d 3973 f03b
00000010: 640b a2bc 4451 e3bd 89af 17bc 5cd8 04be
00000020: d502 dbbd 8bf3 39bd 16eb c43c c58a debd
00000030: 34a4 c2bd 5dfe 5a3d 4912 a83d af66 143e

radarnet.encoder.Wxc.weight f4 [16, 1, 3, 3]
-0.3971056 0.080676034 -0.2525317 -0.15339527 -0.15276077 0.13567893 -0.012824655 -0.14620374
0.20332839 0.25724807 0.06306656 0.11748172 -0.041237608 0.030895026 0.3613913 0.09891791
0.106495276 0.28413188 -0.1639112 0.16595179 0.11806961 0.30559698 -0.27012706 -0.02091446
0.15440711 -0.2426321 -0.032535553 -0.15685566 -0.053160828 -0.18447255 0.20203269 0.20517567
0.21853955 -0.041268464 0.13822725 0.18197231 -0.008161491 -0.39177427 -0.36964953 -0.4317499
-0.10265519 -0.20923828 -0.47425026 -0.41040117 0.12131773 0.2262218 -0.23776625 -0.16451599
-0.40829813 -0.17520392 -0.058304265 -0.23347017 -0.42812365 -0.2825612 0.047355734 0.2145416
-0.20729302 -0.16838734 0.20596582 -0.29865974 -0.068019144 -0.080639385 -0.18507786 -0.20781553
-0.429345 -0.44335514 0.02869005 -0.3570169 0.18169388 -0.445464 -0.33521676 -0.40617093
0.2634855 0.27630162 0.36600915 0.3308696 0.45583808 0.10393861 0.20915608 -0.15818578
0.08195985 0.3285285 0.20035662 -0.043532714 0.31934053 0.50233835 0.41412005 0.19351925
0.5422182 -0.03937482 -0.0984006 -0.115051 0.1979586 0.07704287 -0.21871674 -0.12349808
0.016928853 0.28997084 0.18731198 0.078564525 0.15852267 0.4116662 0.4947027 0.13729408
0.22675891 0.24293016 0.35128486 -0.037266962 -0.42945915 -0.31767464 -0.2108488 -0.5328938
0.07405404 -0.057823353 -0.29162484 0.10013009 -0.1816465 -0.08733353 0.3635006 -0.0661995
0.30065745 -0.07708276 0.11075921 -0.20010525 -0.054722413 -0.20520788 -0.27478245 -0.09799732
-0.20655176 0.24783203 0.0660996 0.026796771 0.104083285 0.0021996351 0.20896286 0.1809002
0.13055502 -0.26518893 0.17059505 0.082863174 -0.14146073 -0.1538633 -0.23835771 -0.17059866
00000000: 6d51 cbbe 7a39 a53d d64b 81be a613 1dbe
00000010: 526d 1cbe 6bef 0a3e 801e 52bc 6fb6 15be
00000020: 5135 503e 05b6 833e 0a29 813d 429a f03d
00000030: c4e8 28bd 9117 fd3c 4808 b93e 7995 ca3d
00000040: 321a da3d bc79 913e 56d8 27be 44ef 293e
00000050: 7bce f13d 3577 9c3e 184e 8abe cd54 abbc
00000060: e61c 1e3e 8d74 78be 0044 05bd c59e 20be
00000070: 2bbf 59bd 5fe6 3cbe a8e1 4e3e 9219 523e
00000080: d5c8 5f3e 1f09 29bd 728b 0d3e f356 3a3e
00000090: c6b7 05bc a396 c8be b442 bdbe 530e ddbe
000000a0: e23c d2bd 8f42 56be eed0 f2be 1a20 d2be
000000b0: 6e75 f83d b0a6 673e ff78 73be e176 28be
000000c0: 740c d1be a868 33be 74d0 6ebd ce12 6fbe
000000d0: 0633 dbbe ddab 90be 16f8 413d cbb0 5b3e
000000e0: 9f44 54be bb6d 2cbe b4e8 523e eee9 98be
000000f0: 9f4d 8bbd 4326 a5bd 0d85 3dbe 98cd 54be
00000100: 1cd3 dbbe 72ff e2be 6507 eb3c ebca b6be
00000110: f60d 3a3e db13 e4be 88a1 abbe a3f5 cfbe
00000120: 92e7 863e 6877 8d3e 8d65 bb3e bd67 a93e
00000130: 9c63 e93e c4dd d43d 032d 563e 74fb 21be
00000140: 91da a73d e334 a83e 492a 4d3e 5c4f 32bd
00000150: 9a80 a33e 3f99 003f 8b07 d43e e929 463e
00000160: d0ce 0a3f 7e47 21bd 4186 c9bd dc9f ebbd
00000170: a9b5 4a3e a7c8 9d3d 48f7 5fbe 90ec fcbd
00000180: 61ae 8a3c 0f77 943e b6ce 3f3e 70e6 a03d
00000190: c453 223e eac5 d23e ac49 fd3e d296 0c3e
000001a0: 7d33 683e afc2 783e 9cdb b33e 3ea5 18bd
000001b0: 12e2 dbbe 40a6 a2be bfe8 57be ba6b 08bf
000001c0: a5a9 973d 2ed8 6cbd da4f 95be 0111 cd3d
000001d0: 8a01 3abe ecdb b2bd c01c ba3e 9a93 87bd
000001e0: c6ef 993e 91dd 9dbd bad5 e23d 64e8 4cbe
000001f0: 9c24 60bd 0422 52be 49b0 8cbe d2b2 c8bd
00000200: 4e82 53be aec7 7d3e 3a5f 873d e784 db3c
00000210: 9e29 d53d c127 103b 5cfa 553e e73d 393e
00000220: 37b0 053e d8c6 87be 78b0 2e3e 2bb4 a93d
00000230: 15db 10be 578e 1dbe 0b14 74be 6ab1 2ebe

radarnet.encoder.Wxc.bias f4 [16]
-0.29157498 -0.1158646 -0.03163289 -0.35597265 0.0763629 -0.12895137 -0.25531918 -0.13149144
-0.010425432 0.04756495 0.24818873 0.07073641 0.23145828 0.3262762 -0.36495766 0.34501192
00000000: 5149 95be 6b4a edbd 7d91 01bd 0c42 b6be
00000010: 2764 9c3d d40b 04be 32b9 82be b1a5 06be
00000020: 6ecf 2abc 77d3 423d 3025 7e3e 40de 903d
00000030: 6603 6d3e ad0d a73e bbdb babe 67a5 b03e

radarnet.encoder.Whc.weight f4 [16, 16, 3, 3]
0.022128236 -0.026998494 0.016625775 -0.0043038623 -0.043012615 -0.040382728 -0.02262882 -0.006832423
-0.060981248 -0.049109846 0.034735255 0.071880914 -0.0016660499 0.022071548 0.0023726008 -0.09314581
-0.082288265 0.048350412 -0.06875101 -0.0167385 -0.120347224 -0.11510317 -0.099593796 -0.087785795
0.012785691 -0.026622994 -0.014453696 0.0022924142 0.091211125 0.038004003 0.07221812 0.09238334
0.058833282 0.07569666 0.095178284 -0.030154958 0.08121222 0.06179606 -0.010777453 -0.039625306
0.05447595 -0.045921836 0.030075327 0.032385007 0.033893522 -0.051949132 0.058150854 -0.04408701
0.05752673 0.040192652 -0.019088328 -0.046712685 0.040198088 -0.065952264 0.084879376 0.061679438
0.020775678 -0.03796013 -0.03598703 0.012049948 0.09756181 -3.167217e-05 0.063543186 -0.04501225
0.064130835 0.019229408 0.0562654 0.044481944 -0.053052507 0.00948527 -0.093319856 -0.015710803
0.050642226 -0.048321184 0.04628627 0.044497006 -0.00680574 0.013162252 -0.08762594 -0.063937426
-0.043596357 -0.06503087 0.010551514 -0.012355145 -0.020370394 0.079850756 -0.03568532 -0.034640186
0.031416703 0.050345596 0.0009558335 0.0036960621 0.043754354 -0.006148362 0.04259822 -0.026942786
-0.09480916 0.018516656 0.0060368525 -0.040100567 0.00079744076 -0.056201197 -0.10928004 -0.06473787
-0.00831524 -0.091044284 0.03938625 0.0048488015 -0.058067847 -0.042951267 0.0045517716 0.076495506
0.025451422 0.02827454 -0.020308586 -0.07400755 0.027479347 -0.035382476 -0.055063903 -0.084293775
-0.08474179 -0.012899194 0.037502144 -0.095796905 -0.082566805 -0.07280005 0.093166076 0.053060792
-0.020386465 -0.03969756 -5.3039963e-05 0.05876388 0.059445646 -0.056315094 -0.0589475 -0.025430758
0.03453 -0.071324036 -0.035005663 -0.067887925 -0.037403163 -0.06538999 0.013888233 -0.099762656
-0.05386901 -0.011340123 0.013216128 -0.04011596 -0.05637255 -0.04917055 0.040506586 0.074637406
-0.058397874 0.05425015 -0.020276321 0.026270779 0.032782946 0.058013026 -0.017213292 0.070858024
-0.06735703 -0.09142908 0.02579744 0.053312793 0.10817368 0.112579204 0.063567355 0.017769955
0.03904527 0.0013735469 0.036818497 0.022648836 -0.053737782 0.032496836 -0.022492424 0.087113775
-0.036632612 0.02760279 0.01170098 -0.05082193 0.01968977 -0.01451167 -0.016187957 0.044732243
-0.073699206 -0.045985732 0.037262987 -0.020999562 -0.08900668 -0.022260519 -0.056078862 -0.06799111
-0.08827693 0.025517825 -0.05118365 -0.014005251 -0.09025605 -0.094444536 0.022908358 -0.058722485
0.023204096 0.069816284 -0.020395214 0.040439855 -0.074708715 0.00083231716 0.012778365 -0.038778197
-0.027840436 -0.067492 0.0043491074 0.05257292 -0.022641977 -0.022120625 -0.03432029 0.017491302
-0.03034823 -0.05126085 -0.013259743 0.07007294 0.0021594632 0.079772845 0.045614112 -0.014248593
-0.07221422 0.09058688 -0.07155128 -0.022564147 -0.0021133944 -0.022473656 -0.04681603 -0.065103225
0.013415702 0.065049194 0.012210937 -0.076195434 -0.10233364 0.075962715 -0.04862807 -0.0805556
0.070977926 0.056087088 0.06953548 0.020974057 0.010139901 0.05717371 0.00052755 -0.030575575
-0.011788222 -0.050518233 0.011631426 -0.06394385 -0.08267699 -0.06880577 -0.04772796 -0.040297344
00000000: 4646 b53c f22b ddbc c732 883c 6a07 8dbb
00000010: ff2d 30bd 5c68 25bd 1360 b9bc 85e2 dfbb
00000020: 79c7 79bd 6827 49bd 8e46 0e3d 4d36 933d
00000030: 5c5f daba 64cf b43c a37d 1b3b 3bc3 bebd
00000040: c086 a8bd 150b 463d 54cd 8cbd 2e1f 89bc
00000050: 9b78 f6bd 36bb ebbd d5f7 cbbd 0ac9 b3bd
00000060: 137b 513c 7718 dabc 32cf 6cbc 543c 163b
00000070: e6cc ba3d 16aa 1b3d 18e7 933d 7a33 bd3d
00000080: 2bfb 703d da06 9b3d d5ec c23d 8807 f7bc
00000090: 9852 a63d de1d 7d3d ea93 30bc 254e 22bd
000000a0: 2c22 5f3d 8918 3cbd 8860 f63c 24a6 043d
000000b0: efd3 0a3d 9dc8 54bd 972f 6e3d 9594 34bd
000000c0: 26a1 6b3d 0da1 243d 205f 9cbc cd55 3fbd
000000d0: c0a6 243d fb11 87bd 3dd5 ad3d 94a3 7c3d
000000e0: c131 aa3c 157c 1bbd 2367 13bd 256d 453c
000000f0: 7cce c73d bcd7 04b8 ee22 823d c45e 38bd
00000100: 0757 833d fe86 9d3c 8c76 663d b332 363d
00000110: 964d 59bd 1b68 1b3c 7b1e bfbd f1b3 80bc
00000120: 396e 4f3d 6fec 45bd ac96 3d3d 7e42 363d
00000130: af02 dfbb 7ca6 573c 3b75 b3bd a0f1 82bd
00000140: 1892 32bd e82e 85bd 42e0 2c3c 3c6d 4abc
00000150: d0df a6bc cb88 a33d c52a 12bd dee2 0dbd
00000160: cdae 003d 2f37 4e3d e690 7a3a a239 723b
00000170: c437 333d 3378 c9bb 797b 2e3d 1eb7 dcbc
00000180: 4e2b c2bd 3eb0 973c cad0 c53b 7e40 24bd
00000190: 580b 513a 3a33 66bd 37ce dfbd 4a95 84bd
000001a0: a53c 08bc 6d75 babd 7a53 213d b2e2 9e3b
000001b0: 8dd8 6dbd abed 2fbd 0727 953b ada9 9c3d
000001c0: 807f d03c 02a0 e73c 315e a6bc 4591 97bd
000001d0: 5e1c e13c 37ed 10bd b08a 61bd 37a2 acbd
000001e0: 1b8d adbd 2457 53bc d99b 193d 2b31 c4bd
000001f0: c918 a9bd 3118 95bd dbcd be3d 4656 593d
00000200: 8401 a7bc e999 22bd 3a77 5eb8 65b2 703d
00000210: 477d 733d a8aa 66bd ef72 71bd 2a54 d0bc
00000220: 546f 0d3d 5612 92bd 1962 0fbd d308 8bbd
00000230: 0f34 19bd 30eb 85bd 798b 633c 5d50 ccbd
00000240: c0a5 5cbd eccb 39bc 7588 583c a250 24bd
00000250: e7e6 66bd 0f67 49bd 3cea 253d 7fdb 983d
00000260: 9c32 6fbd 6835 5e3d 871a a6bc d135 d73c
00000270: 6947 063d 119f 6d3d e402 8dbc 031e 913d
00000280: 7cf2 89bd 2b3f bbbd 2755 d33c 845e 5a3d
00000290: 2a8a dd3d ed8f e63d 9a2f 823d 4c92 913c
000002a0: efed 1f3d 9608 b43a fece 163d 0d8a b93c
000002b0: 261c 5cbd 671b 053d 0842 b8bc b568 b23d
000002c0: 140c 16bd 3f1f e23c 78b5 3f3c a82a 50bd
000002d0: 714c a13c 5bc2 6dbc 9b9c 84bc 2839 373d
000002e0: 9cef 96bd 895b 3cbd 13a1 183d 4607 acbc
000002f0: 2249 b6bd b15b b6bc f3b2 65bd ec3e 8bbd
00000300: 89ca b4bd c20a d13c f2a5 51bd 4876 65bc
00000310: 2ad8 b8bd 236c c1bd 4faa bb3c fd86 70bd
00000320: 8416 be3c d7fb 8e3d dd13 a7bc 43a4 253d
00000330: e200 99bd dc2f 5a3a 595c 513c e3d5 1ebd
00000340: a011 e4bc 3f39 8abd f582 8e3b b456 573d
00000350: ab7b b9bc 5036 b5bc 6f93 0cbd eb49 8f3c
00000360: da9c f8bc e6f6 51bd 653f 59bc 6782 8f3d
00000370: c885 0d3b f25f a33d ddd5 3a3d ee72 69bc
00000380: 0de5 93bd 9d85 b93d 7a89 92bd 72d8 b8bc
00000390: e080 0abb ac1a b8bc 2ac2 3fbd d754 85bd
000003a0: 88cd 5b3c 8338 853d 6210 483c 5a0c 9cbd
000003b0: 4d94 d1bd 5792 9b3d 3a2e 47bd 56fa a4bd
000003c0: e05c 913d 93bb 653d 9e68 8e3d c9d1 ab3c
000003d0: d421 263c fb2e 6a3d 484b 0a3a a179 fabc
000003e0: 6323 41bc 35ec 4ebd bd91 3e3c fef4 82bd
000003f0: 8e52 a9bd 0aea 8cbd 657e 43bd d40e 25bd

radarnet.encoder.Whc.bias f4 [16]
-0.054565966 0.04838299 0.049316563 -0.04297741 0.0083689485 0.042013973 -0.0011671777 0.02607696
-0.02401092 -0.08716562 -0.055557657 -0.005912444 0.050003007 -0.042010903 -0.089891806 0.08707627
00000000: 9080 5fbd 3e2d 463d 2a00 4a3d 1509 30bd
00000010: ea1d 093c d816 2c3d fcfb 98ba 599f d53c
00000020: 8db2 c4bc e383 b2bd 6d90 63bd 2dbd c1bb
00000030: f4cf 4c3d a013 2cbd 3219 b8bd 0b55 b23d

radarnet.encoder.Wxo.weight f4 [16, 1, 3, 3]
0.096534915 0.028141195 0.39131227 0.4085929 0.18557289 0.18799347 -0.21033297 0.12334961
0.2133909 0.35333002 -0.1665609 0.32671696 0.10896105 0.40149075 0.35214874 0.37065777
-0.06396964 0.29073864 -0.3206746 -0.2355716 0.18140374 -0.040629845 0.044284664 -0.11845871
0.03453345 -0.29014778 -0.3746409 0.3175295 0.24421039 0.15155111 0.15109424 0.20907216
0.30182344 0.1663607 -0.009034384 0.06299359 0.1273117 0.20083757 0.23989569 0.23726968
-0.11025513 -0.12645371 0.26214314 -0.1279219 -0.1371053 0.0012616481 0.124427445 -0.18290392
0.012636789 -0.051843945 -0.2531185 0.22617483 -0.20813775 0.0034649041 0.062756754 0.1615053
0.07031682 -0.054992903 0.28388694 0.31182462 0.34615934 0.24591097 0.3436824 0.43623146
0.039184272 0.430936 -0.15726349 -0.1489179 -0.16504838 0.112558395 0.35391763 -0.15565291
-0.0024460463 -0.020813651 -0.008767264 0.18444075 0.30353454 0.15092291 -0.22716582 0.35870478
-0.01693081 0.3270745 0.011043653 0.14943346 -0.028882407 0.21020386 0.17848712 0.37156188
0.46390748 -0.00315061 -0.026273953 0.1609729 0.2517552 -0.19041464 -0.32660037 -0.34511378
-0.24575496 0.23701906 0.22847082 0.5815589 0.16682737 0.522023 0.48057455 0.09522962
-0.030095877 0.20371176 0.009826316 0.26223063 -0.210699 0.18523686 0.23021345 0.15250275
0.15326418 -0.05513221 -0.28293297 0.3252082 0.2722074 -0.22411115 0.12161087 -0.12411271
0.2505644 0.28279695 0.274906 0.10028991 -0.2666732 0.23595434 0.07618692 -0.3190278
0.004032479 0.10693181 -0.33320108 -0.14945334 0.1813833 0.05694156 -0.068405986 -0.0052721845
-0.19168824 0.07288768 -0.286933 -0.3093523 -0.17800666 0.014126066 -0.20892265 0.26577324
00000000: 19b4 c53d 5d88 e63c 155a c83e 1733 d13e
00000010: d206 3e3e 5c81 403e 8761 57be b89e fc3d
00000020: 2583 5a3e ace7 b43e f18e 2abe 7247 a73e
00000030: f926 df3d 3290 cd3e d74c b43e dbc6 bd3e
00000040: 8402 83bd b2db 943e 762f a4be ae39 71be
00000050: e7c1 393e 7b6b 26bd d663 353d 7b9a f2bd
00000060: f272 0d3d 408e 94be efd0 bfbe 3a93 a23e
00000070: 4a12 7a3e 3730 1b3e 73b8 1a3e 0317 563e
00000080: 9a88 9a3e 765a 2a3e f404 14bc c902 813d
00000090: 005e 023e 5da8 4d3e 37a7 753e d3f6 723e
000000a0: 71cd e1bd 157d 01be a037 863e f5fd 02be
000000b0: 5565 0cbe e35d a53a d1d3 fe3d 2a4b 3bbe
000000c0: 890a 4f3c 515a 54bd bf98 81be 609a 673e
000000d0: 1022 55be 7213 633b 9d86 803d a561 253e
000000e0: 4402 903d 3d40 61bd a159 913e 7aa7 9f3e
000000f0: cc3b b13e 16d0 7b3e 24f7 af3e bb59 df3e
00000100: b07f 203d a5a3 dc3e ae09 21be ef7d 18be
00000110: 7102 29be 0485 e63d b134 b53e 7a63 1fbe
00000120: d94d 20bb 6481 aabc 92a4 0fbc 09de 3c3e
00000130: e168 9b3e 898b 1a3e 289e 68be 27a8 b73e
00000140: 7bb2 8abc 4f76 a73e 70f0 343c 1605 193e
00000150: cc9a ecbc ae3f 573e 54c5 363e 5c3d be3e
00000160: 4885 ed3e 777a 4ebb 793c d7bc 14d6 243e
00000170: 0fe6 803e 0efc 42be 2a38 a7be c1b2 b0be
00000180: 30a7 7bbe 20b5 723e 41f4 693e 0be1 143f
00000190: cbd4 2a3e 4da3 053f de0d f63e bf07 c33d
000001a0: a18b f6bc d199 503e 8efe 203c 1843 863e
000001b0: 7bc1 57be bbae 3d3e 13bd 6b3e ae29 1c3e
000001c0: 49f1 1c3e 50d2 61bd 97dc 90be b081 a63e
000001d0: c55e 8b3e 657d 65be 1f0f f93d ce2e febd
000001e0: fa49 803e c3ca 903e 7bc0 8c3e cc64 cd3d
000001f0: 6489 88be 049e 713e e307 9c3d 9d57 a3be
00000200: e322 843b 11ff da3d 5599 aabe 4c0a 19be
00000210: 8bbc 393e 8e3b 693d 7018 8cbd 4ac2 acbb
00000220: ec49 44be 2346 953d e2e8 92be 6d63 9ebe
00000230: 6147 36be 0471 673c d2ef 55be 6e13 883e

radarnet.encoder.Wxo.bias f4 [16]
-0.1631419 0.19883746 -0.22540642 0.11949167 0.19316933 -0.12404684 -0.29889825 0.10213433
0.34215292 0.015830906 0.06846341 -0.11243053 -0.04318318 -0.21100281 -0.33243924 -0.2701943
00000000: ac0e 27be 0c9c 4b3e f1d0 66be 0cb8 f43d
00000010: 2ece 453e 450c febd 3109 99be ce2b d13d
00000020: ab2e af3e d1af 813c 8b36 8c3d fa41 e6bd
00000030: d9e0 30bd 1f11 58be 7a35 aabe e856 8abe

radarnet.encoder.Who.weight f4 [16, 16, 3, 3]
0.061956637 0.021562532 0.037252218 0.11877501 0.049746796 0.12703322 0.059804708 0.13175884
0.0026221578 -0.08265066 -0.046378516 -0.099633165 0.052070554 0.013629846 -0.029681752 0.06319216
-0.10565285 -0.089086026 -0.012526231 -0.0065182745 -0.0057635247 0.028477522 0.058728363 0.032375764
0.07675259 0.08796455 0.055433508 0.118378475 0.08333992 0.00879508 0.010495245 0.14154041
0.02760874 0.13982086 0.0053827167 0.046227805 -0.029456282 0.07465391 0.027952887 -0.07315774
0.07918738 -0.035668164 -0.068022616 0.06898005 0.06548544 -0.090211384 0.05530119 0.018362636
-0.049101923 0.06554656 0.064796865 -0.015770031 0.04115621 -0.042449035 0.009343271 0.03684244
0.11238898 0.043913454 -0.006713324 0.08309407 -0.035985224 0.030829957 0.11392692 -0.0014804344
-0.07678832 0.0834876 0.0365753 0.026250962 -0.037663214 -0.0044300733 0.0064841285 -0.022687605
0.02222587 0.015966542 -0.08979294 -0.08138557 -0.04083937 -0.01206849 0.028707104 -0.054317668
-0.084610745 -0.05690321 0.0023603057 -0.053852756 0.092099994 -0.0051374002 -0.07600159 0.018933058
-0.019181859 0.03861551 0.011068512 0.04793765 0.07790374 -0.026683526 0.02988316 0.014663107
-0.05239898 -0.00385351 -0.051671978 0.06837667 -0.07205318 0.0033614887 -0.0013115715 -0.08841794
0.0067937695 0.03324289 -0.0336074 -0.049023513 -0.17265035 -0.067872345 -0.105831355 -0.14233793
-0.15746664 -0.036517166 -0.13171214 -0.101471044 0.008701605 -0.007367924 -0.08088311 -0.085607275
-0.03302328 0.0040634545 -0.02715783 -0.07734293 -0.05134489 -0.07063039 0.0059704594 -0.0006737855
0.08397505 -0.01641606 0.11318305 0.040778834 0.09259366 -0.027977644 0.07476744 -0.09052423
0.023465933 -0.037272003 -0.12882493 -0.10266855 -0.011787864 -0.03399878 -0.045411922 -0.09741056
0.0010387951 -0.023652192 0.019821724 0.0555968 -0.0088216495 0.05277161 0.031140339 -0.014898909
0.033808243 0.03887756 -0.015371137 -0.046293896 -0.013772524 0.024755182 -0.01154141 -0.04230184
-0.058751404 0.06639748 0.05027484 0.08430519 0.08390132 -0.02876195 -0.011352406 0.047079362
0.027801374 -0.0035568892 0.00252957 -0.007142023 -0.0059741023 0.11372678 0.016724398 0.112398475
0.08824538 0.10333624 0.008046354 -0.011851053 -0.014809245 -0.10209882 -0.08422493 0.009871885
-0.077952765 -0.053708315 0.009709314 0.02894742 -0.089404665 -0.11839403 -0.20566767 -0.15301447
-0.17544805 -0.21078423 -0.1395116 -0.22644913 -0.17898127 -0.17266735 0.0419215 -0.02286187
-0.021974333 -0.006189631 0.08883035 0.0025637983 6.5827708e-06 -0.021738738 0.038966812 0.0520752
-0.07165052 8.502336e-05 -0.07646604 -0.0753827 0.013512137 -0.09465944 -0.018914834 -0.055070993
-0.021716876 -0.03511398 0.034981858 0.11327021 0.049242176 0.09905515 0.12282425 0.024124987
-0.022025175 -0.02913716 -0.09314147 0.037961427 0.051041782 -0.0408163 0.024163593 -0.03442478
-0.07889975 -0.010127636 0.07512144 0.031325303 0.061640617 -0.071243666 0.06711448 -0.072290406
0.034008797 -0.072296895 -0.011447129 0.028890477 0.011105418 -0.113653354 -0.02802557 -0.10853015
-0.0015513096 -0.04170136 -0.050367907 -0.108976364 -0.06212911 -0.013671411 0.031262856 -0.06300558
00000000: 3ec6 7d3d e8a3 b03c c895 183d 5040 f33d
00000010: 4cc3 4b3d ff14 023e c8f5 743d caeb 063e
00000020: 82d8 2b3b c044 a9bd 66f7 3dbd 790c ccbd
00000030: ef47 553d b84f 5f3c 2527 f3bc e46a 813d
00000040: 8560 d8bd bc72 b6bd d23a 4dbc 4097 d5bb
00000050: f3db bcbb b149 e93c 278d 703d 739c 043d
00000060: 7630 9d3d c226 b43d 3f0e 633d 6a70 f23d
00000070: 1fae aa3d 3d19 103c 40f4 2b3c f8ef 103e
00000080: b92b e23c 332d 0f3e 8061 b03b 5e59 3d3d
00000090: 4d4e f1bc 26e4 983d 74fd e43c bad3 95bd
000000a0: fe2c a23d c818 12bd 714f 8bbd 6a45 8d3d
000000b0: 3b1d 863d bfc0 b8bd 8083 623d 3d6d 963c
000000c0: 191f 49bd 463d 863d 38b4 843d 2730 81bc
000000d0: 6a93 283d 0adf 2dbd 8514 193c 19e8 163d
000000e0: 322c e63d 98de 333d 72fb dbbb 392d aa3d
000000f0: 3e65 13bd 1b8f fc3c 8452 e93d 230b c2ba
00000100: 3243 9dbd 8cfb aa3d fbcf 153d 420c d73c
00000110: be44 1abd 262a 91bb d078 d43b 5bdb b9bc
00000120: 0713 b63c 44cc 823c 5ce5 b7bd 7aad a6bd
00000130: 2f47 27bd eaba 45bc 292b eb3c 347c 5ebd
00000140: 6648 adbd 5713 69bd 5caf 1a3b b594 5cbd
00000150: ec9e bc3d a357 a8bb b9a6 9bbd 8019 9b3c
00000160: 4623 9dbc 4c2b 1e3d b458 353c 455a 443d
00000170: ff8b 9f3d 6997 dabc 87cd f43c 873d 703c
00000180: 50a0 56bd 2b8b 7cbb ffa5 53bd 1109 8c3d
00000190: 9e90 93bd 6c4c 5c3b 09e9 abba 7714 b5bd
000001a0: 459e de3b b229 083d eaa7 09bd e1cc 48bd
000001b0: 41cb 30be a800 8bbd 1cbe d8bd 09c1 11be
000001c0: ef3e 21be 0693 15bd 8cdf 06be 0dd0 cfbd
000001d0: 2d91 0e3c a06e f1bb 0ba6 a5bd de52 afbd
000001e0: 6b43 07bd ba26 853b 197a debc f865 9ebd
000001f0: 054f 52bd aaa6 90bd d8a3 c33b fba0 30ba
00000200: 1cfb ab3d f97a 86bc 84cc e73d b507 273d
00000210: bfa1 bd3d 5f31 e5bc ac1f 993d c464 b9bd
00000220: a13b c03c 87aa 18bd afea 03be e443 d2bd
00000230: e321 41bc 4e42 0bbd da01 3abd 307f c7bd
00000240: 2e28 883a 3ec2 c1bc 2b61 a23c 78b9 633d
00000250: ae88 10bc 0b27 583d 061a ff3c 8e1a 74bc
00000260: 837a 0a3d 143e 1f3d 39d7 7bbc ab9e 3dbd
00000270: 27a6 61bc 61cb ca3c 2f18 3dbc b244 2dbd
00000280: 50a5 70bd 67fb 873d feec 4d3d 33a8 ac3d
00000290: 75d4 ab3d 2e9e ebbc 71ff 39bc 4ad6 403d
000002a0: b5bf e33c b31a 69bb 24c7 253b a207 eabb
000002b0: 67c2 c3bb 96e9 e83d 9b01 893c 2c31 e63d
000002c0: feb9 b43d f3a1 d33d dbd4 033c eb2a 42bc
000002d0: 7aa2 72bc 3019 d1bd 1f7e acbd b0bd 213c
000002e0: b3a5 9fbd 40fd 5bbd d113 1f3c 2423 ed3c
000002f0: cb19 b7bd 9278 f2bd 8c9a 52be d3af 1cbe
00000300: a7a8 33be d2d7 57be 21dc 0ebe 48e2 67be
00000310: de46 37be b6cf 30be e1b5 2b3d d148 bbbc
00000320: 8403 b4bc 63d2 cabb b0ec b53d 6605 283b
00000330: 92e1 dc36 7015 b2bc aa9b 1f3d ce4c 553d
00000340: 82bd 92bd 924e b238 3a9a 9cbd 3f62 9abd
00000350: 0362 5d3c cfdc c1bd 48f3 9abc 1f92 61bd
00000360: 97e7 b1bc add3 0fbd 2349 0f3d 36fa e73d
00000370: 2ab2 493d 6ddd ca3d 488b fb3d c4a1 c53c
00000380: 246e b4bc 0eb1 eebc f4c0 bebd 717d 1b3d
00000390: 3011 513d fe2e 27bd baf2 c53c 0001 0dbd
000003a0: 3196 a1bd 62ee 25bc 45d9 993d f64e 003d
000003b0: df7a 7c3d 33e8 91bd 5173 893d fe0c 94bd
000003c0: cf4c 0b3d 6510 94bd bd8c 3bbc b9ab ec3c
000003d0: 80f3 353c 17c3 e8bd e195 e5bc 0e45 debd
000003e0: 5055 cbba 0ccf 2abd 944e 4ebd 002f dfbd
000003f0: 187b 7ebd 0efe 5fbc 7b0d 003d 1209 81bd

radarnet.encoder.Who.bias f4 [16]
0.009577076 -0.04493038 -0.019572519 -0.10000347 0.084072895 -0.014911019 -0.07791406 0.033961806
0.1684075 0.07498442 -0.06102804 -0.06392696 0.03959491 -0.017676359 -0.006601904 -0.064614944
00000000: 2be9 1c3c eb08 38bd 8c56 a0bc 9fce ccbd
00000010: 692e ac3d 594d 74bc 6891 9fbd 891b 0b3d
00000020: 0473 2c3e 6e91 993d 8af8 79bd 23ec 82bd
00000030: 462e 223d 03ce 90bc c954 d8bb d754 84bd

radarnet.predictor.Wxi.weight f4 [16, 1, 3, 3]
-0.25907874 0.1076152 -0.28182465 -0.11092405 -0.16310167 -0.21080363 -0.10791044 -0.049990922
-0.12426147 0.2252427 -0.10358593 -0.29447114 -0.3098589 -0.13653414 0.3200474 -0.29188725
0.05680886 -0.17338607 -0.020128995 0.034454137 0.13656497 -0.19832325 0.20362404 0.19114724
0.15468368 -0.10072486 -0.18563867 -0.30236337 -0.26916736 -0.008284658 -0.27406132 0.01330778
0.028112799 -0.25229225 -0.06898141 0.3203027 -0.041327268 -0.12520039 0.2959706 0.1931279
-0.004477352 0.07062593 0.018196583 0.27716848 -0.15194675 -0.13627808 -0.1663563 0.046219468
-0.30444586 -0.019628644 2.014637e-05 0.16627857 -0.3222334 -0.011521786 0.15048 -0.2965045
0.15706372 0.2851502 0.30501655 -0.16293311 -0.24888015 0.29586187 -0.20903513 -0.05948022
0.0021779835 0.2637019 0.11296713 -0.06958485 -0.31044918 0.25746325 0.111770004 0.24279544
-0.31913206 0.23738971 0.29917112 0.11732891 -0.13150696 -0.06530383 -0.15622179 0.27618232
-0.03274861 0.13994 -0.14139566 -0.048897743 -0.045381278 -0.27092367 -0.19816649 -0.25390598
-0.016384602 -0.24561565 -0.26084882 -0.12793498 -0.19517243 -0.14771652 0.19936016 -0.2208951
-0.04632613 0.24544361 0.23187998 0.084566236 -0.005464822 -0.295249 0.2861674 -0.19493017
0.019591928 0.10828814 0.024866253 0.31652024 0.2777802 -0.14184853 0.017865151 -0.29627737
0.3288205 -0.2404484 -0.15719247 0.0269849 0.10242525 0.093927056 -0.20358865 -0.0765588
-0.116155714 0.07005426 0.051876694 0.26979372 0.32384995 0.034512967 0.17689338 0.027483106
-0.19022343 0.12846377 -0.23754776 -0.22851276 -0.19898316 0.19808665 -0.27238083 0.31554303
0.24380496 0.07139245 -0.32536763 -0.097537875 0.06432375 0.09139767 0.1859034 -0.12414563
00000000: f8a5 84be 5c65 dc3d 524b 90be 262c e3bd
00000010: 2004 27be e8dc 57be 2600 ddbd 48c3 4cbd
00000020: cc7c febd 06a6 663e dc24 d4bd ecc4 96be
00000030: d3a5 9ebe 9bcf 0bbe 41dd a33e 3f72 95be
00000040: 68b0 683d 1e8c 31be 90e5 a4bc c81f 0d3d
00000050: b0d7 0b3e 4015 4bbe d282 503e 1abc 433e
00000060: 6665 1e3e d648 cebd 1018 3ebe 5fcf 9abe
00000070: 4ed0 89be 60bc 07bc c451 8cbe e008 5a3c
00000080: d04c e63c 732c 81be 2046 8dbd b7fe a33e
00000090: c846 29bd 8834 00be 7589 973e 52c3 453e
000000a0: c0b6 92bb 54a4 903d 0011 953c 07e9 8d3e
000000b0: ee97 1bbe 7b8c 0bbe 4e59 2abe a050 3d3d
000000c0: 54e0 9bbe 40cc a0bc 0000 a937 ee44 2a3e
000000d0: c7fb a4be e0c5 3cbc 6e17 1a3e 70cf 97be
000000e0: 50d5 203e 35ff 913e 212b 9c3e f0d7 26be
000000f0: 70da 7ebe 357b 973e 4e0d 56be 88a1 73bd
00000100: 80bc 0e3b ef03 873e 505b e73d 8082 8ebd
00000110: 32f3 9ebe 39d2 833e ace7 e43d 5e9f 783e
00000120: 4765 a3be 4a16 733e f52c 993e 244a f03d
00000130: c3a9 06be 04be 85bd 9bf8 1fbe c567 8d3e
00000140: 6823 06bd 6e4c 0f3e 06ca 10be 0049 48bd
00000150: b8e1 39bd 82b6 8abe 28ec 4abe f7ff 81be
00000160: 0039 86bc ab82 7bbe fa8d 85be 6301 03be
00000170: 48db 47be 0043 17be 1225 4c3e 5332 62be
00000180: 78c0 3dbd 9255 7b3e f271 6d3e 1031 ad3d
00000190: 4012 b3bb e02a 97be 8984 923e c69b 47be
000001a0: 407f a03c 2cc6 dd3d 50b4 cb3c f10e a23e
000001b0: 3539 8e3e be40 11be f059 923c abb1 97be
000001c0: 295b a83e 1b38 76be 10f7 20be 700f dd3c
000001d0: 54c4 d13d d45c c03d 8b79 50be dcca 9cbd
000001e0: 0ce3 edbd 9c78 8f3d a87c 543d 6722 8a3e
000001f0: a9cf a53e 785d 0d3d 8a23 353e 4024 e13c
00000200: eec9 42be 028c 033e b83f 73be 40ff 69be
00000210: 3ec2 4bbe 3ad7 4a3e 8075 8bbe db8e a13e
00000220: 02a8 793e 3436 923d 9696 a6be f0c1 c7bd
00000230: 2cbc 833d b42e bb3d 765d 3e3e 1040 febd

radarnet.predictor.Wxi.bias f4 [16]
0.21714757 0.25480905 -0.2230109 -0.1265967 -0.3036017 0.02866095 -0.11768694 0.0819276
0.18268636 -0.08735788 0.3811188 -0.22412063 -0.2241518 -0.096951425 -0.18564977 0.16486908
00000000: ef5b 5e3e 5576 823e f85c 64be 91a2 01be
00000010: af71 9bbe 5eca ea3c da05 f1bd a8c9 a73d
00000020: 2212 3b3e b0e8 b2bd 0122 c33e e17f 65be
00000030: 0d88 65be 788e c6bd f91a 3ebe 71d3 283e
