logging/net_epoch1.pth (torch_old, 92173 bytes, 66 tensors)

radarnet.encoder.Wxi.weight f4 [16, 1, 3, 3]
000000 e3 15 99 be 16 00 40 3e 80 b0 69 bd 2a 9d 4a 3e
       -0.2989951 0.18750033 -0.05705309 0.19786516
000010 36 3f 5c be ca e8 4d 3e 00 87 7c bc 53 ec 64 be
       -0.21508488 0.20108333 -0.015413046 -0.22355776
000020 99 df 9e 3e 8c 24 d6 3d 8e 9c 05 3e b8 6a 66 be
       0.31029966 0.104561895 0.13048002 -0.22501647
000030 4e 06 57 be 26 42 da bd f8 70 13 3d 70 ee 56 be
       -0.20998499 -0.10657148 0.035996407 -0.20989394
000040 de 4b 6c be 34 6c 94 3d f3 12 77 be 80 c2 fb bc
       -0.23075816 0.072472006 -0.24128322 -0.030732393
000050 48 e3 11 3d 75 f2 a3 3e 5b df 6a be 0e d1 5c be
       0.035617143 0.32020918 -0.22936766 -0.21564123
000060 5f c0 9c 3e c3 d1 6d be 63 7e 54 be 06 9d 76 be
       0.30615517 -0.23224549 -0.20751338 -0.24083337
000070 80 fe 47 bd 3e 0d 55 3e 14 14 b8 3d c0 29 6c be
       -0.048826694 0.20805833 0.089882046 -0.23062801
000080 80 43 3d 3b 6d a1 a7 3e e8 42 7a 3d 00 fd 84 3d
       0.0028879344 0.32740346 0.061098963 0.064935684
000090 23 23 1c be 7a 53 62 3e c0 66 73 be e0 26 67 bd
       -0.15247779 0.22102156 -0.23769665 -0.05643356
0000a0 5a 00 91 be cc 92 95 3d 80 d7 b1 3d 0b 3d 68 be
       -0.2832058 0.0730339 0.086836815 -0.22679536
0000b0 36 fd cd bd bf 9e 8e be f8 10 99 be 76 70 98 be
       -0.10058062 -0.2785549 -0.2989576 -0.297733
0000c0 dc 60 8d be fc 87 c1 3d c7 f4 93 3e b6 c2 44 be
       -0.2761296 0.09449765 0.28897688 -0.19214901
0000d0 08 1b 1d be 43 60 11 be 28 a1 4c bd 4e 0c 33 be
       -0.15342343 -0.14196877 -0.049958378 -0.17485163
0000e0 87 9b 85 3e 90 80 ce bc ca 42 a0 be 1b 04 91 be
       0.2609522 -0.025207788 -0.31300956 -0.28323445
0000f0 a8 b2 65 be 42 85 55 3e 5f d6 8c 3e a0 b3 8c be
       -0.22431433 0.20851615 0.27507302 -0.27480793
000100 0a 8d 34 3e 60 e5 f7 3d a5 a5 90 3e 40 5b 8d 3b
       0.17631927 0.12104297 0.28251377 0.0043138564
000110 d8 00 12 3d 5e 0d 1d 3e 40 50 cc 3c 06 03 02 3e
       0.035645336 0.1533713 0.02494061 0.12696466
000120 2a 93 37 3e df 4b aa 3e 7c 96 f9 3d cc f6 9d be
       0.17927232 0.3326101 0.12186906 -0.30852354
000130 40 7c 7a 3d 50 99 ff bd 80 a4 d8 3d 2b 13 86 3e
       0.06115365 -0.12480414 0.10578251 0.261865
000140 de bc 42 be 7c c6 f1 3d ba b5 9b be 66 3f ff bd
       -0.1901736 0.11805436 -0.30412084 -0.12463264
000150 46 01 b2 bd 7b 0a 58 be c8 34 23 3e ff 99 a7 3e
       -0.08691649 -0.21097748 0.15938103 0.32734677
000160 82 80 4c 3e ea 8e 63 3e c0 b8 b7 3c 2b 1a 3f be
       0.19970897 0.22222486 0.022426963 -0.18662326
000170 e2 4b 38 3e 0a 63 59 3e e0 c9 53 be 40 a9 ea 3d
       0.17997697 0.21229187 -0.20682478 0.11458063
000180 7c bc e1 3d c8 8c 1f 3e 2c 44 b9 bd 32 1b 64 3e
       0.11022279 0.15581048 -0.09046206 0.22275999
000190 28 47 11 3d 00 83 9c 3b 80 d8 8b bd 28 bd 07 bd
       0.03546825 0.0047763586 -0.068284035 -0.033139378
0001a0 2c 56 f9 3d 9e c4 19 be 34 ef 9a bd b4 e0 bc 3d
       0.12174639 -0.1501641 -0.075651556 0.09222546
0001b0 e3 61 7f be 00 66 c1 3c 73 e1 a3 be c4 4b 8d be
       -0.24939685 0.023608208 -0.32007942 -0.27596867
0001c0 9c fa aa 3d e3 b3 35 be 80 8a c8 3d 7c 89 e6 3d
       0.08348581 -0.17744403 0.09792042 0.11256692
0001d0 70 09 bd bc 00 13 53 3c 18 b4 16 bd a0 c3 30 3d
       -0.02307579 0.012882948 -0.036792845 0.043155313
0001e0 75 29 90 3e fb 07 08 be 41 ee 94 3e 58 90 12 3e
       0.2815663 -0.13284294 0.29088023 0.14312875
0001f0 80 21 b5 bd 38 b1 1c 3e 70 0c b4 3c 78 bf 10 bd
       -0.0884428 0.15301979 0.021978587 -0.03533885
000200 93 5f 03 be 58 52 50 3d d0 34 fe bc fc 2a f7 bd
       -0.12829427 0.05085978 -0.031031042 -0.120687455
000210 f4 e1 81 be f6 7e 92 be e8 86 3d be aa 83 5a 3e
       -0.253677 -0.28612489 -0.18508494 0.21339288
000220 4e b2 5a be 2a 7c 9d be 90 d9 57 be 0a 1d 64 3e
       -0.2135708 -0.30758792 -0.21079087 0.22276703
000230 00 11 83 bd 30 ab 10 be 80 79 d8 bc b8 de 26 3e
       -0.06399727 -0.14127803 -0.026425123 0.16295898

radarnet.encoder.Wxi.bias f4 [16]
000000 18 03 6c be e1 84 9a 3e 00 e3 bc 3a 52 af 86 be
       -0.23048055 0.30179504 0.0014410913 -0.26305634
000010 b0 77 45 be 6b 09 3f be 2a 98 50 3e 66 bb 7f be
       -0.19283938 -0.18655936 0.20370546 -0.2497383
000020 5a 8c 87 be 62 78 60 3e ed 00 a3 3e d3 e6 63 be
       -0.26474267 0.21920922 0.31836644 -0.22256021
000030 c6 3b f9 bd 72 ca 7a 3e a0 11 43 3d a0 58 0e bc
       -0.12169604 0.2449129 0.04762423 -0.008688122

radarnet.encoder.Whi.weight f4 [16, 16, 3, 3]
000000 96 1f 8c bd 40 33 8d 3b 6c c3 a0 3c a0 87 4d bb
       -0.06841962 0.004309088 0.019624434 -0.0031361356
000010 8e e0 7f 3d db d7 3a bd f5 22 a3 3d 8e 8d 7e 3d
       0.06247001 -0.045616012 0.07965652 0.062146716
000020 26 30 32 3d 86 74 60 3d 20 81 1c 3c f2 d0 46 3d
       0.04350295 0.054798625 0.00955227 0.04853911
000030 f7 67 a8 3d 6a 67 0e 3d eb 90 aa bd c6 4a 7b 3d
       0.08222955 0.034766592 -0.08328422 0.061350606
000040 54 04 d3 3c 40 ee e8 bc 8b 00 69 bd e0 e9 79 bb
       0.0257589 -0.028433919 -0.056885283 -0.0038133785
000050 8c ae dc bc c0 60 0f 3d 0e a1 1e 3d 18 b2 67 bc
       -0.0269387 0.035004377 0.038727812 -0.014141582
000060 68 9f 97 bd 00 a0 71 ba 23 4e 7a bd 34 4c 82 bd
       -0.07403451 -0.0009217262 -0.061109673 -0.06362191
000070 40 49 08 bd cc fb 85 3c 18 bd 38 bc bb 42 7c bd
       -0.03327298 0.016355418 -0.011275552 -0.061587077
000080 05 81 a6 3d 33 84 46 bd 44 a2 9e 3c 50 d4 a1 bc
       0.08130077 -0.04846592 0.019364484 -0.019754559
000090 ab 2c 99 3d aa 25 5c 3d c0 90 ee bc d0 c3 df bb
       0.07479223 0.053746857 -0.029121757 -0.0068287626
0000a0 60 18 21 bc 3a 55 3b 3d 60 71 18 3c 8f 20 92 bd
       -0.009832472 0.045735575 0.009304374 -0.07135116
0000b0 cd 9c 92 3d 44 ce ee 3c ef 5d aa 3d 70 0d ed 3c
       0.071588136 0.02915109 0.08318698 0.028937072
0000c0 40 3e de bb 86 15 c2 bc d3 a8 27 bd 54 07 f6 3c
       -0.006782323 -0.023691904 -0.040932488 0.030032791
0000d0 eb 20 4d bd 08 53 3b 3c 9d 61 82 3d 7b 1f 84 3d
       -0.05008022 0.01143337 0.063662745 0.06451317
0000e0 58 0a 37 bd 90 2a 94 bc 43 66 04 bd a0 68 58 bb
       -0.0446876 -0.018086702 -0.032324087 -0.0033021346
0000f0 9a 6d 54 3d 10 62 62 bd 4b 01 2a bd de a0 10 bd
       0.051862337 -0.0552693 -0.04150514 -0.035309665
000100 9a 70 73 3d d8 74 13 bd 1c 71 e4 3c 1c 6a f3 3c
       0.059433557 -0.036000103 0.027885966 0.029713683
000110 98 9e 0a bd 02 32 57 3d 9c e0 89 3c 8e 0e 56 3d
       -0.033842653 0.052537926 0.016830735 0.052259974
000120 9f e0 8e 3d 40 bd f6 ba ab 9d a2 bd 96 f2 16 bd
       0.06976437 -0.0018824711 -0.07940229 -0.03685244
000130 0c 9b 90 bd 8b 6f 60 bd 03 65 3d bd a8 53 2a bc
       -0.07060823 -0.054793876 -0.04623891 -0.010395922
000140 1d f0 8d 3d 84 3d 8e bc b2 da 74 3d 98 3d 3c bc
       0.069305636 -0.017363317 0.059778877 -0.0114892945
000150 5d 5e 81 3d b0 12 d2 bc 36 f9 7f bd 91 fe a9 3d
       0.063168265 -0.025643677 -0.062493525 0.08300508
000160 26 93 1e bd 80 9a 48 3a 14 b0 fa 3c 3a c8 70 3d
       -0.03871455 0.0007652417 0.030601539 0.0587847
000170 cd 41 8b 3d c5 e4 8b 3d f0 23 87 bb 17 59 97 bd
       0.0679966 0.06830744 -0.004124157 -0.073900394
000180 6d a9 99 3d 2a 6d a2 bd f8 16 0b bd 87 45 89 3d
       0.075030185 -0.07930978 -0.03395745 0.067027144
000190 d9 9e 91 3d 2e 7f 5b 3d c0 16 d7 bc f6 16 75 bd
       0.07110376 0.053588085 -0.026255965 -0.05983635
0001a0 90 bc aa 3c 20 ae 16 bd 48 12 3e bd 52 57 51 3d
       0.020841867 -0.036787152 -0.046404153 0.051108666
0001b0 3e c5 38 3d 3e 6f 06 3d 30 35 d1 3c 8b 85 1c bd
       0.04510998 0.032820933 0.025538057 -0.038213294
0001c0 00 fd 16 bd 60 90 0d bb d6 54 13 bd 51 17 8c 3d
       -0.036862373 -0.0021600947 -0.035969578 0.06840385
0001d0 07 8e a7 3d 4a 4d 5a 3d e8 7d 2b 3c cc d7 af bc
       0.081813864 0.053296365 0.01046703 -0.021465205
0001e0 36 10 01 3d c3 ce 81 3d ca d3 81 bd c0 b9 25 bd
       0.0315096 0.06338265 -0.06339224 -0.040460348
0001f0 64 38 8e bc 54 f2 98 bc 36 07 bb bc ac ce f8 bc
       -0.017360874 -0.018670239 -0.022830587 -0.030371986
000200 36 7d 3c 3d a6 1b 8e bd 10 17 f5 bb 7a 22 61 3d
       0.046017848 -0.06938867 -0.007479556 0.05496452
000210 40 6e a1 3b b8 b1 3f bd 0e 48 09 3d d0 a2 e0 3b
       0.004926473 -0.046800345 0.033515982 0.0068553463
000220 96 5b b1 bc 80 07 63 3a 33 a2 13 bd d3 15 77 bd
       -0.021650117 0.00086604804 -0.036043357 -0.060323548
000230 b6 8f 63 3d f8 69 a3 bd 68 c6 18 bd ba 35 46 3d
       0.055556975 -0.07979196 -0.03729859 0.04839108
000240 60 76 20 3d 68 b0 94 bd 50 eb d0 3b 3c a1 c4 3c
       0.03917539 -0.07260209 0.0063757077 0.024002664
000250 24 d5 b5 3c e8 23 25 bd b0 f0 18 bd e0 d7 d8 bc
       0.02219636 -0.040317446 -0.037338912 -0.026470125
000260 17 71 80 3d 28 c2 35 3c 94 f1 a8 3c 10 a6 8f bb
       0.0627157 0.011093654 0.020623006 -0.00438381
000270 fb 29 37 bd 7a af 00 3d 40 f8 9a bc af 55 9f 3d
       -0.04471777 0.031417347 -0.018917203 0.07780015
000280 c0 7f e3 bc 6d 92 83 3d 60 46 15 bd 1e 97 1b bd
       -0.027770877 0.06424413 -0.036444068 -0.037985913
000290 8a 19 78 3d 80 78 a7 bd c9 25 9c 3d d6 34 0a bd
       0.06057123 -0.081772804 0.076243944 -0.033741795
0002a0 cf 1c 8a bd 6e f3 51 bd 80 cb f7 3c 68 48 3d 3c
       -0.06743776 -0.051257543 0.030248404 0.0115529075
0002b0 90 fc ab bc 80 c3 0e bc a0 82 f5 3c b6 ff b7 bc
       -0.020994455 -0.008713603 0.029969513 -0.0224608
0002c0 28 2c 23 3c 3c 72 e5 bc 0b 37 65 bd c0 ae a8 bc
       0.009959258 -0.028008573 -0.055960696 -0.02059114
0002d0 6c 70 f3 bc 80 bc 9d bd 7e f0 6a 3d 4b 94 21 bd
       -0.029716693 -0.07701969 0.057358257 -0.039448064
0002e0 2a 72 63 3d c6 fb 77 3d 90 01 c7 bc 23 cc 7b bd
       0.055528797 0.060542844 -0.024292737 -0.061473977
0002f0 10 d1 0b 3d 8b 95 1c bd c0 e2 07 bd 60 df 97 3c
       0.034134924 -0.038228553 -0.03317523 0.01853913
000300 40 71 16 3d d6 41 cf bc 40 f4 5c bd d5 21 9e 3d
       0.036729097 -0.025299948 -0.053943872 0.07721297
000310 c3 cb 4d bd f6 52 44 3d 72 17 67 3d 98 03 1d bc
       -0.05024315 0.04793068 0.056418844 -0.009583376
000320 34 31 d2 3c e8 4f 68 bd dd 84 8d 3d 4e 1e 7a bd
       0.025658228 -0.05671683 0.06910107 -0.061064057
000330 68 68 02 3d 23 e5 a5 3d 18 c0 32 3c 1a bf 56 3d
       0.03183785 0.08100345 0.0109100565 0.052428342
000340 40 a2 83 ba b8 e2 20 3d d6 9f 1e 3d 90 cb bb 3c
       -0.0010042861 0.039278716 0.03872665 0.022924215
000350 52 09 08 3d a8 43 53 3c e3 01 80 3d 79 82 81 3d
       0.033212014 0.0128945485 0.0625036 0.06323714
000360 30 dd 27 bd 10 9f a2 bd 80 03 24 3c 00 5a 76 39
       -0.040982425 -0.07940495 0.0100106 0.00023493916
000370 43 47 a4 bd 62 b0 33 3d ec e3 d9 3c 5a 23 50 3d
       -0.080214046 0.043869384 0.02659794 0.050814964
000380 66 9a 00 3d 56 34 67 3d e6 52 4b 3d 25 d0 9e 3d
       0.031397246 0.056446396 0.049639605 0.07754544
000390 6c 7a d3 3c 9a 19 08 3d 20 c5 2d bc e6 1c 42 3d
       0.025815211 0.03322754 -0.01060608 0.04739084
0003a0 b6 50 14 bd f0 34 12 3d a2 2a 14 3d a8 c3 4d bd
       -0.036209784 0.035695016 0.03617347 -0.05023542
0003b0 c0 1f 6f bc c0 a3 d2 ba e6 f1 59 3d 42 9e 8f bd
       -0.014594972 -0.001607053 0.053209208 -0.07012607
0003c0 d7 36 87 3d a8 08 08 bc 20 97 a8 3c 5d 52 9d 3d
       0.06602257 -0.008302845 0.020579875 0.07681725
0003d0 c0 35 03 3c 6b 92 63 bd 3b 2e 6c bd 70 20 51 bd
       0.0080084205 -0.055559557 -0.057661276 -0.051056325
0003e0 ee 8d 41 bd 13 64 86 bd b6 03 76 3d b2 ba 56 3d
       -0.047254495 -0.065620564 0.060062133 0.05242414
0003f0 00 a1 01 bb 12 38 46 3d de 4f 5c 3d 6e c0 a8 bd
       -0.0019779801 0.048393317 0.053787105 -0.08239828

radarnet.encoder.Whi.bias f4 [16]
000000 de c3 55 3d ea bb 1d 3d 33 59 82 bd ba 26 9c bd
       0.052188747 0.038509287 -0.0636467 -0.07624574
000010 62 0a 51 3d 40 ca 1d 3c e0 b8 5e 3b a8 6a 60 bd
       0.051035292 0.00963074 0.0033984706 -0.054789215
000020 cc 31 85 bd 40 03 45 bc 18 67 11 bc 78 e9 13 bc
       -0.065036386 -0.012024701 -0.008874677 -0.009027831
000030 b1 37 8c 3d 1b 7e 7e bd 28 41 11 bc a0 91 1a bc
       0.0684656 -0.062131982 -0.008865632 -0.009434134

radarnet.encoder.Wxf.weight f4 [16, 1, 3, 3]
000000 a0 80 89 3d 7e 15 19 be cb 8d 53 be 00 c0 54 bd
       0.067139864 -0.14949605 -0.20659558 -0.051940918
000010 7d 64 a0 3e 66 e6 4b be d0 71 e4 3c a0 d1 92 3d
       0.31326666 -0.19912109 0.027886301 0.07168889
000020 f2 fe 15 3e 98 9f 99 be 04 f0 95 be 26 83 c6 bd
       0.14648035 -0.30004573 -0.2928468 -0.09692983
000030 fe aa 3c be 1e 9f 3c 3e 32 f6 40 3e 40 38 94 bc
       -0.18424603 0.18420073 0.18843916 -0.018093228
000040 ee f8 6d 3e 00 37 79 3d fa 5c 8d be 30 6b c5 3d
       0.2323949 0.060843468 -0.27609998 0.09639585
000050 5b 93 39 be 9e 98 79 3e 6d 91 93 3e 6d 5e 91 3e
       -0.18122618 0.24374625 0.2882189 0.28392354
000060 a0 b1 28 3e 30 20 f8 bc b9 3e 80 3e 1c 46 e5 3d
       0.16474009 -0.030288786 0.25047854 0.11195013
000070 70 0b c2 bc de 09 31 be ac b9 ed bd b2 e9 4f 3e
       -0.023687094 -0.1728892 -0.1160768 0.20303991
000080 c7 61 a3 be 12 ae 5d 3e fe 78 67 be a0 97 9a be
       -0.31910536 0.21648434 -0.22604749 -0.30193806
000090 d0 3c f7 3c 7c 64 8c bd 47 22 96 3e 40 ab 52 be
       0.030180365 -0.068551034 0.29323027 -0.20573139
0000a0 26 b9 66 be f0 c5 82 bd 0b 5d 69 be e6 51 4a 3e
       -0.22531566 -0.0638541 -0.227894 0.19757804
0000b0 ba e7 8b be 94 c2 d1 3d 48 aa 1a 3e e4 c0 80 bd
       -0.2732523 0.10242191 0.1510402 -0.06286791
0000c0 26 c0 62 3e 28 82 7d 3d 76 46 62 3e 08 c8 33 be
       0.22143611 0.061891705 0.22097191 -0.17556775
0000d0 50 db b2 bc 06 cf 41 be b0 96 b7 3c 57 dc 9a be
       -0.021833092 -0.1892663 0.02241072 -0.3024623
0000e0 17 71 a7 3e 39 a0 a7 3e 60 fd 94 be aa 65 5a 3e
       0.32703468 0.32739428 -0.2909956 0.21327844
0000f0 3b 0b 2c be 92 91 3d 3e e2 2a 73 3e 58 11 77 bd
       -0.16801159 0.18512562 0.23746827 -0.060319275
000100 e8 05 2f bd 0a 49 01 3e 75 9c a3 3e 5c a2 da bd
       -0.042730242 0.12625518 0.31955305 -0.10675499
000110 be 7a 41 3e 00 00 82 37 36 cb 30 3e 43 b5 69 be
       0.18894479 1.5497208e-05 0.17265019 -0.22823052
000120 58 82 2c be ec cc ee bd 88 2f 7b be a8 5d 6d bd
       -0.16846597 -0.116601795 -0.2452985 -0.057950646
000130 f2 30 1b 3e de b4 30 be c0 57 a5 3b 56 b7 7c 3e
       0.1515539 -0.17256495 0.005045861 0.24679312
000140 18 9f 7e be 20 5f 26 3e 96 68 05 3e 54 2f 80 bd
       -0.24865377 0.16247225 0.13028178 -0.06259027
000150 b6 9e aa be 58 30 1b bd 40 b7 be bd 12 8f 37 3e
       -0.33324212 -0.0378879 -0.09312296 0.1792567
000160 2a fa 77 3e f1 0a 8e 3e e5 fd a7 3e a0 b9 2c 3c
       0.24216524 0.27742723 0.32810894 0.010542303
000170 c8 9c 19 3d 38 f4 94 be d6 fd 8a be f2 5f 4a 3e
       0.037503034 -0.29092574 -0.27146786 0.19763163
000180 23 17 55 be 02 9b 2b 3e c0 11 54 bd 62 18 1e 3e
       -0.20809607 0.1675835 -0.05177474 0.15438989
000190 20 82 1b 3d 16 e5 26 3e 31 7d a3 3e 48 4e 4c bd
       0.037965894 0.16298327 0.3193145 -0.049879342
0001a0 c3 cc 78 be 3e 53 84 be f0 e4 07 3e a8 5d 1a 3e
       -0.2429686 -0.2584476 0.13270926 0.1507479
0001b0 46 4e b5 bd 7a 08 7c 3e f2 07 08 3e a4 ae e8 3d
       -0.0885282 0.24612609 0.13284281 0.11361435
0001c0 b4 dc fb 3d 50 f5 e9 3c 6e c2 1d be e8 80 2c 3d
       0.12297955 0.028559357 -0.154062 0.042115122
0001d0 7a 7f 48 3e 48 f6 3b bd 35 aa a7 3e 80 13 77 bb
       0.19579878 -0.04588917 0.32747045 -0.0037700832
0001e0 7c d8 8d bd 49 ba 8c 3e b8 97 5b bd ad ef 80 3e
       -0.06926057 0.27485874 -0.053611487 0.25182858
0001f0 00 47 fc 3b 60 38 e7 3d 9e d4 04 be f8 46 1e bd
       0.0076988935 0.112900496 -0.12971732 -0.0386419
000200 9e c9 67 3e da da 2e 3e 30 a4 9f 3d 40 d9 e9 3d
       0.22635505 0.17075673 0.07794988 0.1141839
000210 2a 88 65 3e a0 a3 01 bd fb cc 1e be e6 2c ab bd
       0.22415224 -0.031650186 -0.15507881 -0.08358173
000220 c3 56 6c be 93 aa 8a 3e 40 57 fd 3c f9 6f 97 3e
       -0.23079972 0.27083263 0.030925393 0.29577616
000230 60 90 11 3e 88 2b 08 bd 78 26 0c be 68 30 00 be
       0.14215231 -0.03324464 -0.1368655 -0.12518466

radarnet.encoder.Wxf.bias f4 [16]
000000 40 9e 93 3d 06 19 72 3e b8 46 1e 3d 4c 91 ee 3d
       0.07207918 0.23642358 0.03864166 0.11648807
000010 e8 74 77 be ad 31 9c 3e f9 eb 84 3e 9f 22 8a be
       -0.2416569 0.3050665 0.25961283 -0.2697954
000020 66 04 7a be 0c 26 e0 bd 90 d4 eb bc 93 0f 9c 3e
       -0.2441574 -0.10944757 -0.028787881 0.30480632
000030 90 db c7 3c 5e 42 0d 3e eb 4f a6 3e 6e 7a 75 3e
       0.024396688 0.13794848 0.32482848 0.23972484

radarnet.encoder.Whf.weight f4 [16, 16, 3, 3]
000000 40 c7 98 ba 08 f8 05 3d a0 1b 41 bd f4 66 9f 3c
       -0.0011656061 0.032707244 -0.047145486 0.019458272
000010 73 4b a4 bd e6 cc 61 bd 13 08 44 bd 9c 6a 86 bc
       -0.08022203 -0.055127047 -0.047859263 -0.016408257
000020 ad 2f 9f 3d 3e 46 6b 3d 3a 84 6c 3d 98 81 11 bc
       0.07772765 0.057440035 0.05774329 -0.008880995
000030 da 52 08 3d c0 dd bc bb ce 88 01 bd de 7a 27 3d
       0.03328214 -0.0057637393 -0.031624608 0.04088866
000040 96 7d 75 bd d0 e0 c6 bc d8 39 36 3c ed dc 82 3d
       -0.05993422 -0.02427712 0.011122189 0.063897945
000050 81 1e 80 3d c0 0b fb 3c b2 5a 51 3d 92 38 a5 bd
       0.06255818 0.030645251 0.051111884 -0.080674306
000060 8c aa e2 3c e8 05 9a bd 28 d4 40 bc 0c c5 9e 3c
       0.027669214 -0.07520658 -0.011769332 0.019381069
000070 c4 60 a5 bc e8 52 3c 3c 56 dc c8 bc 20 ef c7 bc
       -0.020187743 0.011494376 -0.024519127 -0.024406016
000080 39 2a 86 3d ef 4b a9 3d f0 b8 e9 bc 40 5c 66 bd
       0.06551022 0.08266436 -0.028530568 -0.05624032
000090 3d 78 87 3d 79 cf 8f 3d b3 ec 14 bd da 2a 77 3d
       0.066147305 0.07021994 -0.036358546 0.0603436
0000a0 b1 28 90 3d 44 6a 88 bc c4 79 8c bd f8 9c 02 3c
       0.07039011 -0.016652234 -0.068591624 0.007971995
0000b0 e0 ee 93 3c b0 70 bf bb 0c b9 f9 bc 36 7a 54 bd
       0.01805824 -0.005842291 -0.030483745 -0.051874362
0000c0 9e 85 88 bd 22 8d 3f 3d c0 88 ae 3c db e7 9b 3d
       -0.066661105 0.046765454 0.021305442 0.07612582
0000d0 8c 9f a0 bd 5e 3f 3b 3d db e8 90 3d 83 55 28 bd
       -0.07842931 0.04571473 0.07075664 -0.041097175
0000e0 10 0d e4 3b 46 f8 d1 bc 37 73 8f bd a4 6c a2 bd
       0.006959565 -0.025631081 -0.07004397 -0.07930878
0000f0 ea ad 2e 3d 5f d0 98 3d 10 73 a9 bb 7d 94 91 3d
       0.042646326 0.07461619 -0.005171187 0.071084
000100 e3 3b 0e bd b0 a7 56 bd 36 7f eb bc f9 9d 98 3d
       -0.03472508 -0.052406013 -0.028747182 0.07452006
000110 d8 61 35 3c 4b ee a6 bd 78 72 44 3c 40 0a b3 3c
       0.011070691 -0.081509195 0.011990182 0.021855474
000120 33 26 5c bd 7b 21 56 bd 68 25 7b bc 4b 22 4b bd
       -0.053747367 -0.052278023 -0.015328743 -0.04959325
000130 f6 60 1b bd da 17 22 3d 9c 32 d9 3c 70 f1 88 3c
       -0.037934266 0.039573528 0.02651339 0.016716689
000140 d7 91 a3 bd ba a3 1a 3d dc c2 a8 3c 20 0d 69 3b
       -0.07986801 0.037753798 0.020600729 0.0035560802
000150 f3 95 66 bd 40 29 a8 ba 1a 96 40 3d e2 33 85 bd
       -0.056295346 -0.0012829676 0.047018148 -0.065040365
000160 e1 ee 80 3d 12 e8 0d 3d d0 00 20 3d 00 89 99 ba
       0.062955625 0.034645148 0.039063275 -0.0011713803
000170 4d d3 a6 3d c0 eb 0f bd c4 57 bc 3c 6c d6 9d bc
       0.08145771 -0.035136938 0.022991069 -0.019267283
000180 7a 79 18 3d ef fa 8c bd 32 09 58 3d 60 76 53 3b
       0.037225224 -0.06883799 0.052743144 0.0032266602
000190 e6 2f 34 3d f3 66 14 bd 8c 71 82 bc 13 9b 04 bd
       0.043990992 -0.036230993 -0.015923284 -0.032374453
0001a0 78 ae 57 bc b8 a0 6b bd 60 d1 68 3b 0c 9d 98 bc
       -0.013164155 -0.05752632 0.0035525188 -0.018629573
0001b0 2e 9d 58 3d c0 f3 4c 3c 53 f3 14 bd cb a2 09 bd
       0.052884273 0.012509286 -0.036364865 -0.033602517
0001c0 d4 a2 92 3c 96 13 14 3d 7f 3a 8c bd 34 d3 98 3c
       0.017899908 0.03615149 -0.06847095 0.018655397
0001d0 40 6c 57 bc 1e 5c 6d bd a2 49 3a 3d 30 c1 ee bc
       -0.013148367 -0.057949178 0.045480378 -0.029144853
0001e0 80 16 f7 3c 00 e5 77 3c c0 68 a1 bc 62 f8 79 3d
       0.030162096 0.015130281 -0.019703269 0.061027892
0001f0 9e 09 37 3d f0 97 d0 3c 3e fa 1f bd 46 22 22 3d
       0.044686906 0.025463074 -0.03905701 0.039583467
000200 8c 63 ff bc 77 06 87 3d c0 55 b1 bb 5e 0f 0f bd
       -0.031175397 0.0659303 -0.0054118335 -0.034926765
000210 68 0e 39 bd 46 f9 55 bd 30 f2 06 3d 2f c0 83 bd
       -0.045179754 -0.05223968 0.03294581 -0.064331405
000220 c8 d0 27 bc 40 57 93 bb 6c 39 90 3c c6 ad 52 bd
       -0.010242648 -0.004496485 0.017605506 -0.051435255
000230 d0 50 82 bb ce 6a 41 3d 1b d7 16 bd 7c f8 a3 bc
       -0.0039769188 0.047220998 -0.036826234 -0.020015948
000240 76 79 d1 bc ad 36 91 3d 0b e3 8d bd 5c f5 9a 3c
       -0.025570612 0.07090507 -0.06928071 0.018915825
000250 dc 11 98 3c 52 9d 6c 3d 6b 27 98 bd 6c f2 f8 bc
       0.018563204 0.05776722 -0.074293934 -0.030389033
000260 7e d3 31 bd 00 a7 e7 3b 18 95 6c 3c 30 4e 7a bd
       -0.043414585 0.0070694685 0.014439844 -0.06110972
000270 0c 12 fa bc e3 95 a3 bd 52 fd 3d 3d b0 bf 86 3b
       -0.030526184 -0.07987573 0.046384163 0.0041122064
000280 32 97 58 3d 00 48 5f bc c7 e3 9a 3d 66 74 4c 3d
       0.052878566 -0.013628006 0.07562976 0.049915694
000290 0e a1 45 3d c0 18 b1 3b 4e 26 75 bd f9 e6 a4 3d
       0.048249297 0.0054045618 -0.059850983 0.08051867
0002a0 f6 e0 a8 bd 24 12 8f bc 81 fb 88 3d ca 53 20 3d
       -0.08246033 -0.017464705 0.066885956 0.039142407
0002b0 43 4f a4 bd f3 f2 34 bd 0e 2a 15 bd 44 2f aa bd
       -0.080229305 -0.044177007 -0.03641706 -0.083097965
0002c0 ea 7d 40 3d 3c ce c5 3c e5 db 87 3d eb 66 87 3d
       0.04699508 0.024146192 0.066337384 0.06611427
0002d0 ac b6 a5 3c cc f1 d9 bc be 38 17 bd 46 24 3a bd
       0.020228706 -0.026604556 -0.036919348 -0.04544475
0002e0 96 22 32 bd 08 08 1a bc f0 a8 a6 bc 3c 3d d4 bc
       -0.043490015 -0.009401329 -0.020344228 -0.025908105
0002f0 80 4d a4 3c a3 92 83 3d 96 5e 07 bd 40 1f 90 3b
       0.020056486 0.06424453 -0.03304919 0.0043982565
000300 c3 2d 82 bd 5c 00 e2 bc a6 4d f7 bc f4 91 f6 3c
       -0.063563846 -0.027588062 -0.030188393 0.030098893
000310 24 36 8d 3c 64 d9 90 bc f8 50 48 3c f0 06 8c 3b
       0.01723773 -0.017681785 0.012226336 0.004273288
000320 6a 43 63 3d 2a 14 a3 bd ab ff 47 bd 30 e6 91 bd
       0.055484213 -0.0796283 -0.04882781 -0.07123983
000330 4c f3 bb 3c 3b b0 90 3d d8 c2 59 bd be 9a 6d 3d
       0.022943161 0.07064863 -0.053164333 0.0580089
000340 9c ab db bc 00 3b e4 3a a8 d7 67 bc 18 61 57 3c
       -0.026815228 0.0017412603 -0.014150538 0.013145708
000350 58 25 20 3c d4 71 a0 bd 3e 45 2b 3d d2 41 44 3d
       0.009774528 -0.07834211 0.04181408 0.047914334
000360 20 a6 52 bb 68 df 17 bd c0 fb 14 bd 34 9d 93 3c
       -0.0032142475 -0.03707829 -0.0363729 0.018019296
000370 17 f9 9b bd 44 11 ba 3c 90 22 83 3b 84 ed 94 bc
       -0.076158695 0.022713311 0.004001923 -0.018179663
000380 96 46 7c bd 88 c4 5a 3c af ba a7 3d 1c 42 d8 3c
       -0.061590753 0.013352521 0.08189904 0.02639871
000390 08 25 0f bd b8 54 0b 3c c4 ed f6 3c 00 de e0 3c
       -0.034947425 0.008504085 0.030142672 0.027449608
0003a0 ee 0d 09 3d a8 7b 26 bd 1b 96 9b 3d 26 ad 67 bd
       0.03346055 -0.04064527 0.0759699 -0.05656161
0003b0 9d 48 82 3d 6f ea a9 bd ae 63 30 3d 31 3f 81 3d
       0.06361506 -0.08296668 0.043063812 0.06310881
0003c0 43 94 4b bd fe c4 2b bd e2 d1 33 3d 00 c5 bc bc
       -0.04970194 -0.041935913 0.04390133 -0.023043156
0003d0 c2 d9 4a 3d 3c b6 a1 bc dc 0f e0 3c 2d fa 9a 3d
       0.049524076 -0.019740216 0.027351312 0.075672485
0003e0 83 0f 90 bd 6b 2d 10 bd fb 6d 0c bd a0 5c 8b bd
       -0.070342086 -0.035199564 -0.034284573 -0.06804776
0003f0 03 d7 59 bd 6a 1c 6b 3d c8 2f 6c bc 69 25 93 3d
       -0.053183567 0.057400145 -0.014415689 0.0718487

radarnet.encoder.Whf.bias f4 [16]
000000 e0 d2 5b 3c 98 47 87 bd b0 82 17 bd e4 ce 81 3c
       0.013416976 -0.06605452 -0.036989868 0.015845723
000010 14 75 f3 3c 10 b2 f0 bc 3b aa a8 3d dc a5 c7 bc
       0.029718913 -0.029381782 0.08235594 -0.02437108
000020 be b1 0c bd a0 be cc bc 7c cf 8e 3c 8e e2 37 bd
       -0.034349196 -0.02499324 0.01743292 -0.044893794
000030 78 87 02 3c 06 f1 c6 bc 30 8e b6 bb 60 88 a2 3c
       0.007966869 -0.02428485 -0.0055711493 0.01984042

radarnet.encoder.Wxc.weight f4 [16, 1, 3, 3]
000000 92 c6 4b 3e b7 34 93 be 4c bf ab bd a0 91 13 bc
       0.19899967 -0.28751156 -0.08386096 -0.009006888
000010 80 1d 8e 3d f6 7a e9 bd b6 90 56 3e 22 6c 7f 3e
       0.069392204 -0.11400406 0.2095364 0.24943593
000020 2a 14 35 3e c0 1f ee 3c 3e 23 36 3e b9 44 8d 3e
       0.17683473 0.029067874 0.17786881 0.27591494
000030 6c a5 fd 3d bb 88 81 3e 5b 3e 10 be d0 67 a7 3c
       0.12385067 0.2529963 -0.14086287 0.020435244
000040 eb 65 9b be e8 87 8c be 9a 1a 57 3e 7b 84 91 3e
       -0.30351195 -0.27447438 0.21006241 0.28421387
000050 33 53 6f be d0 f0 d8 bd b2 6f 3b 3e 80 e6 38 3c
       -0.23371582 -0.10592806 0.18304327 0.011285424
000060 26 6a 75 be e9 4c 98 3e 26 b9 6c 3e e4 ad 87 bd
       -0.23966274 0.29746178 0.23117504 -0.06624964
000070 00 9a fe 3d ae a2 98 be e8 5b 12 3d c0 88 4c 3d
       0.12431717 -0.29811615 0.03573218 0.049935102
000080 48 34 30 be 04 c5 a8 be 53 99 8d 3e 5f 70 8a 3e
       -0.17207444 -0.3296281 0.2765604 0.27038857
000090 18 1f 36 be 40 5b c5 3d 8c 95 f2 3d 70 df df bc
       -0.17785299 0.09636545 0.1184493 -0.027328223
0000a0 ae 6f 75 be a3 7e 37 be cd 22 80 3e 1c 81 87 be
       -0.23968384 -0.17919402 0.2502655 -0.2646569
0000b0 bc 23 a2 be f0 92 78 be b2 e3 19 3e 62 e1 07 3e
       -0.31667888 -0.24274802 0.15028265 0.1326957
0000c0 66 25 2f 3e 6d 11 81 3e 6f 17 8e 3e 7b e1 a5 be
       0.1710411 0.25208607 0.27752253 -0.3239859
0000d0 68 63 9a be c0 d2 a9 be e0 8d e0 bd 4e ad 43 be
       -0.30153966 -0.33168602 -0.109645605 -0.19109079
0000e0 78 7b 13 3e f4 f7 96 3d e3 74 2b be 5e 3f 1b be
       0.14402568 0.07371512 -0.16743807 -0.15160891
0000f0 80 b3 f5 3d 00 b3 64 bc 06 d6 6d 3e 45 77 8e 3e
       0.119971275 -0.013958693 0.23226175 0.2782537
000100 f0 5e 8a 3d 82 3d 78 3e 13 fb 2a be 26 3d 30 3e
       0.06756389 0.24242213 -0.1669734 0.17210826
000110 47 f9 84 be 73 e9 33 be 50 49 81 bc c0 61 c5 bb
       -0.25971434 -0.17569523 -0.015782028 -0.0060236156
000120 70 2b d6 bc 64 c4 84 bd bb 4b 61 be a0 01 38 3d
       -0.02614376 -0.06482771 -0.22001545 0.044923425
000130 3d 7d 9c 3e 18 ee 71 be b0 8b 01 3e 30 be 19 be
       0.305643 -0.23625982 0.12650943 -0.15013957
000140 cc b7 ae bd f2 ca 6a 3e f1 c7 86 3e 30 86 d3 bd
       -0.0853115 0.2292898 0.26324418 -0.103283286
000150 08 26 34 be f0 aa c6 3d ac f1 ef 3d 1c 84 83 bd
       -0.17592633 0.097005725 0.11716017 -0.06421682
000160 e8 7b 16 3e f8 36 59 3d 70 df 9d 3d c6 e5 45 be
       0.14695704 0.053030938 0.07708633 -0.19325933
000170 9e cd 56 3e e4 1a a4 bd 80 49 6f 3b 7b ba 80 3e
       0.20976874 -0.080129415 0.0036512315 0.25142273
000180 da 26 51 3e d0 94 08 3e 2c a3 f4 3d e8 52 4e be
       0.20424977 0.13338017 0.11945185 -0.20148814
000190 83 2e 82 3e c2 72 32 3e 42 6b 46 3e 92 8e 1f 3e
       0.2542611 0.17426589 0.19376853 0.1558173
0001a0 58 3c 5b 3d a0 5f b6 3d d0 ae f2 3d ea 51 05 3e
       0.053524345 0.08904958 0.11849749 0.13019529
0001b0 ec da c3 3d 00 32 81 3d bb a2 84 3e ec a8 8b bd
       0.095632404 0.06308365 0.25905403 -0.06819329
0001c0 fd f0 a0 3e 90 63 05 be ba 63 72 3e d8 3b 71 be
       0.3143386 -0.13026261 0.23670855 -0.23557985
0001d0 d8 6b 45 be cb 57 4f be 13 74 85 be 80 c0 55 bc
       -0.1927942 -0.20248334 -0.2606512 -0.013046384
0001e0 80 3a 78 3c 06 43 71 be 8f 2f 83 3e 15 5a 9a 3e
       0.015150666 -0.23560724 0.25622222 0.30146852
0001f0 65 93 8d 3e 85 dc 95 3e 48 4f 40 3d c5 bb 9d 3e
       0.27651516 0.29269806 0.04695061 0.3080732
000200 bb 73 9f 3e 00 dd e2 bc d0 99 11 3e 16 72 d2 bd
       0.31142983 -0.027693272 0.14218831 -0.102756664
000210 80 62 98 be d0 f3 95 3d de 0d 34 be 62 21 64 3e
       -0.2976265 0.07321894 -0.17583415 0.2227836
000220 00 36 76 3d d0 9a 46 be a0 c1 96 3d 53 51 18 be
       0.060110092 -0.19394994 0.0736115 -0.14874773
000230 62 45 70 3e b0 c2 d5 3c 76 d6 7a 3e 6a 3f 55 3e
       0.23463967 0.02609381 0.24495873 0.20824972

radarnet.encoder.Wxc.bias f4 [16]
000000 de 7b 32 3e d8 7c 69 bd c3 df 50 be 2b 44 a4 be
       0.17430064 -0.057003826 -0.20397858 -0.32083258
000010 f0 60 c8 bd c0 1c 87 bb fc 38 fe bd 8b 0a 79 be
       -0.09784114 -0.0041233003 -0.12413213 -0.24320428
000020 9e 55 2b 3e c6 38 59 3e 12 1d 35 3e 16 8b 9c be
       0.16731879 0.21213064 0.1768687 -0.30574864
000030 d3 ba 8e be 4d 49 8b 3e 0a 98 37 3e f6 89 ee bd
       -0.2787691 0.27204362 0.17929092 -0.11647408

radarnet.encoder.Whc.weight f4 [16, 16, 3, 3]
000000 e1 57 98 3d 60 19 4b bb 80 a0 80 3c dc 7a d1 3c
       0.074386366 -0.0030990466 0.015701532 0.02557128
000010 38 f4 29 bd 98 cb 12 3d 20 86 25 bd 80 a6 3a 3b
       -0.04149267 0.035838693 -0.040411115 0.002848059
000020 c3 02 12 bd 2b 6f 0a bd 38 1c 0d bc 0a e6 41 3d
       -0.035647165 -0.033797424 -0.008612685 0.047338523
000030 34 bb bc 3c 56 71 aa bd dc d2 b3 3c 10 7b 00 3d
       0.023038484 -0.08322398 0.021951132 0.03136736
000040 7e 07 76 bd c2 53 1e 3d 3c 9d 8a bd c5 8e 9d 3d
       -0.06006574 0.038654096 -0.06768271 0.07693247
000050 a0 c7 25 bc 90 17 9b bb d4 86 80 bc 64 fe 94 bd
       -0.010118395 -0.0047330335 -0.015689291 -0.07275084
000060 0c 78 86 3c 76 62 1f 3d 90 2a 1c bd 80 54 f1 bb
       0.016414665 0.03891226 -0.03812653 -0.0073648095
000070 80 7e 7e bd 00 56 d5 bc 9a 2a 7f 3d 3c 30 88 bc
       -0.06213236 -0.026041985 0.062296487 -0.016624562
000080 50 81 dd bb 0c 90 b2 bc 68 62 2c bd a2 06 07 3d
       -0.0067598 -0.021797203 -0.042086035 0.03296531
000090 10 64 22 bd ba 19 64 3d c0 b5 21 bc 2e a8 35 bd
       -0.03964621 0.055688597 -0.009869993 -0.04434984
0000a0 c3 26 a8 3d 7d c0 99 3d 8e 76 5e bd e0 36 ce 3c
       0.08210518 0.07507417 -0.05431228 0.02517265
0000b0 eb 06 4a bd 6a 74 a6 bd 94 ad ee 3c 70 11 f2 3c
       -0.049323004 -0.08127673 0.029135503 0.02954933
0000c0 80 9e 7d ba 8b 97 a9 bd 1c 6d e0 bc 60 82 2f 3b
       -0.00096748024 -0.08280858 -0.027395777 0.002678059
0000d0 94 56 b5 3c fc 00 eb 3c ea f9 30 3d b8 ac 5c bd
       0.02213601 0.028686993 0.043207087 -0.053875655
0000e0 ae cf 1e bd a6 63 77 bd b6 c4 11 3d c3 12 6b bd
       -0.038772278 -0.060397767 0.03558799 -0.05739094
0000f0 1a a0 5b 3d aa 55 a9 bd 88 c4 0c 3c d0 e4 08 bd
       0.05361948 -0.08268292 0.008591779 -0.033421338
000100 a1 2d 80 3d e1 e4 95 3d c8 41 3c bc 80 b5 38 3b
       0.06258703 0.07319046 -0.011490293 0.0028184354
000110 60 a7 8b bc ee c0 49 3d ba 2a 02 3d c0 44 e4 bc
       -0.017047584 0.049256258 0.03177903 -0.027864814
000120 ab da 49 bd 90 74 a7 bb e3 2c 0d bd 13 38 06 bd
       -0.049280804 -0.005110331 -0.034466635 -0.03276832
000130 00 ed e1 b9 60 07 4e 3c 50 ea d9 bc a2 93 54 3d
       -0.00043091923 0.0125750005 -0.026600987 0.051898606
000140 61 3c 9e 3d 74 4b 94 bd 3c f9 cd bc df 87 8b bd
       0.0772636 -0.07240954 -0.025143258 -0.06813025
000150 4a 6d 1a 3d 00 39 d2 3c af b0 91 3d eb 7e 54 bd
       0.037701882 0.025661945 0.07113778 -0.05187885
000160 00 9a d1 3b 7b a6 a0 3d 52 b9 55 3d a4 5d 91 bc
       0.006396532 0.07844254 0.05217869 -0.017744847
000170 35 5d a8 3d 16 f3 70 3d 1a ea 2d 3d 7c e2 f1 3c
       0.08220903 0.058825575 0.042459585 0.029526941
000180 33 a5 9b bd b8 10 78 3c 0e d5 80 bd 0c 69 84 3c
       -0.075998686 0.015140705 -0.06290637 0.016163372
000190 fe 41 11 bd e0 fc d2 bc 4f 96 95 bd 53 59 67 bd
       -0.035463326 -0.025755346 -0.0730406 -0.05648167
0001a0 2c dd da 3c d4 e9 ff 3c 02 a4 4a 3d 26 23 5e 3d
       0.026716791 0.031239428 0.049472816 0.05423274
0001b0 c0 f0 14 3d c3 00 11 bd 65 14 a4 3d 12 3d 0d 3d
       0.03636241 -0.035401117 0.080117024 0.03448207
0001c0 9c a7 e5 3c fc 38 b2 bc 18 8f 06 3c 10 d2 16 bd
       0.028034024 -0.021755688 0.008212827 -0.036821425
0001d0 58 f4 22 bd 08 ee 73 3c fe fc 92 bd 20 a2 26 3d
       -0.039783806 0.014888294 -0.07177161 0.04068196
0001e0 b6 63 0d bd 4c ca a9 bd be 31 4c 3d 04 04 a3 3c
       -0.03451892 -0.08290538 0.049852125 0.019899376
0001f0 df 6d a9 3d 00 a5 15 bb b0 2b e2 3b 9c 12 fa bc
       0.082729094 -0.0022833943 0.0069021806 -0.030526452
000200 e4 c8 9e bc 82 fe 93 bd c0 a5 b7 3a 9b 02 3c bd
       -0.019382901 -0.07226278 0.0014011189 -0.045900922
000210 db 7a 9b bd 44 38 ab 3c 20 b5 25 bd 00 02 56 3b
       -0.07591792 0.020900853 -0.040455937 0.0032655
000220 d3 46 85 bd 00 a8 5c 3c ac 4a c1 3c 16 f8 dd bc
       -0.06507649 0.013467789 0.023595177 -0.027095836
000230 a0 30 ba 3c 6b 6e 5e bd ee bd 25 bd a7 44 80 3d
       0.022728264 -0.05430452 -0.040464334 0.062630944
000240 bf d5 9a bd f0 8d fe bb 78 ce 0e bd 90 85 ff 3b
       -0.075603 -0.007768385 -0.034864873 0.0077979043
000250 28 96 69 bd 38 fd 28 bc a0 93 54 bc f0 9c 1d bd
       -0.057027966 -0.010314278 -0.01297465 -0.038479745
000260 0a 3d 65 3d 60 b3 3d 3c 30 1c f8 bb c0 fb e5 3b
       0.055966415 0.011578411 -0.0075717196 0.0070185363
000270 c7 29 a8 3d de cd 1c bd a1 fc 93 3d 40 4a e1 ba
       0.082110934 -0.038282268 0.072259195 -0.0017188266
000280 42 fa 70 3d 1d 21 8f 3d fe 1d 46 3d 90 55 bb 3b
       0.058832414 0.06988738 0.048368447 0.005716987
000290 40 ed a5 bd ce 24 37 bd 20 69 a8 bc f6 26 6c bd
       -0.081018925 -0.044712834 -0.02055794 -0.057654344
0002a0 d0 29 27 3d 7a 7a 39 3d ac cd b6 bc ca 4b 53 3d
       0.04081136 0.04528282 -0.022314869 0.05158595
0002b0 90 df 0f bd 45 02 9b 3d a6 32 97 bd 44 94 c2 3c
       -0.035125315 0.07568792 -0.07382707 0.02375234
0002c0 55 21 8c 3d 8e ea 56 bd e0 41 da bc 74 00 86 3c
       0.06842295 -0.052469783 -0.02664274 0.016357638
0002d0 30 65 3a bd db 7b 1b bd 14 9d cf 3c a0 e5 c3 3c
       -0.045506656 -0.037959915 0.025343455 0.023913205
0002e0 36 6c 2b 3d a0 20 80 bc 08 54 1f bd 18 b5 1a bc
       0.041851245 -0.015640557 -0.038898498 -0.00944259
0002f0 16 3e 54 bd 3c 48 c5 bc d7 91 8b 3d 09 22 99 3d
       -0.051817022 -0.024082296 0.06814926 0.07477195
000300 b1 97 88 3d 00 94 e9 3a 52 02 45 3d 30 d7 fe bb
       0.06669558 0.0017820597 0.048097916 -0.007777117
000310 a0 87 39 bc 56 46 b7 bc 3a 56 70 3d 96 c8 1c 3d
       -0.011323839 -0.022372406 0.058675982 0.03827723
000320 b6 49 94 bd 90 2f fd 3b f3 d6 8a bd 97 21 87 3d
       -0.07240622 0.007726617 -0.067792796 0.06598204
000330 86 9a 99 bd c4 8e 8a bd 2f 98 a6 bd 00 68 0c b8
       -0.07500176 -0.06765512 -0.081344955 -3.347546e-05
000340 d2 f4 49 3d 85 c4 a0 3d a6 39 ca bc fc d2 9b bd
       0.049305744 0.07849983 -0.024685692 -0.076086015
000350 c0 49 0b bd b0 42 a4 3b d0 3c fd 3c a0 d2 7f 3c
       -0.03400588 0.0050128326 0.030912787 0.015614182
000360 58 2e 88 bd 08 24 18 bd a6 25 58 bd 80 04 03 3b
       -0.06649464 -0.037143737 -0.05277028 0.0019991696
000370 dc 3d 98 3c 4a ec 1d 3d 46 f2 2b 3d 53 16 60 bd
       0.018584184 0.03855542 0.041979097 -0.05470879
000380 f0 ef 50 bd 82 ae 66 3d 92 90 7d 3d 80 8f 9e bd
       -0.051010072 0.056318767 0.06190545 -0.07742214
000390 d5 44 96 3d 8f 91 94 bd b2 d2 81 bd 2e 89 86 bd
       0.073373474 -0.072543256 -0.06339015 -0.06569134
0003a0 9c 79 a0 bd 54 cb c7 3c c8 6b 66 bc 44 3b 8b bd
       -0.07835695 0.024388947 -0.014063783 -0.067984134
0003b0 03 d8 70 bd 0c 0e b5 3c 6b 39 22 bd 40 c9 c8 ba
       -0.058799755 0.022101425 -0.03960554 -0.0015318766
0003c0 60 8f 2c bc 0c 9f d0 bc 60 06 4b 3b 91 13 a9 3d
       -0.01053223 -0.025466464 0.0030979142 0.08255685
0003d0 81 04 9e 3d 48 41 13 3d 83 ac 35 bd 70 00 97 bc
       0.07715703 0.03595093 -0.044353973 -0.018432826
0003e0 9f 80 8d bd 56 5c 12 bd 42 81 72 3d c6 2d eb bc
       -0.06909298 -0.03573259 0.0592053 -0.02870835
0003f0 15 ae 89 3d d4 9a e3 3c 00 08 86 bb 9b ca 6d bd
       0.06722657 0.027783789 -0.004090309 -0.058054548

radarnet.encoder.Whc.bias f4 [16]
000000 f0 37 e0 3b 5b 1c 9b bd 90 cb f8 bc 6b 2b 33 bd
       0.006842606 -0.07573768 -0.030370504 -0.04374258
000010 00 52 87 ba c4 94 a6 bc 0d d6 95 3d da 29 06 3d
       -0.001032412 -0.020334609 0.073162176 0.032754757
000020 20 82 73 bb c0 17 0c 3d df 07 a2 bd 53 46 36 bd
       -0.0037156418 0.034202337 -0.079116575 -0.04450066
000030 c8 06 0c 3d dd ad a7 3d 68 f9 49 bc 38 ff 77 bc
       0.034186155 0.08187459 -0.0123275295 -0.0151365325

radarnet.encoder.Wxo.weight f4 [16, 1, 3, 3]
000000 2b 0b 75 be c0 04 8d 3b 90 79 d6 bd 9a ae 5f 3e
       -0.23930041 0.0043035448 -0.10472405 0.21843949
000010 00 6a fd bb ad a2 82 3e 50 12 c8 3c b9 05 87 3e
       -0.0077335835 0.25514737 0.024422795 0.26371554
000020 e8 b5 5d bd 46 b1 1b 3e 60 3b 86 3d 94 72 99 be
       -0.054128557 0.15204343 0.06554294 -0.2997023
000030 7c 65 87 bd 80 45 63 bc 15 48 a2 3e d8 7e 14 be
       -0.066111535 -0.013871551 0.3169562 -0.14501512
000040 88 bb 4e be 20 57 76 3c 08 da 64 3d 21 ce 9b 3e
       -0.20188725 0.015035421 0.055871993 0.304307
000050 aa 76 98 be 00 34 91 3c 80 fa 6e bc e5 2e a2 3e
       -0.29778033 0.01772499 -0.014586091 0.31676403
000060 8e ce 52 be 83 fe 42 be c0 1c 5f 3d 3e 74 47 3e
       -0.20586607 -0.19042401 0.054470778 0.19477937
000070 0a 48 78 3e 20 da cc 3d 9a 84 9f be 70 dd 92 3d
       0.2424623 0.100025415 -0.31155854 0.07171142
000080 8e 03 5b be 0f 57 80 3e 00 24 c5 bb e0 f3 84 3d
       -0.21388075 0.2506642 -0.0060162544 0.06491828
000090 b6 7c 0c be 4a 1c 30 3e 00 58 e9 3c d8 17 21 3e
       -0.13719448 0.17198291 0.028484344 0.15731752
0000a0 34 b8 fe 3d 1e d6 1a 3e b6 41 e0 bd 0e f4 78 3e
       0.12437478 0.15120742 -0.10950033 0.2431185
0000b0 76 ed 89 be a0 a2 c6 3d d0 ac 0c be ce 73 28 3e
       -0.2693898 0.09698987 -0.13737798 0.16450426
0000c0 00 90 d7 3d 90 99 bf bd 2c 01 84 be d2 ef 52 3e
       0.10525513 -0.093554616 -0.25782144 0.20599297
0000d0 89 af a6 3e 00 53 52 bc ae d7 6c be d2 f3 5e 3e
       0.32555798 -0.012837172 -0.2312915 0.21772698
0000e0 90 d5 b7 bc f6 ab 55 3e 74 27 a3 be 50 8a 82 bd
       -0.022440702 0.20866379 -0.31866038 -0.06374037
0000f0 60 7b 14 bc 50 86 84 be fc c8 b3 bd 8b 95 a5 3e
       -0.009062618 -0.25883722 -0.08778569 0.32340655
000100 ae 42 2f 3e 6f fc 99 be b8 ae 50 be 84 8a a9 3d
       0.1711528 -0.30075404 -0.2037915 0.08278373
000110 2d 85 9c 3e 00 36 0a be 30 a5 bd 3d bf 4d 81 3e
       0.30570355 -0.13497162 0.09260023 0.25254628
000120 0a c9 a7 be f2 43 6b 3e b2 d6 30 3e 72 f6 70 3e
       -0.32770568 0.22975138 0.172694 0.23531511
000130 56 47 bf bd 31 13 97 3e 1a 3a 46 3e 5e c8 6f be
       -0.09339778 0.2950683 0.19358101 -0.23416278
000140 6d 5b 9a 3e f3 8b 43 be bc a2 e8 3d e0 46 0c 3e
       0.30147877 -0.19096355 0.11359164 0.13698912
000150 54 89 8c 3d df 8c a0 be e0 f6 c5 3d 80 9b 05 3d
       0.06862131 -0.31357476 0.09666228 0.032619
000160 6b 75 2e be e0 47 1b be 0e 17 96 be 71 9c 85 3e
       -0.17036979 -0.15164137 -0.29314464 0.26095918
000170 33 b2 1f be a6 09 65 3e 5f 3c 84 be 06 dc 45 3e
       -0.15595321 0.22366962 -0.2582731 0.19322214
000180 00 6d 15 3d 40 7b 03 bd 6b fb a6 3e 3e 33 2c be
       0.036480904 -0.032099962 0.32613692 -0.16816422
000190 66 e1 ea bd 3c 24 b7 3d 65 45 83 3e d8 72 3b 3d
       -0.114687726 0.08942458 0.2563888 0.04576382
0001a0 40 f7 a9 3c f2 19 41 3e 26 3b 16 be 89 51 8d 3e
       0.02074778 0.18857554 -0.14671001 0.2760127
0001b0 1a 3a 7a 3e 0e 98 41 3e 98 f6 67 3d 80 89 3e be
       0.24436226 0.1890566 0.056631655 -0.1860714
0001c0 68 b2 3b be 6e 5e 5e be ee 4e 8a be 76 57 56 3e
       -0.18329775 -0.2171571 -0.27013344 0.20931801
0001d0 90 fc aa bc d0 87 d9 3d 68 02 1f bd b8 0a 75 bd
       -0.020872384 0.10621607 -0.038820654 -0.059824675
0001e0 b0 f1 f7 bc 57 1d 9b 3e 6c 2f d8 bd 8e 4e 87 be
       -0.030266613 0.30295822 -0.1055592 -0.2642712
0001f0 e0 72 fd bd 60 b6 1a 3d fb ec 48 be fc 00 82 3d
       -0.12375426 0.037771583 -0.19621651 0.06347844
000200 6c cc bd bd c0 29 11 3d ab 12 3c be b0 c9 ba 3c
       -0.09267506 0.035440207 -0.18366496 0.02280125
000210 ad dc 80 3e b0 56 e2 3c 63 f0 91 3e b5 6a 84 3e
       0.25168362 0.027629226 0.28503713 0.2586266
000220 6b 78 31 be ce 22 71 3e f5 77 92 3e 60 95 3d be
       -0.17331092 0.23548433 0.28607145 -0.18514013
000230 8a 85 2a 3e 42 56 72 3e 80 1e af 3c 43 cb a9 3e
       0.16652504 0.23665717 0.021376848 0.3316289

radarnet.encoder.Wxo.bias f4 [16]
000000 2b c5 91 3e 9a df 71 3e 78 78 78 bd a0 bf a6 bd
       0.2847074 0.23620453 -0.060661763 -0.08142018
000010 af 0e 9c be 14 80 8d bd 1a ec 1f 3e 8e 9e 00 3e
       -0.30479953 -0.069091946 0.1561741 0.12560484
000020 b6 cd b8 bd 33 87 07 be 9a 55 49 3e e1 70 85 3e
       -0.09023611 -0.13235168 0.1966156 0.26062682
000030 52 29 0b 3e f0 6d 80 be c2 35 79 3e 34 69 9c be
       0.13589981 -0.25083876 0.24336913 -0.30549014

radarnet.encoder.Who.weight f4 [16, 16, 3, 3]
000000 fa 49 40 3d c5 0d 82 3d 70 27 8b bb 10 28 f6 3b
       0.04694555 0.063502826 -0.0042466447 0.0075121
000010 4c bf 8a bd 36 11 0e bd b8 74 62 bc 96 33 d9 bc
       -0.06774768 -0.034684382 -0.013821773 -0.026513856
000020 80 ec a0 bc ac 57 d9 bc 36 d5 0d 3d d0 3c 38 bd
       -0.019644022 -0.026531063 0.034627162 -0.04497987
000030 e0 0a 77 bc ba f2 6b 3d 22 0a 87 bd 4f 3f 84 3d
       -0.015078276 0.05760453 -0.065937296 0.06457388
000040 d0 7a dc 3c 7a f3 90 bd 60 ad 62 3b c6 e5 ba bc
       0.02691403 -0.070776895 0.0034588203 -0.022814643
000050 d8 48 7b bd bc 82 e0 bc 1e 47 49 bd 08 78 0f 3d
       -0.061348766 -0.027406089 -0.04914009 0.03502658
000060 00 b1 a4 b9 08 f2 32 bc 98 48 1d 3d e6 0b 6b bd
       -0.00031412393 -0.010921963 0.03839931 -0.057384394
000070 38 93 2d bc a6 c9 49 3d 8a 29 8c bd 15 13 9d 3d
       -0.010594182 0.049264573 -0.068438604 0.07669655
000080 da 30 05 3d 2a b3 37 3d 20 e8 8d bd 54 ab 93 bd
       0.03251729 0.0448486 -0.0692904 -0.072104126
000090 d8 d9 7b bc ab 42 0f bd 6b 5a 07 bd 20 69 b6 bc
       -0.015371762 -0.03497569 -0.033045214 -0.022266924
0000a0 73 b5 68 bd c0 14 42 bd f9 bd a8 3d 58 8c 5e 3c
       -0.05681367 -0.04738307 0.082393594 0.013583265
0000b0 1c cd ad 3c f7 c3 89 bd 7a 0d 54 3d 24 f3 e4 3c
       0.021215968 -0.067268305 0.051770665 0.02794797
0000c0 43 12 89 bd 31 ab 90 3d d4 84 e4 3c 41 e3 a0 3d
       -0.06692936 0.07063902 0.027895369 0.07855845
0000d0 6d b5 8c 3d 33 a3 85 bd fd e2 96 3d 28 16 90 bd
       0.06870542 -0.065252684 0.07367513 -0.07035476
0000e0 93 f4 55 bd 4f a7 87 3d 80 fa 6d bc 7e 36 81 bd
       -0.052235197 0.066237085 -0.014525056 -0.06309222
0000f0 1b 16 55 bd 8b c8 83 bd 1a 37 59 3d 40 fc 5e bd
       -0.052023035 -0.06434735 0.053031065 -0.054439783
000100 6e bf 17 bd 67 9d 85 bd 16 59 f0 bc 33 c5 8f bd
       -0.037047796 -0.06524163 -0.029339354 -0.07020035
000110 80 7f 70 ba 00 70 31 b9 40 7e 00 3c 96 87 0d 3d
       -0.00091742724 -0.00016921759 0.0078426 0.034553133
000120 f1 a8 93 3d 3c 32 a8 bd c9 45 8c 3d 7d 45 8c 3d
       0.072099574 -0.082127064 0.06849248 0.06849191
000130 80 ff 17 3c 78 ab 39 bc 8a 5a 17 3d 00 59 97 ba
       0.009277225 -0.011332385 0.03695158 -0.001154691
000140 20 86 7d 3c 1b 42 0b bd 19 9f a0 3d cb 71 a1 bd
       0.015473872 -0.03399859 0.078428455 -0.078830324
000150 18 03 59 bd 70 e1 8f 3b 66 d9 03 bd cc 03 f5 bc
       -0.052981466 0.004390888 -0.03218975 -0.029909037
000160 70 a1 96 bb bc a2 81 bd 30 06 31 bd a9 a7 9d 3d
       -0.0045968816 -0.06329867 -0.04321879 0.07697994
000170 e2 d7 5b 3d f6 51 76 3d 5e 84 3c 3d c0 61 c6 ba
       0.05367268 0.060136758 0.046024673 -0.0015135333
000180 cc df d5 3c cc 41 e3 3c 12 7a 38 3d 60 b1 31 3c
       0.026107691 0.027741335 0.04503829 0.010845512
000190 4b 08 2e bd 20 0b 08 bb b0 df aa 3c b0 92 a6 bb
       -0.042488378 -0.0020758584 0.020858616 -0.0050834045
0001a0 74 5c c8 3c 90 e0 b1 bb 30 76 fc 3c 1d e8 98 3d
       0.024458148 -0.0054283813 0.030818075 0.07466147
0001b0 6e 9a 39 bd 76 16 1e 3d 28 0a 26 3c f0 c3 8c 3b
       -0.04531329 0.03859564 0.010134257 0.0042958185
0001c0 3b 57 05 bd 01 a9 82 3d 00 42 95 bc 78 a8 74 bd
       -0.032553893 0.06379891 -0.018219948 -0.059730977
0001d0 b8 8b 52 bc 6a 7a 04 3d 23 6d 0f bd 7d 1d 99 3d
       -0.012850694 0.032343306 -0.03501619 0.074763276
0001e0 20 bb 3a 3c 7e fc 2d 3d 00 89 55 3c c8 be 26 3d
       0.011397153 0.042477123 0.013033152 0.040709287
0001f0 56 7e 2b 3d ca 0d 49 3d 30 90 c6 bb 0b 84 79 bd
       0.04186853 0.049085416 -0.006059669 -0.06091694
000200 90 e4 bd bb 80 f0 28 bb f3 d5 78 bd 38 cb 1e 3d
       -0.005795069 -0.0025778115 -0.060750913 0.038768023
000210 ea 8b 2d 3d a5 3a 9b 3d 51 40 91 3d 2b 25 2a bd
       0.04236976 0.07579545 0.070923455 -0.041539352
000220 f6 21 64 bd 33 93 9a bd 42 11 9f bd e8 e0 78 bd
       -0.05569645 -0.07547607 -0.077669635 -0.060761362
000230 ab ed 38 bd b0 ca 84 bb 00 fc fd 39 45 37 89 3d
       -0.045148533 -0.0040524825 0.00048443675 0.06699995
000240 fa cc 78 3d f0 27 a0 bd ce 50 3f 3d cb 57 a3 bd
       0.060742356 -0.078201175 0.04670792 -0.079757296
000250 16 06 75 bd 8c 93 b3 bc ce 96 34 3d e6 0f 3f bd
       -0.059820257 -0.021920942 0.04408913 -0.04664602
000260 90 4c 9d 3b ff 51 8e bd d7 b2 99 3d 36 80 0c 3d
       0.0048003867 -0.06949233 0.07504814 0.03430196
000270 de 1d 73 bd 60 47 30 bd 2e ef 12 3d 58 bd 14 bc
       -0.059354655 -0.04303682 0.03587263 -0.009078346
000280 2e 26 74 bd 3e a6 5f 3d d6 55 36 bd 50 80 db bb
       -0.059606723 0.0546019 -0.044515453 -0.0066986457
000290 a0 c0 3c bc 4e b0 04 bd 2b 0e 0f bd aa a0 8f bd
       -0.011520535 -0.0323947 -0.03492562 -0.07013066
0002a0 ab d8 46 bd 90 80 93 bb 88 07 20 3d c0 c1 7b bd
       -0.048546474 -0.00450141 0.039069682 -0.06146407
0002b0 80 1e a0 bd bb bb 1b bd eb 90 2b bd 86 52 71 bd
       -0.078183174 -0.03802083 -0.04188625 -0.05891659
0002c0 96 44 7f 3d 28 91 8d bd c5 be 87 3d 35 72 8a 3d
       0.062321268 -0.06912452 0.06628183 0.067600645
0002d0 64 22 e6 3c 40 f9 81 3a 45 41 8b 3d de 6d 95 bd
       0.02809257 0.0009916201 0.067995586 -0.07296346
0002e0 6b 21 8b bd 20 14 46 bd 6c dc 85 bc 98 07 36 bc
       -0.06793483 -0.048359036 -0.016340457 -0.011110209
0002f0 fb 43 a2 bd 79 7b 87 3d b3 a3 7b bd 20 48 40 bd
       -0.079231225 0.066153474 -0.061435413 -0.046943784
000300 cc e1 f8 3c c2 35 2e 3d 14 97 88 3c 9f 33 92 bd
       0.030381106 0.042531736 0.016673602 -0.07138752
000310 e7 b0 91 3d 8b be 22 bd 90 24 fe 3c 50 0e ee 3b
       0.071138196 -0.039732497 0.031023294 0.00726489
000320 16 1c 30 3d 9b a7 a0 3d e0 f6 4f bd 3d 59 92 3d
       0.042995535 0.07844468 -0.050772548 0.07145927
000330 66 2d 9f bd 56 0d 17 bd 51 a0 aa 3d 04 9c a3 bc
       -0.07772331 -0.036877953 0.08331359 -0.019971855
000340 e7 dc a3 bd 5e 87 3f bd d8 97 0c bd 20 99 79 bd
       -0.08001118 -0.046759956 -0.034324497 -0.060937047
000350 03 2c 66 bd f2 36 86 bd d9 b3 91 3d 58 3a 05 3c
       -0.056194317 -0.06553449 0.07114381 0.008131586
000360 60 9f 46 bc 76 d6 3b 3d 00 b9 a9 ba 1b 15 8d 3d
       -0.012122959 0.045858823 -0.0012948811 0.06888791
000370 a8 37 34 bc 80 ac 85 bd c0 e2 f5 3a 79 58 9c 3d
       -0.010999598 -0.065270424 0.0018759593 0.07634062
000380 88 a3 76 bc 55 75 a8 3d ed 0a 92 3d 88 82 a9 bd
       -0.015053637 0.08225504 0.0713099 -0.0827685
000390 ca 73 79 3d a8 21 a2 bd 4b a3 6c bd 30 93 f8 3b
       0.06090144 -0.07916576 -0.057772916 0.0075859055
0003a0 10 ca b9 3b f1 06 a6 3d e2 2f 02 3d 78 16 90 bd
       0.0056698397 0.08106793 0.031783946 -0.070355356
0003b0 70 e4 a0 bc 7c a2 bd bc 9c 97 85 bc 0e a8 5c 3d
       -0.019640177 -0.023148768 -0.016307645 0.053871207
0003c0 40 0b 0c bd c8 bd 9c bd 74 6f 91 bc 44 e7 8b 3c
       -0.034190416 -0.076533854 -0.01775334 0.01707805
0003d0 00 fe 6e 3c 03 b2 09 bd 06 c4 4a bd fc cc fa 3c
       0.0145869255 -0.03361703 -0.04950335 0.030615322
0003e0 fe c0 a9 bd 58 f5 03 bd 42 89 a1 bd 9e d0 83 bd
       -0.082887635 -0.0322164 -0.07887508 -0.06436275
0003f0 ac 75 c2 3c 0a 54 31 3d 2e 58 6e bd fe 3b 56 3d
       0.023737751 0.043293037 -0.058189563 0.052303307

radarnet.encoder.Who.bias f4 [16]
000000 10 a6 a8 bd fc e3 8c 3c 9a 86 54 3d 2a 29 9b bd
       -0.08234799 0.017198555 0.05188618 -0.07576211
000010 d0 e1 8b 3b 60 09 2c bc 94 c1 e2 3c b4 6d 9f bd
       0.0042688623 -0.010500282 0.027680196 -0.07784596
000020 66 fa ea bc 2a bc 17 3d 92 11 4e 3d 96 9f e7 bc
       -0.028683852 0.03704468 0.050309725 -0.028274339
000030 de 13 5e 3d fe ed 10 bd f8 2b 07 3c c4 4d aa 3c
       0.054218166 -0.035383217 0.008250229 0.020789035
