logging/net_epoch1.pth (torch_old, 92173 bytes, 66 tensors)

radarnet.encoder.Wxi.weight f4 [16, 1, 3, 3]
000000 f4 b9 91 3d 49 97 80 3e a2 a8 82 be f2 33 6b 3e
       0.07115546 0.2511542 -0.25519282 0.22969034
000010 97 75 91 3e c6 d2 cf bd 34 ca a4 be 92 f7 39 3e
       0.28410026 -0.10147624 -0.3218552 0.18160847
000020 78 ba 04 bd eb 00 3c be de 35 3b be 86 91 40 be
       -0.032404393 -0.18359725 -0.18282267 -0.18805513
000030 b0 90 88 bd 50 a3 77 be 96 d6 53 3e a6 a0 17 3e
       -0.06668222 -0.24183393 0.20687327 0.14807376
000040 40 5d ee bd 9b 98 06 be 5b b4 55 be 56 74 75 be
       -0.1163888 -0.13144152 -0.20869581 -0.2397016
000050 1e f5 16 3e 18 5a 29 bd c0 c2 83 bb 4a 9e 63 3e
       0.14741942 -0.041345686 -0.0040210187 0.22228351
000060 8f 71 94 3e ea 35 57 3e ad 90 a4 3e 1c a5 98 3d
       0.28992888 0.2101666 0.3214163 0.07453367
000070 d2 36 50 3e f0 fa dd 3c de 1f 9f be 00 07 90 bd
       0.20333412 0.027097195 -0.31079 -0.07032585
000080 f0 b4 a7 3c f6 e7 20 3e 28 3b 11 3d eb ba 8f 3e
       0.02047202 0.15713486 0.035456806 0.28072295
000090 e0 46 38 bc 5c da 85 bd ba 88 56 3e 40 63 90 3c
       -0.011247367 -0.06535789 0.20950595 0.017625451
0000a0 8c 28 e9 3d ec e8 83 be 00 71 f3 ba a9 70 99 3e
       0.11384687 -0.25763643 -0.0018573105 0.29968765
0000b0 8a 3b 9c be 00 92 70 3d e8 83 5e be 5b a6 8c be
       -0.30514175 0.058732986 -0.21730006 -0.2747067
0000c0 b3 66 a2 be d0 f3 98 bd d1 3c aa 3e d2 5e 52 3e
       -0.31718978 -0.074683785 0.33249524 0.20543984
0000d0 2c f2 b8 bd 70 1f 91 3c 03 3c a1 3e 25 78 83 3e
       -0.090305656 0.017715186 0.31491098 0.256776
0000e0 40 5d 62 be fe 54 00 be c0 0d 3c 3d 7d 0f 9f 3e
       -0.22105885 -0.12532422 0.04591155 0.31066504
0000f0 30 82 28 3e 06 eb 40 be 0c 0b cf 3d 9e a9 5f be
       0.16455913 -0.18839654 0.10109529 -0.21842048
000100 e8 6f 33 bd e0 0a 39 3c 30 6e e1 bc 17 e1 97 be
       -0.043807894 0.011294097 -0.027518362 -0.29663917
000110 9e 82 1e be eb 6d 45 be 66 4b c6 bd 5a 69 73 3e
       -0.15479514 -0.19280212 -0.0968235 0.23770657
000120 78 cf 48 bd 52 4d 31 3e b0 98 1b be 66 41 24 3e
       -0.049025983 0.17314652 -0.15194964 0.16040573
000130 43 6d 5a be 28 12 0e 3e 86 0e a2 be 3d 22 a9 3e
       -0.21330743 0.13874114 -0.31651706 0.33033934
000140 30 f1 83 3c f8 87 90 be 4b 0e 45 be 40 c8 c1 3c
       0.016106218 -0.28228736 -0.19243734 0.023655057
000150 28 69 45 bd 14 95 a1 bd 16 8b 7e be 74 62 82 3d
       -0.048195988 -0.078897625 -0.24857745 0.06366435
000160 17 10 a9 be 0c 39 fd 3d a0 b2 37 bc 83 6a 15 be
       -0.33020088 0.123643965 -0.011212021 -0.14591412
000170 a0 81 30 bd 7f 3d 9d be fc 8a 8c bd 02 33 85 be
       -0.04309237 -0.3071098 -0.06862447 -0.26015478
000180 24 ef 8c 3d 00 0f 63 be c6 1b 3b be e8 fb 1e 3d
       0.0688155 -0.22173691 -0.18272313 0.038814455
000190 e0 70 14 3d 1c bf 95 3d 40 5e e7 3b f6 fb 52 3e
       0.03624046 0.07311842 0.007060796 0.20603928
0001a0 8e 34 28 3e 98 3b 9f be be be 76 be 74 1f cb 3d
       0.16426298 -0.31100154 -0.240962 0.099181086
0001b0 48 6f 4e bd 38 5c 49 bd 9a 2c 9f be 36 52 4b 3e
       -0.050399095 -0.049160212 -0.31088716 0.1985558
0001c0 f3 55 3e be 80 08 56 bc ba 2e 8d be 50 3e c2 3d
       -0.18587475 -0.01306355 -0.27574712 0.094845414
0001d0 a8 64 5e bd d0 39 28 be 26 d8 0c 3e 15 0e 82 3e
       -0.054295212 -0.16428304 0.13754329 0.2540137
0001e0 ba f8 a7 be be 70 20 3e d0 d4 91 3d 30 82 c6 bc
       -0.3280695 0.15668008 0.07120669 -0.024232
0001f0 f8 8e 5e 3d 8c 48 cd bd ec ca f5 3d c3 1e a4 3e
       0.054335564 -0.10023603 0.12001595 0.3205472
000200 56 40 39 3e 3e c6 68 be b6 5d 5f 3e 5c d0 a6 3d
       0.18090948 -0.22731873 0.21813092 0.0814521
000210 53 78 98 3e bc 67 c1 3d b0 e1 92 bd e6 52 03 be
       0.297793 0.09443614 -0.07171953 -0.12824592
000220 a0 d0 63 be bc 9e ed 3d 7e 7f 0a 3e b4 77 fc 3d
       -0.22247553 0.11602542 0.13525197 0.12327519
000230 e6 62 7c 3e 04 db b5 3d d1 8e a3 3e 90 76 a1 bc
       0.24647102 0.088796645 0.31944898 -0.019709855

radarnet.encoder.Wxi.bias f4 [16]
000000 00 ae 2e bb c0 19 27 3d eb 83 97 be 60 f4 17 3c
       -0.0026654005 0.04079604 -0.29592833 0.009274572
000010 d3 a7 3e be 70 3c d9 3c e6 0f 48 3e f3 bf 31 be
       -0.18618707 0.026518077 0.19537315 -0.17358379
000020 18 ea 4e bd f2 35 4e 3e ac 6d de 3d e2 d3 3a 3e
       -0.050516218 0.20137766 0.10860762 0.1824489
000030 b0 ee fc bc 60 e6 78 bc b9 d8 9f 3e 90 55 26 be
       -0.030875534 -0.015191644 0.31220034 -0.16243577

radarnet.encoder.Whi.weight f4 [16, 16, 3, 3]
000000 16 44 d5 bc b1 46 8a 3d d2 06 93 bd 9a 42 64 3d
       -0.026033442 0.067517646 -0.07179035 0.05572758
000010 ae 34 01 bd a0 01 b2 3c 36 58 71 3d b3 3f 5b bd
       -0.03154438 0.02172929 0.058922015 -0.053527545
000020 85 53 8a 3d c4 96 94 bc a0 40 32 bb d8 75 05 3d
       0.06754211 -0.018138297 -0.0027199164 0.032583088
000030 00 51 22 bb 90 7d d5 3b 08 d6 2a 3c 80 89 06 bc
       -0.0024767518 0.0065152124 0.010427006 -0.0082114935
000040 0e 41 34 bd 38 ea 20 3c 96 06 56 bd 3e 17 33 bd
       -0.044007353 0.009821467 -0.052252375 -0.043723337
000050 0e 16 74 3d bc 5c a5 bd 5e ac 88 bd 1e bc 80 bd
       0.059591345 -0.08074328 -0.066735014 -0.062858805
000060 80 4f f5 bb c7 cb 93 3d 39 50 81 3d c4 4b 90 bc
       -0.007486284 0.07216602 0.063141294 -0.017614253
000070 9b e2 2a bd 93 12 81 bd f3 68 3f bd eb 5b 1f bd
       -0.041720014 -0.06302371 -0.046730947 -0.03890602
000080 1e 2c 0d 3d 90 15 c1 3c b8 7e 96 bd 68 74 6c 3c
       0.0344659 0.023569852 -0.073483884 0.01443205
000090 c2 cb 52 3d a7 12 93 bd a0 97 91 3c ba a6 28 3d
       0.05146385 -0.07181292 0.017772496 0.041174628
0000a0 86 1b 28 bd c0 d4 b7 3c 00 d0 82 37 38 c3 73 bc
       -0.041041873 0.022440314 1.5594065e-05 -0.014878087
0000b0 10 f5 82 bc 3d 83 9d 3d d6 81 3d 3d 2a c1 92 bd
       -0.015985996 0.07691047 0.0462664 -0.07165749
0000c0 0e 55 28 3d b7 25 9e bd e8 9d 6c bc 68 44 6c bd
       0.04109674 -0.07722037 -0.014441945 -0.057682425
0000d0 ae f5 1c bd 10 e3 05 3d 4b 3b 56 bd 58 d9 71 3c
       -0.038320236 0.032687247 -0.05230264 0.014761291
0000e0 0e ca 16 3d 58 1d 34 bc 7e f8 41 3d 0c 4e fd 3c
       0.036813788 -0.010993324 0.04735612 0.030921005
0000f0 10 c9 8c 3b 84 8c c9 3c e6 c1 52 bd bb 2f 66 bd
       0.0042964295 0.024603136 -0.051454447 -0.056197863
000100 16 e4 37 bd 68 42 4c bd c9 b1 a3 3d cd b7 9a 3d
       -0.044895254 -0.049868017 0.07992894 0.075545885
000110 d4 75 ec 3c 8a bc 79 3d e8 30 30 bc 3e 8e 5e bd
       0.028864779 0.06097082 -0.010753848 -0.05433487
000120 f8 df 2a bc 2b ef 31 bd 5c 9d 87 3c 16 b1 59 3d
       -0.010429375 -0.04344098 0.016554527 0.053147398
000130 d0 b0 53 bd e2 32 30 3d ee d6 7e bd 1c 84 fc 3c
       -0.051682293 0.043017276 -0.06221669 0.030824713
000140 50 98 8e bc 06 cc a8 bd 26 c1 7d 3d 86 79 10 bd
       -0.017406613 -0.082420394 0.06195178 -0.035272144
000150 83 e6 27 bd 6b d4 43 bd b0 38 4a bd b3 83 85 bd
       -0.040991317 -0.04781 -0.049370468 -0.0651926
000160 73 bb 4d bd 97 95 8d bd e0 dd 15 3b d2 a8 69 3d
       -0.050227594 -0.069132976 0.0022867844 0.057045765
000170 25 29 9c 3d d0 91 13 bd 31 32 9e 3d c8 bf 7a 3c
       0.07625035 -0.03602773 0.07724417 0.015304513
000180 00 b5 f6 ba e6 16 15 bd b6 50 61 bd 60 c1 a3 bc
       -0.0018822253 -0.03639879 -0.055008613 -0.01998967
000190 70 52 c8 3c 60 e9 09 bb 83 b2 07 bd 88 cb 11 bc
       0.024453372 -0.0021043643 -0.033129226 -0.008898623
0001a0 28 fd 49 bc c4 b6 8a 3c 68 51 70 3c 9c d1 91 bc
       -0.012328424 0.016932853 0.014667846 -0.017800145
0001b0 c2 59 06 3d bb 17 83 bd 9e ca 05 3d b6 4b f7 bc
       0.032800443 -0.064010106 0.032663934 -0.030187469
0001c0 e8 74 51 bd 80 e4 01 3a 87 7f 8b bd f8 35 01 3c
       -0.05113688 0.00049550086 -0.06811433 0.007886402
0001d0 80 42 74 bd 93 e4 a5 bd 7b f7 1f bd 88 1d 46 bc
       -0.05963373 -0.08100238 -0.039054375 -0.012092002
0001e0 f0 2a 0b bd 56 cd e8 bc 48 d3 74 3c 94 51 9c bc
       -0.033976495 -0.028418224 0.0149429515 -0.019081868
0001f0 40 20 b6 3a 34 d8 9f 3c f4 62 97 bc 54 37 a1 bd
       0.0013895109 0.019512273 -0.018479802 -0.07871881
000200 93 a2 88 3d 98 7c 25 bc d1 cb 88 3d e6 e9 30 bd
       0.066716336 -0.010100506 0.066795 -0.043191813
000210 22 b4 0e 3d c0 0c 3c bd de b8 21 bd fc 84 e3 3c
       0.034839757 -0.045910597 -0.039482944 0.027773373
000220 0e d6 28 bd 52 37 45 3d f7 b6 a4 3d b8 e7 8e bd
       -0.041219763 0.04814846 0.0804271 -0.069777906
000230 b0 c1 a3 bb a4 13 cf 3c e0 51 a4 bd 73 9f 39 bd
       -0.0049974546 0.02527792 -0.08023429 -0.04531808
000240 f6 6c e3 bc ab 74 95 3d 8e 31 1f bd db 19 89 3d
       -0.027761918 0.07297643 -0.03886562 0.06694385
000250 60 e6 30 3c 3a 15 93 bd 68 1a 56 bc 13 5b 48 bd
       0.010797113 -0.07181783 -0.013067819 -0.04891498
000260 63 d6 2a bd 67 26 97 3d a4 9a fc 3c 00 34 2b bd
       -0.04170836 0.073803715 0.030835457 -0.041797638
000270 80 92 28 3d 0e a0 3a bd f7 69 84 bd d2 2a 6a 3d
       0.04115534 -0.045562796 -0.06465524 0.057169743
000280 40 d8 e8 3c 98 9d 36 bd e4 bd a5 bd eb 10 40 bd
       0.028423429 -0.044583887 -0.080928594 -0.046891134
000290 3f c8 a4 3d 80 a3 58 bb 28 a8 62 bd 54 34 ce 3c
       0.080460064 -0.0033056438 -0.055336148 0.025171436
0002a0 a0 ef 40 bd 58 51 45 bd f6 35 17 bd 1b 95 7c bd
       -0.047103524 -0.04817328 -0.036916696 -0.061665636
0002b0 68 31 5a 3c 3e 9f 0c bd a0 67 55 bd 39 2a 89 3d
       0.013317443 -0.034331553 -0.052100778 0.066975065
0002c0 82 3e 54 3d 19 e8 9f 3d cf 36 99 3d 33 05 8a bd
       0.051817425 0.07807941 0.07481157 -0.06739273
0002d0 12 3a 49 3d d0 fd 07 3d 08 8b 03 bc 8e 6e 40 3d
       0.049127646 0.03320104 -0.008028753 0.046980433
0002e0 80 7c 37 bb de b5 88 bd 4e 84 5f bd a3 67 9b bd
       -0.0027997792 -0.066753134 -0.054569535 -0.075881265
0002f0 d8 fb 92 bd 68 e3 16 bc d0 31 5f bd a0 e2 6e bb
       -0.07176942 -0.009209491 -0.054490864 -0.0036450997
000300 a0 60 e0 bc 36 b9 1d 3d 88 e9 65 3c ec 8c e2 bc
       -0.027389824 0.03850671 0.014032729 -0.027655087
000310 c4 87 d8 3c 46 c1 f2 bc 3f 8c 9d bd 3a 51 41 3d
       0.026431926 -0.029633176 -0.076927654 0.047196604
000320 76 3d 59 3d 63 22 8f 3d c0 3b f2 3a c2 9f 60 3d
       0.05303713 0.069889806 0.0018480942 0.054839857
000330 d3 f5 77 bd a0 c5 45 bb 0f 5e a0 bd bc f7 9e bc
       -0.06053717 -0.0030177608 -0.0783044 -0.019405238
000340 9a 78 41 3d c0 4c e9 3c 00 4b 69 bd 6e b4 1a bd
       0.047234155 0.02847898 -0.05695629 -0.037769727
000350 a8 2c 10 3d 80 c6 f3 bb fc f8 e4 3c b8 a1 63 bd
       0.035198838 -0.0074394345 0.027950756 -0.05557415
000360 81 43 8c 3d 1c 68 8f 3c 6b 4c 21 bd b0 ae e3 3b
       0.06848813 0.017505698 -0.03937952 0.0069483146
000370 b8 a3 48 bd 98 8e 19 bd 76 bd 69 bd 18 ae 6b 3c
       -0.04898426 -0.037489504 -0.05706545 0.014384769
000380 38 c7 14 bc ba 63 68 3d 83 f5 8f 3d 3e 77 1a 3d
       -0.009080701 0.05673573 0.070292495 0.037711374
000390 be 19 0b 3d fb ee 12 bd 06 93 56 bd db 29 79 bd
       0.033960097 -0.03587244 -0.052386306 -0.060830932
0003a0 90 60 b1 3c 9d a2 95 3d 73 32 82 bd 58 d5 44 bc
       0.02165249 0.07306407 -0.06357279 -0.012013756
0003b0 a8 54 29 3d 81 7e 84 3d c6 de 16 3d a0 34 4b 3b
       0.0413405 0.06469441 0.036833547 0.0031006709
0003c0 bc 3b ad bc 96 66 4f bd 9a 19 4f 3d 32 ac 75 3d
       -0.021146648 -0.050634943 0.050561525 0.05997867
0003d0 32 ab 2e 3d b0 94 1b 3d 90 39 ca bc 40 1f cb 3b
       0.042643733 0.037983596 -0.024685651 0.0061987936
0003e0 03 75 51 bd 2a 3d 49 3d 80 bb 3b bb fb f3 97 bd
       -0.05113698 0.049130596 -0.0028645694 -0.074195825
0003f0 ec 92 db bc aa d8 43 3d d8 00 37 bc 9a 97 66 3d
       -0.026803456 0.04781405 -0.011169635 0.056296922

radarnet.encoder.Whi.bias f4 [16]
000000 9b c3 07 bd 80 9a e6 bc 54 93 a9 3c 18 c7 55 bd
       -0.03314553 -0.028149843 0.020700134 -0.052191824
000010 2d 1a 91 3d 7a f2 25 3d 90 53 fa 3c 00 36 12 bd
       0.07085071 0.040514447 0.030557424 -0.03569603
000020 aa fa 77 3d b0 d7 96 3c 80 4b a4 bd b7 9f 81 bd
       0.060541786 0.018413395 -0.08022213 -0.06329291
000030 28 47 10 bd ba e2 5b 3d af 61 99 bd 22 df 2b 3d
       -0.03522411 0.05368302 -0.07489335 0.041960843

radarnet.encoder.Wxf.weight f4 [16, 1, 3, 3]
000000 e0 8b 41 3d 60 0f 67 bd 74 91 bc 3d 6e 29 7d 3e
       0.047252536 -0.056411147 0.092074305 0.24722835
000010 36 ab fd bd 94 d5 9b be d8 2f 52 bd a8 90 15 bd
       -0.123861715 -0.30436385 -0.05131516 -0.036514908
000020 b1 76 94 3e dc 4b 94 3d f8 6e 35 be 60 86 fd 3d
       0.28996804 0.072410315 -0.17718112 0.123791456
000030 a0 70 1c 3d 70 5d b0 3c 20 03 50 bd e8 a2 5b 3d
       0.038193345 0.02152893 -0.05078423 0.053622156
000040 c4 d4 f8 3d 3c 37 fd 3d 4c 00 98 be 20 8c f6 bd
       0.12149957 0.12364051 -0.29687726 -0.120384455
000050 38 f3 35 be 13 6e 4a be b5 6c a1 3e 38 2e 27 be
       -0.17768562 -0.19768552 0.3152825 -0.16326225
000060 3b 9f 3a be fa 8f 5a 3e fb bd 13 be ab c5 8c be
       -0.18224804 0.21343985 -0.1442794 -0.2749456
000070 5b a3 5d be 1b cf 99 be c1 64 a7 3e 18 b2 a0 be
       -0.21644346 -0.3004082 0.32694057 -0.31385875
000080 39 59 86 3e 98 cc 2b 3d 2b c2 44 be 42 9b 6d 3e
       0.26239946 0.041943163 -0.19214694 0.23203757
000090 e0 34 9a be 98 10 43 be eb 40 2c be 50 ce 9a 3c
       -0.30118465 -0.19049299 -0.16821639 0.018897206
0000a0 b6 fd 30 be 85 17 a4 3e d4 93 ae 3d 78 68 4e bd
       -0.17284283 0.32049194 0.0852429 -0.050392598
0000b0 65 fb a4 3e 0c fe 9f bd 00 04 ba 3c 79 02 9d 3e
       0.3222305 -0.078121275 0.022706985 0.3066595
0000c0 0e c2 3d be 60 00 ab 3d 1c fe f2 3d 04 a0 9a be
       -0.18531057 0.08349681 0.11864874 -0.30200207
0000d0 e5 de 8c 3e 66 3e 7b be 3f ec 9e 3e fb 0a 26 be
       0.27513805 -0.24535522 0.31039616 -0.16215126
0000e0 2c 51 aa be 38 f1 1f be b9 51 96 3e 5c 9a 95 3d
       -0.33265054 -0.15619361 0.29359224 0.07304832
0000f0 50 19 c6 bd e8 d9 00 be 56 bb 42 be f0 d5 96 bc
       -0.09672797 -0.12583125 -0.19016775 -0.01841256
000100 8a 79 7b 3e c2 ff 48 3e 00 db cd ba d8 d8 1c 3e
       0.24558082 0.19628814 -0.0015705526 0.15317094
000110 c8 19 8a be ea cb 0f 3e f8 23 27 be 88 d4 87 be
       -0.26972795 0.14042631 -0.16322315 -0.26529336
000120 3e c1 73 3e 60 86 62 bd 50 06 83 3d 00 24 c1 bc
       0.23804185 -0.05530393 0.063976884 -0.023576736
000130 88 74 11 be 76 e7 6b 3e db 8a 85 be 9a d6 08 3e
       -0.1420461 0.23037514 -0.260825 0.13363114
000140 b0 88 24 3e ab 3c 28 be 6e c8 9a be 7b fc 8d 3e
       0.16067767 -0.16429393 -0.3023104 0.2773169
000150 02 40 51 3e 3c 6a cd bd 68 c9 38 be db 3a 2b be
       0.20434573 -0.10030028 -0.1804558 -0.1672167
000160 a0 3f 84 be a9 e9 85 3e 78 5d 04 3e 70 6b a9 3c
       -0.25829792 0.2615483 0.1292628 0.020681113
000170 62 04 71 3e 0e 38 70 be 46 16 47 3e 76 f0 da bd
       0.23536828 -0.23458883 0.1944209 -0.106903955
000180 70 54 fd 3d f7 e3 9e 3e b0 70 16 3e b0 79 0c 3e
       0.12369621 0.31033298 0.14691424 0.13718295
000190 2f 36 8d 3e c8 92 9d be ee 96 55 3e c0 44 4f be
       0.275804 -0.30776048 0.20858356 -0.2024107
0001a0 e0 35 28 3d 8c 50 9a 3d 1a ce 9b be f0 fd e8 3c
       0.041067004 0.07534894 -0.3043068 0.0284414
0001b0 90 37 ee bd 12 20 46 3e 98 2c a8 be 10 30 a0 3c
       -0.116316915 0.19348171 -0.32846522 0.019554168
0001c0 b3 53 35 be 36 e8 b7 bd d8 d0 16 be 20 bb 3a 3c
       -0.1770771 -0.089798376 -0.14728105 0.011397153
0001d0 78 a0 49 3d 88 4a 55 3d d6 c7 4c be 4e 9a 3c 3e
       0.0492253 0.05207303 -0.19998106 0.18418238
0001e0 08 71 13 3d c8 38 07 3e ab 6e 97 3e 80 8c 90 bc
       0.035996467 0.13205254 0.2957662 -0.01764512
0001f0 c0 e9 a9 3d d5 eb 87 3e 58 9a 16 3d d8 ef 41 be
       0.082965374 0.26547113 0.036768287 -0.1893915
000200 8c 61 8a 3d e0 7e 93 3d 5c 1f 96 bd 66 5b d5 bd
       0.06756887 0.07201934 -0.073302 -0.104178235
000210 66 f2 bb bd 60 b0 10 be 18 ef 40 bd 49 b3 88 3e
       -0.09177093 -0.14129782 -0.047103018 0.26699284
000220 76 a4 18 3e c0 c2 97 bc c3 8a a8 be ae a1 3b be
       0.14906487 -0.018525481 -0.32918367 -0.18323395
000230 d6 6f 6f 3e f8 85 1a 3e dd 8b a2 3e 50 fc a7 3d
       0.23382506 0.15090168 0.31747332 0.08202422

radarnet.encoder.Wxf.bias f4 [16]
000000 60 77 16 be d8 c1 27 3e 11 9a 84 3e 18 a3 69 bd
       -0.14693975 0.1638254 0.25898793 -0.057040304
000010 5c 36 fe 3d 40 dc c8 bb 0b fc 95 3e c3 11 9f be
       0.12412712 -0.0061297715 0.29293856 -0.3106824
000020 78 30 79 be aa 39 8f be 10 6c a0 bc fa 9f 5c 3e
       -0.24334896 -0.27973682 -0.019582778 0.21545401
000030 40 22 8b 3c 05 8c 85 3e b0 f5 b4 bc e8 1b 3a bd
       0.016984105 0.2608339 -0.02208981 -0.04543677

radarnet.encoder.Whf.weight f4 [16, 16, 3, 3]
000000 f2 4c 2f 3d 91 82 8f 3d d0 0d a8 bc c8 8d 83 bd
       0.04279799 0.070073254 -0.020514399 -0.06423527
000010 00 0f d6 b9 4a c6 76 3d 15 97 82 3d 22 ba 84 bd
       -0.00040828437 0.060247697 0.06376473 -0.064808145
000020 82 3d 4d 3d 22 fb 99 bd 08 47 41 3c c0 32 61 3c
       0.050107487 -0.07518603 0.01179672 0.01374501
000030 3b f3 a0 3d 04 3c 83 3c 10 a3 f3 3c 4e 77 01 bd
       0.078588925 0.016019829 0.02974084 -0.03160792
000040 a8 56 0e 3c 90 b8 40 bd 30 76 fd 3b 0a 72 48 3d
       0.008687653 -0.047051013 0.0077350363 0.04893688
000050 6a a2 4c 3d 5e f2 a0 bd b6 15 d5 bc 30 f3 e7 3b
       0.049959578 -0.07858728 -0.02601133 0.0070785508
000060 5d 85 8b 3d e0 33 22 bd e4 92 e8 3c d8 45 11 bd
       0.068125464 -0.039600253 0.028390355 -0.035467
000070 c0 34 b0 3c 76 a7 68 3d 98 2b 35 bc 3b 1e 58 bd
       0.021509528 0.05680033 -0.011057757 -0.052763205
000080 c3 88 2a bd f3 44 25 bd 33 f8 9c bd 72 b9 0c 3d
       -0.041634332 -0.04034896 -0.07664528 0.034356542
000090 30 df dc 3c 3d ba 99 3d e1 07 a2 3d 62 4b 8e bd
       0.026961893 0.07506225 0.07911659 -0.06947972
0000a0 26 b7 38 bd 40 67 aa 3b f4 4a 9f bd e0 39 64 bb
       -0.04509654 0.0052002966 -0.07777968 -0.0034824535
0000b0 50 e5 26 3d 74 f7 80 3c a6 ff 77 3d c0 7b 4e bc
       0.040746033 0.015742995 0.06054654 -0.0126027465
0000c0 77 e5 98 3d 06 36 e7 bc 10 d1 83 bb be 06 96 bd
       0.07465642 -0.028224003 -0.004022725 -0.07325505
0000d0 da b2 62 3d 48 6b 72 bc e0 8f 95 3c bc 52 87 bd
       0.055346347 -0.014796086 0.018257082 -0.06607577
0000e0 bc da 9b 3c dc 02 82 bc 5e 77 26 3d b8 1d 11 bd
       0.0190252 -0.015870504 0.04064118 -0.035428733
0000f0 f2 f8 7e 3d 00 bc 95 ba 70 d2 b6 3c 96 ef 57 3d
       0.06224913 -0.0011423826 0.022317141 0.05271872
000100 77 f5 84 3d 62 6b 55 3d 88 20 26 3c cc 9d cc bc
       0.06492131 0.05210436 0.010139592 -0.024977587
000110 44 03 91 3c 16 1e 66 bd 5f 81 92 3d 98 23 5c bc
       0.017701752 -0.056181036 0.07153582 -0.013436221
000120 30 c4 3a bd 91 63 a1 3d b7 bb a4 bd 50 e2 d9 3c
       -0.045597255 0.07880319 -0.08043616 0.026597172
000130 48 5b 26 bc 3b 32 84 3d f6 e7 6a bd e8 c5 07 bd
       -0.010153599 0.06454893 -0.05735012 -0.033147722
000140 68 d5 30 bc 9b 83 19 bd c0 c5 ce 3c 26 ea 5d bd
       -0.0107930675 -0.037479024 0.025240779 -0.05417838
000150 20 a3 34 3c 28 6b 81 bd 60 ce 76 3c 7a 7d 13 3d
       0.01102522 -0.063192666 0.015063852 0.036008336
000160 e8 8b 68 bc 95 d8 a8 3d ac c1 d0 bc f8 6e 40 bd
       -0.0141935125 0.08244435 -0.025482975 -0.046980828
000170 7e 5b 94 bd c6 fe d5 bc 2e e1 34 3d aa 6c 61 3d
       -0.07244013 -0.026122462 0.04416006 0.05503527
000180 d0 8c 3c bd f0 6f 9f bd 78 ca 4f bd 0e 76 5f 3d
       -0.046032727 -0.07785022 -0.0507302 0.054555945
000190 50 73 fc bb 70 f8 d5 3c bf b9 8b bd 36 fb 2c 3d
       -0.007704176 0.02611944 -0.06822538 0.04223176
0001a0 3c bb b4 3c 60 0d 0f bd 18 55 1f 3d 10 e4 7c bd
       0.022061937 -0.034924865 0.03889951 -0.061740935
0001b0 50 87 90 bb 63 6c 3f bd 00 df 92 bd 30 0b 92 bb
       -0.0044106618 -0.046734225 -0.0717144 -0.0044569
0001c0 2c d3 d8 bc f6 cf 10 bd 32 c0 88 bd a8 b8 37 bd
       -0.026467882 -0.035354577 -0.06677283 -0.044853836
0001d0 b2 3e 8f bd 2e 5b 62 bd 20 f8 c4 bc b2 d0 36 3d
       -0.0699438 -0.055262737 -0.024044096 0.04463262
0001e0 b6 ff df bc 3b e2 39 bd f4 8c 85 bd a6 f1 7b 3d
       -0.027343612 -0.045381766 -0.06521025 0.06150975
0001f0 20 ac 42 3b a1 65 93 3d 50 34 a7 3b f5 ff a2 3d
       0.0029704645 0.071971186 0.0051026717 0.07958976
000200 20 19 3f bb 20 2f 4b bc 21 50 94 3d e2 99 78 3d
       -0.0029159263 -0.012401372 0.07241846 0.06069363
000210 52 40 99 bd a0 87 19 3d fb 98 85 bd eb 04 a3 bd
       -0.07482971 0.037482858 -0.06523319 -0.079599224
000220 a0 90 98 3c 86 e0 7e 3d 78 6b 4a bd 00 c6 83 3a
       0.01862365 0.06222584 -0.049418896 0.0010053515
000230 58 03 10 bc aa 34 2c 3d ea ea 63 3d 66 21 84 bd
       -0.00878986 0.042042412 0.055643953 -0.06451683
000240 70 80 a9 3b 90 71 eb bb 3a fc 67 3d b6 23 38 3d
       0.0051727816 -0.0071851686 0.056637026 0.04495593
000250 b8 91 9e bd c9 2f 9b 3d 9e 31 05 3d 70 d4 b2 3c
       -0.077426374 0.07577474 0.03251802 0.021829814
000260 08 e8 7c bd 22 4b 59 3d b3 4e 16 bd f2 f2 65 3d
       -0.06174472 0.053050168 -0.036696147 0.056139894
000270 ee 86 21 bd 40 c8 80 3a 44 cf 95 bc b9 ab 94 3d
       -0.03943532 0.0009825304 -0.018287309 0.07259316
000280 4b 04 2c bd 8e ea 33 bd ce d4 5c bd 46 27 27 3d
       -0.04199628 -0.04392486 -0.053913884 0.04080894
000290 46 72 3c bd 83 dd 9c 3d 03 69 1d bd 88 85 73 bc
       -0.046007417 0.076594375 -0.038430225 -0.014863379
0002a0 d8 0d 1e 3c b0 9c a8 bc d7 7f 88 3d 1c 01 ff bc
       0.009646855 -0.020582527 0.066650085 -0.031128459
0002b0 10 59 89 bb 5e a5 0e 3d 9b af 56 bd 22 43 a3 bd
       -0.0041915253 0.034825675 -0.052413564 -0.07971789
0002c0 b2 dd 2d 3d 66 0a 46 bd a7 b7 89 3d a0 34 9c bd
       0.042447753 -0.04834976 0.06724482 -0.07627225
0002d0 73 1c 9d bd 6e 63 54 bd ee da 45 bd 10 2e 91 bd
       -0.07671442 -0.051852636 -0.04830449 -0.07088864
0002e0 2b 50 81 bd 58 66 50 bd 20 bc 6a 3b 18 a8 77 3c
       -0.06314119 -0.050878853 0.0035817698 0.01511576
0002f0 ab d6 21 bd 4c da 88 3c 61 f7 a4 3d a0 03 5f 3c
       -0.039511364 0.016705655 0.08054996 0.013611704
000300 78 3c 7f bd be ce 76 3d 90 d8 c5 bc 4e 77 11 bd
       -0.062313527 0.06025576 -0.024151117 -0.03551417
000310 7e e0 0c bd d0 f3 d0 bb 30 e1 a7 bd 7c f5 b8 3c
       -0.03439378 -0.006376721 -0.08197248 0.022577994
000320 de e0 3e bd 84 98 b5 3c b0 a5 49 bd 80 f5 b5 3c
       -0.04660117 0.022167452 -0.049230278 0.02221179
000330 58 12 37 3c 77 81 98 3d 3c f1 b5 3c d2 2f 67 3d
       0.011173807 0.074465685 0.022209756 0.05644209
000340 10 b2 e6 3c 40 44 d0 bc e3 d5 4c bd c2 4b 40 3d
       0.028161079 -0.02542317 -0.050008666 0.04694725
000350 93 9e 9b 3d 95 d3 8f 3d 19 25 9d 3d 6c c3 ec 3c
       0.07598605 0.07022778 0.076730914 0.028901778
000360 e8 9f 3c bd 20 b8 0f bc 98 a3 23 3c 58 b2 04 3c
       -0.046050936 -0.008771926 0.009987734 0.008099161
000370 62 08 3d 3d 70 e8 a9 bb 06 89 4b bd 22 85 5d 3d
       0.046150573 -0.0051851794 -0.049691223 0.054082043
000380 98 ec 4b 3c 78 21 7c 3c 60 45 6f 3c 52 d2 62 3d
       0.012446545 0.015388839 0.014603943 0.05537636
000390 28 aa 0d 3c e0 c9 7b 3c de e3 a5 bd 3a 5d 78 3d
       0.008646525 0.015367955 -0.08100103 0.060635783
0003a0 09 22 a6 3d 70 8b d0 3c f8 41 2a bd b6 1b c3 bc
       0.081119604 0.025457114 -0.04156682 -0.023816925
0003b0 07 f5 93 bd 40 5c 56 bc 96 5f 1c 3d 74 65 db 3c
       -0.0722447 -0.013083518 0.038177095 0.026781775
0003c0 40 4f 5f bd 56 00 2e 3d 80 b7 77 3a de c3 56 bd
       -0.054518938 0.04248079 0.0009449646 -0.052432887
0003d0 a1 8a 89 3d 20 b9 04 3d 6e 2c 3e bd fb c0 9c 3d
       0.067158945 0.03240311 -0.04642909 0.076539956
0003e0 de b5 7b 3d 7f c1 80 3d 98 93 21 3d 5c fd 96 3c
       0.06145274 0.062869065 0.039447397 0.018431358
0003f0 82 4b 98 bd 52 73 49 3d b4 01 fa 3c 84 4f c4 3c
       -0.07436277 0.049182244 0.03051839 0.023963697

radarnet.encoder.Whf.bias f4 [16]
000000 5d 44 9c 3d f0 17 8a 3c c8 d9 4a 3c b9 78 a6 3d
       0.07630227 0.016857117 0.012381025 0.08128495
000010 51 ee 99 3d d6 98 8c bd 7e 94 04 bd ee 80 37 3d
       0.07516158 -0.06865089 -0.032368176 0.04480069
000020 3e 20 6c 3d 80 b0 32 3a 42 da 0a 3d ee e0 24 bd
       0.057647936 0.00068164617 0.033899553 -0.040253572
000030 80 16 02 3c b4 7c 82 bc c0 bf ef 3b 10 d6 bf bc
       0.007939935 -0.015928604 0.0073165596 -0.023417503

radarnet.encoder.Wxc.weight f4 [16, 1, 3, 3]
000000 80 dd 19 3e 96 14 8a be 88 ad a4 be 02 cf 16 3e
       0.15025902 -0.2696883 -0.32163644 0.14727405
000010 cc 91 83 bd 6a 05 9c be bc 28 ee bd 20 b3 2a 3c
       -0.06424293 -0.3047288 -0.11628863 0.010418683
000020 a0 49 69 bc 28 39 00 be 20 d9 08 3e 94 eb a5 3d
       -0.014238745 -0.12521803 0.13364077 0.081015736
000030 fc 8a e2 bd e8 60 37 be 98 da 61 3d e0 e1 67 bd
       -0.110616654 -0.1790806 0.055140108 -0.056611896
000040 00 9c 4b bb b3 47 85 3e a5 71 8d 3e 0c 84 ec bd
       -0.0031068325 0.26031265 0.27625766 -0.115486234
000050 28 d1 7f 3d 34 e9 80 bd 3a d4 a6 be 00 88 7d bb
       0.062455326 -0.0629448 -0.3258379 -0.0038685799
000060 39 5b 9f 3e 7e 5e 50 be 4e fe 40 be 2a 0b 51 3e
       0.31124285 -0.20348546 -0.1884701 0.20414415
000070 be 3b 47 be 8e dd 46 be 00 e0 74 39 80 73 09 be
       -0.19456384 -0.19420454 0.000233531 -0.13422966
000080 66 f9 d5 bd 50 8e e7 3c 32 0e 67 3e 26 09 7b be
       -0.104479596 0.028266102 0.22564009 -0.24515209
000090 7b 6e 02 be ea 29 29 3e d6 40 44 be 58 d6 58 bd
       -0.12737457 0.16519895 -0.19165358 -0.05293879
0000a0 a6 4a 59 3e 53 50 8f be 5c f0 f5 bd 20 3d 3d bc
       0.21219882 -0.2799097 -0.120087355 -0.011550218
0000b0 00 b4 fe bd 98 b8 34 bd cc 3a c7 bd e9 4e a1 3e
       -0.12436676 -0.044121355 -0.097280115 0.31505516
0000c0 a8 32 56 be 0a c5 35 3e e0 ab ba bd ec 60 c1 bd
       -0.20917761 0.17750946 -0.09114814 -0.094423145
0000d0 90 13 9b bc 50 22 e9 3d 4b e6 59 be 1e 5d 65 3e
       -0.018930227 0.11383498 -0.21279256 0.22398803
0000e0 d8 02 52 3d 46 90 4a be 60 ad 12 3c 4e f0 3a 3e
       0.051272243 -0.19781598 0.008952469 0.18255731
0000f0 96 73 08 3e d8 4d 31 be 22 51 6e 3e 99 84 82 3e
       0.13325343 -0.17314851 0.23273137 0.2549179
000100 a9 16 94 3e 24 37 84 3d 90 50 7c be 08 d4 34 be
       0.28923538 0.0645583 -0.24640107 -0.17659009
000110 b2 29 52 3e b1 3b aa 3e 48 9b 89 be ea 0b 06 3e
       0.20523718 0.33248666 -0.26876283 0.13090482
000120 9b 0b 0d be a4 08 ec 3d 3a b3 a1 be 2b dd 6b be
       -0.13773958 0.115250856 -0.31582052 -0.23033588
000130 7e 5a 17 be 33 25 68 be d2 34 49 3e e5 5e 9b 3e
       -0.14780614 -0.2267044 0.19649056 0.30345836
000140 df 0c a3 3e 89 12 97 3e 4e ae 63 3e aa fd 6e 3e
       0.31845757 0.2950633 0.2223446 0.23338953
000150 9e fa 27 be 06 f3 d6 bd c3 77 84 3e 98 09 4e be
       -0.16404197 -0.10495572 0.2587262 -0.20120847
000160 b4 f3 c7 3d 78 5e 52 3d f0 34 87 3d d8 df 74 3d
       0.097632796 0.051359624 0.06601894 0.059783787
000170 30 6e 13 3e 80 cb 83 bd 72 6a 65 3e 2a 6d 14 3e
       0.14397502 -0.06435299 0.22403887 0.14494768
000180 48 47 7a 3d 00 f8 fc 3d 16 28 06 3e d7 c9 80 3e
       0.061103135 0.1235199 0.13101229 0.25153992
000190 0e 32 64 be c0 b3 7f be 51 66 93 3e 4e e1 6d 3e
       -0.2228472 -0.24970913 0.28789 0.23230478
0001a0 20 9d c3 3d cc d3 eb 3d 9a dd 2f 3e 1c 27 a1 be
       0.095514536 0.115150064 0.17174378 -0.3147515
0001b0 71 4a 8e 3e e0 e0 36 bd 60 77 df bd c0 b0 8f bd
       0.2779117 -0.04464805 -0.10911441 -0.07016134
0001c0 18 60 a7 be 22 f5 3f 3e 60 20 19 3d e6 d7 ab bd
       -0.326905 0.18745854 0.03738439 -0.08390789
0001d0 f3 54 6d be cc 82 df 3d ee 67 a4 be 80 d6 72 3c
       -0.23176937 0.109136194 -0.32110542 0.014821649
0001e0 2e 39 52 be 4a 57 95 be f2 9a 2c 3e 40 37 f2 bd
       -0.20529625 -0.2916816 0.16855982 -0.11826944
0001f0 2b 27 8c 3e a3 68 99 be 3c 77 81 3d e6 aa 3a be
       0.27373633 -0.29962644 0.0632157 -0.18229255
000200 e2 b6 51 3e 9c c3 87 bd 60 e1 5e bd 52 22 0f 3e
       0.2047992 -0.066291064 -0.054414153 0.13977936
000210 80 0d 18 bd 00 ea cb 3b de 69 70 be d2 a3 4c 3e
       -0.03712225 0.0062229633 -0.23477885 0.19984367
000220 90 1c aa 3d e0 02 13 3d 65 47 8f 3e 3e eb 36 3e
       0.08306229 0.035891414 0.27984157 0.17863175
000230 a2 d1 61 3e ab 0e 5e be 80 ea c1 3c 03 3b 1f be
       0.22052625 -0.21685283 0.023671389 -0.15549855

radarnet.encoder.Wxc.bias f4 [16]
000000 70 79 2a be d4 8e b1 3d 4c 73 89 bd b0 15 85 3d
       -0.16647887 0.086698204 -0.06711444 0.06498277
000010 b2 84 a3 be 68 cc 5e be f0 ec 15 be 6b 22 84 be
       -0.31937176 -0.21757662 -0.14641166 -0.2580751
000020 40 c1 f3 3d 4d 5c 86 3e 09 86 a3 3e 8d fc 85 3e
       0.11902094 0.26242295 0.31938198 0.26169243
000030 60 ad 77 3c 47 13 96 be 2a 36 70 3e 11 ce 9f 3e
       0.015117019 -0.29311582 0.23458162 0.31211904

radarnet.encoder.Whc.weight f4 [16, 16, 3, 3]
000000 75 f6 96 3d 2b 43 6a bd da f0 64 3d 46 3c 3c 3d
       0.07371227 -0.057192963 0.055893756 0.04595592
000010 9e 32 32 bd 80 8f 3c ba 98 8a 12 3d d6 66 e1 bc
       -0.043505304 -0.0007193014 0.035776705 -0.027514856
000020 d9 7d 98 3d 28 bd 3b 3c c0 7c 38 bc 03 82 6f bd
       0.074458785 0.011458673 -0.0112602115 -0.0584736
000030 fa 4d 29 3d f6 18 a3 bd 26 88 03 bd d3 e4 90 bd
       0.04133413 -0.07963745 -0.032112263 -0.07074895
000040 f7 82 83 bd 88 20 4f 3c 59 ca 8b 3d b6 78 fa bc
       -0.06421464 0.012642033 0.06825704 -0.030575138
000050 70 a9 0c bd e4 51 98 3c 68 22 40 bd 98 08 6d bd
       -0.034341276 0.018593736 -0.046907812 -0.057869524
000060 d2 74 42 3d 61 d4 96 3d 48 36 31 3c f4 e5 88 bc
       0.04747469 0.07364727 0.010816164 -0.016711213
000070 f0 77 d9 3c a8 d0 a9 bd c8 c2 39 bd c0 a2 a4 bd
       0.026546448 -0.08291751 -0.045351774 -0.080388546
000080 6b 3f 60 bd c0 8c 26 bc c0 bd cf ba d2 9d 82 bd
       -0.05474798 -0.010165393 -0.0015849397 -0.06377758
000090 9c d5 d1 bc 3c 8e d6 bc 91 09 90 3d 1e a9 0a bd
       -0.025614552 -0.02619087 0.07033075 -0.03385269
0000a0 66 cf 25 3d 9c 69 8c bc a8 51 3c 3c 93 f0 73 bd
       0.040480994 -0.017140202 0.011494078 -0.0595556
0000b0 07 97 a1 bd a1 ee a2 3d 30 62 ee bb ef 29 92 3d
       -0.07890134 0.07955671 -0.0072748885 0.071369044
0000c0 2e 8d 6d bd e5 39 92 3d e3 55 87 bd f0 ff b3 3c
       -0.057995968 0.07139949 -0.066081785 0.021972626
0000d0 d2 7c 63 3d 23 c7 a1 bd c8 84 47 3c 1e a1 84 bd
       0.05553896 -0.078993104 0.012177654 -0.06476043
0000e0 7d 85 8d 3d a0 33 75 bd 90 b0 04 bd d3 58 0a bd
       0.069102265 -0.059863687 -0.032394946 -0.033776116
0000f0 90 bc 0c bd 76 b5 e5 bc 04 4c 8b 3c 64 d8 dc 3c
       -0.034359515 -0.028040629 0.01700402 0.026958652
000100 1b 66 97 3d 5a c7 55 3d 90 02 97 bc be 8b 5e bd
       0.07392522 0.05219207 -0.01843384 -0.054332487
000110 08 cf 3f 3c 9e 71 06 bd b8 9f 5f bc 58 2e 44 bc
       0.011707075 -0.032823198 -0.01364892 -0.01197394
000120 b2 6e 31 3d 3e 68 5c bd a7 0c 92 3d f2 a6 88 bd
       0.043318458 -0.05381035 0.071313195 -0.06672467
000130 bc fc c9 3c 1c 52 ba bc f3 72 09 bd 3a 1e 74 3d
       0.024656646 -0.02274423 -0.03355689 0.05959914
000140 86 a3 2e 3d 80 bd 5b ba 50 e3 14 bd d2 2b 5f 3d
       0.042636417 -0.0008382425 -0.036349595 0.05448515
000150 40 ac 8c 3c 08 82 6a bd 6a b9 10 3d e2 77 68 3d
       0.017171979 -0.057252914 0.035333075 0.056754954
000160 36 eb 52 3d 3c 1c c9 bc af 1c 8e bd 88 63 aa bd
       0.051493846 -0.024549596 -0.06939065 -0.08319765
000170 00 47 45 bc dc b9 9d bc 07 f2 a5 3d 40 c8 a5 3b
       -0.0120408535 -0.019253664 0.08102804 0.005059272
000180 cc 0c ec bc b0 a1 bd bb b3 32 19 bd 50 e5 15 bd
       -0.028814696 -0.005787097 -0.037401866 -0.036595643
000190 bd 71 a3 3d a0 82 13 bb 26 fc 2a bd fc 96 8f bd
       0.07980678 -0.0022508278 -0.041744374 -0.0701122
0001a0 63 36 69 bd f0 b9 c9 3b b6 f4 31 3d c9 34 8b 3d
       -0.056936633 0.0061561987 0.043446265 0.06797177
0001b0 00 33 06 bb d6 21 15 bd 8b 86 4e bd 24 67 97 bd
       -0.0020477176 -0.03640922 -0.05042128 -0.073927194
0001c0 10 5b bb bb 8a c9 a5 bd 95 90 9f 3d 50 f0 c1 bb
       -0.0057176426 -0.08095081 0.07791249 -0.00591854
0001d0 bb 66 86 3d ff f1 84 bd ae 17 4a bd 80 a5 9f bb
       0.06562563 -0.064914696 -0.04933899 -0.004872024
0001e0 20 03 09 3c a1 9a a1 3d 10 46 be 3c ae 73 7d bd
       0.008362561 0.07890821 0.023226768 -0.0618779
0001f0 08 7e 8d bd b9 20 9b 3d d5 e0 9b 3d 03 52 55 bd
       -0.06908804 0.07574601 0.07611243 -0.052080166
000200 81 d7 82 3d 0d 4a 9f 3d 12 6f 35 3d 6e cc 99 bd
       0.0638876 0.07777796 0.044295378 -0.07509695
000210 50 6f ef bc a6 f4 11 3d 7b 12 6a bd d3 b1 92 3d
       -0.029227883 0.035633706 -0.05714653 0.071628235
000220 50 65 d5 3b ea 3e 52 3d c7 a9 a0 3d 98 ed 05 3c
       0.0065123215 0.05132953 0.078448825 0.008174323
000230 00 dd 59 bd 5e 60 6e 3d 80 e9 0a ba a4 b1 8c 3c
       -0.053189278 0.05819737 -0.00052990764 0.01717455
000240 46 3a 6a 3d 43 ca 9a bd 40 6b a5 ba 98 82 4f bd
       0.05718448 -0.075581096 -0.0012620464 -0.050661653
000250 b0 bc 5e bd 5e 18 1b 3d 54 1f 89 bc 5c 22 a8 bd
       -0.054379165 0.037865035 -0.016738571 -0.082096785
000260 b3 69 63 bd e6 c7 7e bd d0 3d 91 bd 76 66 81 bd
       -0.055520725 -0.062202357 -0.07091868 -0.06318371
000270 30 96 a7 bc 8a bf 81 bd 05 3c a3 3d 7e ca 09 bd
       -0.020457357 -0.06335361 0.07970432 -0.033640377
000280 eb 93 80 3d ac c1 a7 3c 36 33 38 bd 48 38 18 bd
       0.06278213 0.020478092 -0.044970714 -0.03716305
000290 16 8c 76 bd 88 d1 65 3c d4 17 83 3c ca f5 1b 3d
       -0.06019219 0.014027007 0.016002573 0.0380762
0002a0 4e a5 80 bd 20 70 a5 bc 08 08 44 bd ee d3 40 bd
       -0.06281529 -0.020195067 -0.04785922 -0.047077112
0002b0 d2 4e 62 3d 60 c6 0b 3d c4 78 a9 3c 4d 87 9c 3d
       0.05525095 0.034124732 0.020687468 0.07642994
0002c0 78 48 56 bc e6 aa e6 bc a0 a1 a1 bc 10 4e ae 3c
       -0.013078801 -0.028157663 -0.01973039 0.021277457
0002d0 1a 48 67 3d 0d dd 84 3d 7a e8 64 3d 42 5a 49 3d
       0.056465246 0.064874746 0.05588577 0.049158342
0002e0 9b 3e 78 bd 90 ac bc 3c f8 88 60 bd 54 e7 85 3c
       -0.06060658 0.023031503 -0.054818124 0.016345657
0002f0 9b d5 11 bd d4 87 b3 3c 42 87 85 bd d0 0b b3 3b
       -0.0356041 0.021915354 -0.06519939 0.0054640546
000300 65 55 81 3d 7a b3 16 3d 0c 42 84 bd 8e ea 77 3d
       0.06315116 0.036792256 -0.0645791 0.060526423
000310 f3 d8 57 bd 48 02 5b 3c e2 4a 09 3d dc 7b cf 3c
       -0.052697133 0.013367243 0.03351868 0.025327615
000320 38 8a 77 3c 1b 7e a2 3d 9a 99 28 3d 78 32 78 bc
       0.0151086375 0.07934209 0.04116211 -0.015148751
000330 a8 de 68 bd e8 73 04 3c d8 d5 83 bd ef 59 a4 bd
       -0.056852967 0.008084275 -0.06437272 -0.08024966
000340 3b 09 03 bd 60 03 a8 bd 8a 01 58 3d 2c f4 9d bd
       -0.031991225 -0.08203769 0.052735843 -0.07712588
000350 60 7d 09 bb 0b c9 11 bd b7 b4 82 3d 02 4b 20 3d
       -0.002097927 -0.03559212 0.06382125 0.039134033
000360 03 a6 41 bd 0b 35 a0 3d 3c 50 a6 bc 58 32 59 bc
       -0.04727746 0.07822617 -0.02030193 -0.013256632
000370 a0 ab 29 3c fa 50 01 3d 22 a3 17 3d e1 ac 9a 3d
       0.01035586 0.031571366 0.03702081 0.07552505
000380 e0 9e c3 3c 20 2a 27 3d 26 a6 9b bd d8 6b 37 bd
       0.023879468 0.040811658 -0.0760005 -0.044780582
000390 fc 71 f8 bc 82 b1 11 3d e8 93 8b bd 18 0b 69 3c
       -0.03032779 0.035569675 -0.0681532 0.014223836
0003a0 a6 74 df bc 18 e4 47 bd 10 6a f1 bc 24 4a 96 3c
       -0.027277302 -0.04880151 -0.02946952 0.0183459
0003b0 05 77 8b 3d 7e 06 87 bd 9e 0d aa bd b3 a7 51 bd
       0.068098105 -0.06593035 -0.083033785 -0.05118532
0003c0 24 1f ef 3c 9c 13 80 bc e2 b0 25 3d f8 b7 26 3c
       0.029189654 -0.01563435 0.04045189 0.0101756975
0003d0 39 67 87 3d c6 4e c9 bc e3 81 98 3d 18 df 0f 3d
       0.06611485 -0.024573695 0.07446649 0.03512487
0003e0 c8 f0 47 3c de ea 67 3d a2 9a 6b 3d a4 67 d5 3c
       0.012203403 0.05662047 0.057520516 0.026050396
0003f0 fe 52 11 3d 54 e1 94 bc 59 80 a1 3d 00 48 7a ba
       0.03547954 -0.018173851 0.078858085 -0.0009547472

radarnet.encoder.Whc.bias f4 [16]
000000 40 9f b6 bb f4 56 93 3c 73 aa 16 bd 16 18 bd bc
       -0.0055731833 0.017985798 -0.036783647 -0.023082774
000010 c0 69 76 bc 12 47 89 bd 25 14 8b 3d 69 7f 98 3d
       -0.015039861 -0.06703009 0.06790952 0.074461766
000020 20 17 7f bc 4c e7 95 bc 08 44 1d bd 13 49 5d bd
       -0.015569478 -0.018298768 -0.038394958 -0.054024767
000030 4b d3 61 bd 23 18 47 bd 2d 8f 9a 3d 12 1d 49 3d
       -0.055133145 -0.048607003 0.0754684 0.04909999

radarnet.encoder.Wxo.weight f4 [16, 1, 3, 3]
000000 5c 30 a7 bd 4c 08 82 bd 1c aa d1 3d 8c 13 86 3d
       -0.08163521 -0.06349239 0.10237524 0.06546697
000010 d9 40 82 3e 90 b1 6b be 56 2a c5 bd 50 a4 74 be
       0.254401 -0.23016953 -0.096272156 -0.23890805
000020 5c 2f 83 3d 33 17 4a be 48 ce 66 bd 00 04 9a 3b
       0.064055175 -0.19735412 -0.05634907 0.004700184
000030 cb b6 96 be 26 50 f9 bd 6a 58 7a 3e 36 78 33 be
       -0.29436335 -0.1217349 0.2444779 -0.17526326
000040 d0 9a 57 be 92 95 61 3e 06 1e 67 3e 46 74 48 3e
       -0.2105515 0.22029713 0.22570047 0.19575605
000050 60 12 9a bd 13 23 17 be f9 d4 85 3e 86 8d 31 3e
       -0.07523036 -0.14759474 0.26139048 0.17339143
000060 02 80 05 3e 80 f5 25 3c 15 56 a9 3e 0c 8e d2 bd
       0.13037112 0.010129333 0.33073488 -0.102809995
000070 70 db 95 3d 64 f1 84 be e6 bd fe bd 10 1a a0 3d
       0.07317245 -0.25965416 -0.12438564 0.07817471
000080 bc 8c 8a 3d b2 e2 66 3e 1e 40 3a be 55 80 a6 3e
       0.06765124 0.22547415 -0.18188521 0.32519785
000090 2e db 16 be 76 55 44 3e c6 d2 ff bd 70 55 88 bc
       -0.14732048 0.19173226 -0.12491374 -0.016642302
0000a0 86 ff ec bd 40 9c ce 3b f8 17 80 be 64 28 c9 3d
       -0.11572175 0.0063052475 -0.25018287 0.09822157
0000b0 40 cc 16 bd 62 1a 3a 3e 99 73 a4 3e b3 51 48 be
       -0.03681588 0.18174127 0.32119444 -0.19562416
0000c0 c2 3e 7e 3e df 41 a0 be 78 cd 2e be 41 53 86 3e
       0.24828628 -0.31300256 -0.17070568 0.26235393
0000d0 84 74 87 bd c8 8f 72 be 30 8c a5 bc 98 cb 44 be
       -0.066140205 -0.2368766 -0.020208448 -0.1921829
0000e0 da 20 4d 3e 16 05 9d be 40 f2 85 bc c0 60 2d bd
       0.20032063 -0.30667943 -0.016350865 -0.042328596
0000f0 dc 5e bd bd 9b 73 89 3e f0 0d 90 bd 76 b3 2d be
       -0.092466086 0.26846012 -0.07033908 -0.1696299
000100 ae da 88 be e8 28 1b bd 8c 20 c5 3d f0 41 ba bd
       -0.2672934 -0.037880808 0.096253484 -0.09094608
000110 2c de a2 bd 00 43 b1 3d be 7a 2c 3e 20 c9 02 3c
       -0.07952532 0.08655357 0.16843697 0.007982522
000120 e6 fb 58 3e ce bf 30 3e 8a c0 59 3e 6e e8 0f 3e
       0.21189842 0.17260668 0.21264854 0.14053509
000130 46 93 c1 bd c2 70 47 3e 39 fa 81 3e de f4 5b be
       -0.09451918 0.19476607 0.25386217 -0.21480128
000140 3f 5c 95 3e a6 65 67 3e c3 42 68 be 98 02 9a be
       0.2917194 0.2259737 -0.22681718 -0.30080104
000150 24 e2 8b be 52 88 57 3e 56 52 82 be c0 f0 a0 3d
       -0.2732097 0.21048096 -0.25453442 0.078584194
000160 f4 51 86 be 76 69 91 be ea 28 a5 be b4 26 8f 3d
       -0.262344 -0.28400773 -0.32257777 0.06989804
000170 62 00 37 3e a0 59 19 bd ef 61 9f be 13 d1 3b be
       0.1787124 -0.03743899 -0.31129405 -0.18341474
000180 70 46 e7 bc 11 56 89 3e dc 57 f8 3d 50 5e bc bc
       -0.02823183 0.26823476 0.12126133 -0.02299419
000190 c8 90 a8 be 02 f8 36 3e 14 3b 89 be f2 8c 4b 3e
       -0.3292296 0.17868045 -0.26802886 0.19877985
0001a0 63 6e 83 3e f0 52 ca 3c c0 fa 3a 3d 46 a9 1a be
       0.25670156 0.02469775 0.04564929 -0.15103635
0001b0 6b 07 88 3e 6e c9 9a be f2 6c 9c be 42 45 75 3e
       0.2656816 -0.30231804 -0.3055187 0.23952201
0001c0 58 f0 19 bd 88 82 32 bd d0 4c da bd 86 5f 24 3e
       -0.037582725 -0.043581516 -0.10659182 0.16052064
0001d0 72 90 37 3e 80 5b dc bc 52 99 63 3e 08 d9 36 3d
       0.17926195 -0.0268991 0.22226456 0.04464057
0001e0 38 ea 04 bd c0 b6 73 be f1 6a a0 3e 20 ee 22 3d
       -0.03244993 -0.23800182 0.3133159 0.039777875
0001f0 94 fa ba 3d e0 f5 28 3e c6 61 b8 bd a0 4e 30 bc
       0.09129825 0.16500044 -0.09003024 -0.010760933
000200 17 0f 9b be 0c 89 e6 bd fe 9f 62 be 61 5a a1 3e
       -0.3028495 -0.11256608 -0.22131345 0.31514266
000210 f9 b1 97 3e 42 84 67 3e e0 6b 87 3d 60 18 24 3d
       0.2962797 0.22609046 0.066123724 0.04006231
000220 64 d0 ec 3d 8c 3a e6 bd 7b fe a9 3e 24 26 a0 be
       0.11563185 -0.11241636 0.33201966 -0.312791
000230 8b 20 a8 3e 9c e5 eb 3d 23 1f aa 3e b8 e9 24 be
       0.32837328 0.11518404 0.3322688 -0.16104782

radarnet.encoder.Wxo.bias f4 [16]
000000 7a 75 75 3e 50 09 ee 3c 62 3c 13 3e 36 ab 66 be
       0.23970595 0.029057175 0.14378503 -0.2252625
000010 6c 37 ea 3d 5b c2 1c be 4b 3c 9c be a8 0f 7e 3d
       0.11436352 -0.15308516 -0.3051475 0.06202665
000020 32 9c 44 3e f2 73 a0 be 52 11 49 3e 78 a5 68 be
       0.19200209 -0.3133846 0.19635513 -0.22719371
000030 77 18 83 3e 10 0d 88 3d ec b3 f9 3d 3e 1a 2d 3e
       0.25604603 0.066431165 0.121925205 0.16904542

radarnet.encoder.Who.weight f4 [16, 16, 3, 3]
000000 da 1c 61 3d e6 fe a5 bd 83 3e 03 bd c8 f7 1a 3d
       0.054959156 -0.08105259 -0.032042038 0.03783396
000010 eb 0f 83 3d 46 2d af bc c0 f1 1d 3d b8 04 31 bc
       0.063995205 -0.021383893 0.03856063 -0.010804348
000020 86 78 02 3d c4 f9 80 bd ab 4a 4b bd 89 a6 92 3d
       0.03185322 -0.06297639 -0.049631756 0.0716067
000030 08 3a 26 bd c0 b6 16 bc 10 b0 03 bd c6 01 7c 3d
       -0.040582687 -0.009198844 -0.03215033 0.06152513
000040 40 ab e2 ba 20 f9 57 bd c0 3a d6 3c 00 af 84 3b
       -0.0017293468 -0.05272782 0.026151061 0.004049182
000050 ba 9a 48 3d 1b ab 1e bd b0 46 97 bb f2 7c 5c 3d
       0.048975684 -0.038737398 -0.004616581 0.053830095
000060 5a cd 4a 3d b0 c1 a0 bb 07 b9 86 bd c0 24 e2 ba
       0.049512245 -0.004905902 -0.0657826 -0.0017253384
000070 6a c6 42 3d 14 43 d4 3c 60 b5 54 bc 00 22 5d bb
       0.047552504 0.025910892 -0.012982696 -0.003374219
000080 2a 1c 7a 3d 00 e0 cc bb e0 61 13 3d 6c b4 8b 3c
       0.061062016 -0.006252289 0.035982013 0.017053805
000090 19 57 8c 3d 88 6e 1d 3d 83 15 a5 bd 7e 8f 50 3d
       0.0685255 0.03843549 -0.08060744 0.050918095
0000a0 3a 75 2f 3d 12 14 5d 3d 93 f4 1d bd 1a be 79 3d
       0.042836405 0.05397422 -0.038563322 0.06097231
0000b0 a2 4e 10 3d 5f 2e 98 3d 60 4a 5a bb fc 4e ba bc
       0.03523124 0.074307196 -0.003330849 -0.02274274
0000c0 a0 3f 26 bc fd 8b 88 3d 60 60 74 bc 88 91 61 3c
       -0.010147005 0.06667326 -0.014915556 0.0137676075
0000d0 e2 74 2d 3d 81 03 9d 3d db b7 57 bd fe 2d 34 bd
       0.042347796 0.07666684 -0.052665573 -0.043989174
0000e0 2c 73 a3 3c 86 b8 c8 bc 78 37 2e bc a0 a9 53 3b
       0.01995238 -0.02450205 -0.010633342 0.003229715
0000f0 73 b3 85 3d 44 60 b2 3c a2 50 4b 3d 0a 04 79 3d
       0.06528368 0.021774419 0.049637444 0.060794868
000100 88 74 19 3d aa f6 23 3d cc d4 83 3c 40 11 e4 3b
       0.03746465 0.04003016 0.01609268 0.006960064
000110 99 2e 85 3d be 45 6e 3d 7c 8f cb bc 36 00 21 3d
       0.065030284 0.05817198 -0.024848692 0.03930684
000120 18 ee 3c 3c c3 da a0 bd 34 b8 8b bd 2a ea 2d 3d
       0.011531375 -0.078542255 -0.06822243 0.042459644
000130 0f 81 9c 3d fe a3 3d bd b0 1e 58 bd 84 ba a9 bd
       0.076418035 -0.046298973 -0.05276364 -0.08287528
000140 0e c7 03 3d 20 96 07 3b 5a 93 5a 3d f8 64 08 3c
       0.032172255 0.0020688847 0.05336318 0.008324854
000150 5f f9 8e 3d 42 40 85 bd df 58 8f 3d a0 68 3f bd
       0.069811575 -0.06506397 0.06999373 -0.046730638
000160 a0 d9 c5 bc 10 05 a7 bd 92 59 90 bd c2 43 9c bd
       -0.024151623 -0.081552625 -0.07048334 -0.07630111
000170 eb e5 53 bd b2 0d 52 3d 1a e7 3a 3d 4e d1 a7 bd
       -0.05173294 0.051282592 0.045630552 -0.081942186
000180 1c 81 c5 3c 0b d2 9e bd 9b 73 00 bd 36 6b a7 bd
       0.024109416 -0.07754906 -0.03136025 -0.08174746
000190 f0 c7 99 bb f2 d0 5c 3d 90 f4 86 bd 3c 6a 95 3c
       -0.004693024 0.053910203 -0.06589615 0.018239133
0001a0 8a 26 51 3d 6c 7e fc 3c 24 a2 a9 bc 02 45 59 3d
       0.051062144 0.030822001 -0.020707197 0.053044327
0001b0 d6 1d 05 3d 68 40 65 3c 7e 6b 7b 3d 8a 6b 8e bd
       0.032499157 0.013992406 0.06138181 -0.06954105
0001c0 34 4e 99 bd 19 32 98 3d 1b c7 6e bd d8 89 01 3d
       -0.07485619 0.0743143 -0.05829535 0.0316256
0001d0 e8 35 83 bd c0 1b 48 3c 7e 95 0b bd a5 1a 8c 3d
       -0.06406766 0.012213647 -0.034078114 0.068410195
0001e0 20 5e 0e bd 53 7b 1f bd 84 37 ac 3c 50 08 9a bc
       -0.034757733 -0.03893597 0.021022566 -0.018802792
0001f0 fc 12 9c bc 48 63 4b bd d1 ce a5 3d 5a d0 37 3d
       -0.019052021 -0.04965523 0.08096088 0.044876434
000200 f8 14 5c 3c 2c 7d a5 bc fd 0f 9f 3d 50 23 be bc
       0.013432734 -0.020201288 0.077667214 -0.023210198
000210 20 6f 88 bd 68 82 7b bc f6 41 22 3d 48 98 a8 bd
       -0.066618204 -0.0153509155 0.039613687 -0.0823217
000220 53 4f 97 3d 82 a3 91 bd 70 4b ae 3c f4 b0 88 3c
       0.07388177 -0.07111265 0.021276206 0.01668594
000230 c3 79 a5 bd 48 8c 0a 3d 80 62 6d bd ba ed 43 3d
       -0.08079865 0.03382519 -0.057955265 0.047834136
000240 eb 5a 8b 3d 11 bc 9e 3d 0c b5 dd 3c 4e 04 42 bd
       0.068044506 0.077507146 0.027063869 -0.047367387
000250 c6 1e 53 3d a2 c7 5c 3d 14 56 e1 3c 2b 4e 6f bd
       0.05154302 0.053901322 0.027506866 -0.058424156
000260 51 b6 91 3d 20 0c 6b 3b e8 fa 75 bc 6f 73 94 bd
       0.07114852 0.0035865381 -0.015013434 -0.0724858
000270 66 48 78 3d 5a 27 7c 3d 42 70 58 3d 24 33 cd 3c
       0.06061592 0.061560966 0.052841432 0.0250488
000280 50 69 df 3b f9 bd 8f 3d c0 cf 9c 3a eb c5 9c 3d
       0.006817974 0.07018656 0.001196377 0.07654937
000290 c6 8c 99 bd 5b 6f 80 3d b0 0b fe bc cb 5f 8b bd
       -0.074975535 0.06271239 -0.031011432 -0.068053804
0002a0 a6 20 14 bd c0 31 e7 3a 80 72 07 3c ab 37 30 bd
       -0.03616395 0.0017638728 0.008267045 -0.04302184
0002b0 ce 93 9c bd 36 03 8c bd 4e 90 93 bd ea e8 62 3d
       -0.07645379 -0.0683655 -0.07205258 0.055397905
0002c0 80 68 71 3b 5e b4 3a 3d 00 5c b8 ba ab cd 6c bd
       0.0036835968 0.045582168 -0.0014065504 -0.057813328
0002d0 6b d3 47 bd 7b 24 87 3d a0 ab 69 3c c0 5a 50 bc
       -0.04878561 0.06598755 0.01426211 -0.012716949
0002e0 4a de 98 bd c0 8d e7 bb 01 d3 83 3d 20 c6 28 bb
       -0.07464273 -0.0070664585 0.0643673 -0.0025752857
0002f0 78 a1 2c bd aa 6b 54 3d 11 61 9f 3d 78 84 2d bd
       -0.042146176 0.05186049 0.07782186 -0.04236266
000300 c0 60 f1 bb f0 82 c9 3b c2 17 96 bd c0 07 bb bb
       -0.00736627 0.006149642 -0.0732875 -0.005707711
000310 09 61 a7 3d e4 1e 97 bd 04 ce f9 3c 58 ce 03 3c
       0.08172805 -0.07378939 0.030493744 0.008044802
000320 52 0e 88 bd e8 9f 86 bd f5 f8 a2 3d db f5 8a bd
       -0.066433564 -0.065734684 0.07957641 -0.067851745
000330 94 b1 a3 3c 78 3e 36 bd 89 cc 93 3d 30 47 bc bb
       0.019982137 -0.04449317 0.07216746 -0.005745791
000340 5a b4 49 3d ca 23 86 bd 00 e2 d5 ba a9 e5 94 3d
       0.049244262 -0.06549795 -0.0016317964 0.07270367
000350 d1 4b 9e 3d 80 d4 4f bb c2 0f 2e 3d 99 21 a5 3d
       0.077293046 -0.0031712353 0.042495497 0.08063049
000360 18 81 24 3d 80 47 91 3b 6e 30 61 3d 4e de 69 3d
       0.040162176 0.0044335723 0.054977827 0.057096772
000370 58 92 2b 3c a8 21 35 bd 70 73 a6 bd 00 90 a1 39
       0.010471903 -0.04422155 -0.08127487 0.000308156
000380 a0 63 29 3b 80 a5 8d bb d4 06 a5 bc e0 e1 6a bd
       0.0025846735 -0.0043227077 -0.020144857 -0.057344317
000390 66 d7 50 3d 2c 39 87 3c 4e e2 08 bd d8 26 37 3c
       0.05098667 0.016506754 -0.033418946 0.011178695
0003a0 e6 46 0a bd fe 12 aa bd 63 9f 6b bd 93 f4 9a 3d
       -0.03375902 -0.08304404 -0.05752505 0.0756618
0003b0 18 bf 9c bd 60 33 57 bc f0 91 f8 bc e0 ac a7 3c
       -0.07653636 -0.013134807 -0.030343026 0.020468175
0003c0 40 7e 82 3b c6 7c 84 bd 40 00 0f bc c6 d5 7d bd
       0.0039823353 -0.06469111 -0.008728087 -0.06197145
0003d0 e0 0d 02 3c ce 5f 60 3d 90 29 e3 3b 70 9c be 3c
       0.007937878 0.054778866 0.006932445 0.023267955
0003e0 3a 96 7e 3d e8 fa 10 bc f1 70 92 3d 5c 1a 97 3c
       0.062154986 -0.008848883 0.07150448 0.018445186
0003f0 c0 71 38 bc f6 2a 5b bd 53 96 0a bd 60 6b 5d 3b
       -0.011257589 -0.053507768 -0.033834767 0.0033785924

radarnet.encoder.Who.bias f4 [16]
000000 d0 f0 62 bd d7 58 9f bd 46 dc 60 3d 60 59 5e bd
       -0.055405438 -0.07780617 0.05489757 -0.054284453
000010 4c d2 a0 bd dc 0f a5 bd b8 d0 05 3d e7 eb 8f 3d
       -0.07852611 -0.080596656 0.032669753 0.07027417
000020 e2 e1 7c 3d c2 09 26 3d 68 2b 01 3d 70 f8 e7 3c
       0.061738856 0.04053665 0.031535536 0.028316706
000030 3d ad 88 3d 5d 61 88 3d 92 32 49 3d 3e 61 81 bd
       0.066736676 0.066591956 0.049120493 -0.063173756
